kiki_checkpoints/kiki_epoch_60.pth (torch, 531239 bytes, 72 tensors)

conv_blocks_K.0.0.weight f4 [32, 2, 3, 3]
0.20011202 0.020450212 0.1541367 0.20849966 0.011787135 -0.14146475 0.22299583 -0.056896545
-0.0043553677 0.16723147 0.2117531 -2.8236427e-05 -0.14477819 -0.05320138 -0.08101652 -0.10185645
-0.09678127 -0.098701656 0.17374267 0.037112527 -0.08081582 -0.19101432 0.18476373 -0.12791371
-0.06859355 -0.06850362 0.021574762 0.028794503 0.052865226 0.061408725 -0.2140218 -0.04683024
-0.08124554 -0.14398569 -0.094582066 -0.08012722 0.18591526 0.03977921 0.036414143 0.13503578
-0.023951368 0.0024276692 0.07143623 -0.15366612 0.0037928117 0.093845196 -0.17174028 -0.054766905
0.07677869 0.19972914 -0.17813557 -0.15807126 -0.17767653 -0.1616198 -0.033829533 -0.20328827
0.04318657 -0.05844822 0.102075264 -0.04190983 -0.058487162 0.21756324 0.073430605 -0.046766065
-0.2134994 -0.03346422 0.12923986 0.11359275 0.18310612 -0.07919366 -0.20505184 -0.20984507
-7.552717e-06 -0.14291887 0.10351547 -0.10457478 0.06649501 -0.0013870535 0.032364257 -0.14491135
0.010217522 0.051464133 0.19198422 0.026035888 0.1933295 -0.12948945 -0.12168045 -0.0039724326
-0.17394738 -0.17732131 0.21037304 0.21337983 -0.045954015 0.12995452 -0.013207863 -0.009220842
0.17345846 0.1826645 0.107544795 -0.014799081 -0.08813905 -0.22508335 0.21119025 0.104136355
-9.923613e-05 0.15044482 0.22144213 -0.078965604 -0.16424416 0.12136318 -0.22957082 0.048745785
0.077709146 0.027324572 0.09168009 -0.031066678 0.13519892 -0.09707373 -0.15809493 -0.15065886
0.08665395 0.21945712 -0.20879126 0.105052136 0.107923925 0.12953968 0.021122983 0.22602251
-0.035534933 -0.23091263 0.0033024552 0.10606071 -0.01136242 0.20129387 -0.11161047 0.11165828
0.22749189 0.07619412 -0.17755932 -0.18153651 -0.17605115 -0.082482114 8.0930535e-05 -0.036100075
0.045849875 -0.12874283 0.20417325 0.04485336 -0.021053378 -0.07287815 -0.18402988 -0.16717699
-0.06774185 0.18703637 0.17274761 0.11005187 0.12622504 0.18122599 0.12963216 -0.1301617
-0.070468865 0.16993847 0.110105865 -0.04876959 0.1385609 -0.21480332 0.08134672 0.101583906
0.17631437 -0.16308218 0.16937482 0.0813144 0.038472813 -0.22977214 0.02041445 0.00042416994
-0.13489611 0.18058023 0.23063394 -0.075160384 0.22643195 -0.12588544 -0.20667425 -0.16217877
0.16349386 -0.08462424 -0.22448991 0.18169445 0.03907291 0.12729223 0.13683078 0.215347
-0.0039342353 -0.21333505 -0.10726969 0.16415165 -0.16091153 0.046096895 0.056168757 -0.040098537
0.10512276 -0.09087183 -1.9221097e-05 -0.16891252 -0.07199748 0.21789038 0.08651776 0.059396796
-0.16861416 -0.049507968 0.15783882 0.15965515 -0.1586753 0.01694721 0.19287306 -0.12003275
-0.00530664 -0.15736932 0.18731219 0.079660386 0.19778262 0.15955481 -0.20491599 -0.16171819
-0.06581813 -0.08067834 0.09600248 -0.10346059 -0.12758164 -0.04297452 0.02666703 -0.14671537
-0.2286212 -0.19381453 0.057400532 0.10496589 -0.22206768 -0.03413472 0.03196722 -0.18966171
-3.563652e-05 0.036056716 -0.14533804 -0.21781518 -0.15477023 -0.06276562 -0.0010220238 0.060569633
0.067604065 0.21773641 -0.041404374 0.099702775 0.108581185 0.16366254 0.17667478 0.020805689
00000000: 2aea 4c3e 3487 a73c 03d6 1d3e ef80 553e
00000010: d41e 413c 23dc 10be 0559 643e 5a0c 69bd
00000020: 79b7 8ebb ba3e 2b3e ced5 583e 44dd ecb7
00000030: bc40 14be b1e9 59bd fdeb a5bd 1d9a d0bd
00000040: 4235 c6bd 1824 cabd 99e9 313e 4e03 183d
00000050: c482 a5bd 4299 43be b432 3d3e d0fb 02be
00000060: c67a 8cbd a04b 8cbd 8ebd b03c 73e2 eb3c
00000070: 3589 583d b787 7b3d 8828 5bbe 11d1 3fbd
00000080: 1064 a6bd fc70 13be 3eb4 c1bd bd19 a4bd
00000090: 9260 3e3e 86ef 223d ff26 153d d246 0a3e
000000a0: a935 c4bc 8819 1f3b 284d 923d a75a 1dbe
000000b0: d290 783b e931 c03d afdc 2fbe 4353 60bd
000000c0: 253e 9d3d cc85 4c3e 2c69 36be 6fdd 21be
000000d0: d6f0 35be a97f 25be d690 0abd cd2a 50be
000000e0: 67e4 303d 6767 6fbd d60c d13d a4a9 2bbd
000000f0: 3c90 6fbd e6c8 5e3e c962 963d c68d 3fbd
00000100: 969f 5abe c711 09bd 7457 043e 51a3 e83d
00000110: 2c80 3b3e 4930 a2bd 1cf9 51be a0e1 56be
00000120: 586d fdb6 5359 12be ebff d33d 4d2b d6bd
00000130: 892e 883d cbcd b5ba 6290 043d a463 14be
00000140: 6567 273c 0ecc 523d 8397 443e 3749 d53c
00000150: 2bf8 453e e298 04be 9a33 f9bd 2e2b 82bb
00000160: 431f 32be b893 35be 086c 573e 3e80 5a3e
00000170: 473a 3cbd cc12 053e cb65 58bc 0413 17bc
00000180: 189f 313e 670c 3b3e 7240 dc3d d877 72bc
00000190: 3f82 b4bd 407c 66be 4242 583e 7145 d53d
000001a0: fe1c d0b8 350e 1a3e bac1 623e b8b8 a1bd
000001b0: 9f2f 28be 428d f83d 9d14 6bbe a9a9 473d
000001c0: f925 9f3d c8d7 df3c c5c2 bb3d 8c7f febc
000001d0: 9671 0a3e 97ce c6bd a3e3 21be 5146 1abe
000001e0: a077 b13d 5eb9 603e 60cd 55be 9325 d73d
000001f0: 3807 dd3d 0da6 043e 1b0a ad3c 7272 673e
00000200: 148d 11bd 5c74 6cbe 016e 583b 5c36 d93d
00000210: 7229 3abc fb1f 4e3e 0894 e4bd 19ad e43d
00000220: a2f3 683e aa0b 9c3d 1cd2 35be b5e4 39be
00000230: c146 34be 62ec a8bd 40b9 a938 acdd 13bd
00000240: 14cd 3b3d 29d5 03be cb12 513e 28b8 373d
00000250: 2278 acbc 2441 95bd 5472 3cbe 7230 2bbe
00000260: 3dbc 8abd 7686 3f3e c0e4 303e e062 e13d
00000270: 2341 013e 4e93 393e 4bbe 043e 1c49 05be
00000280: fb51 90bd 5a04 2e3e 2f7f e13d 9fc2 47bd
00000290: e9e2 0d3e 67f5 5bbe 1c99 a63d 390b d03d
000002a0: c18b 343e 04ff 26be 9870 2d3e 2a88 a63d
000002b0: ab95 1d3d 6349 6bbe 343c a73c 2063 de39
000002c0: 3522 0abe 06ea 383e 4e2b 6c3e b0ed 99bd
000002d0: c7dd 673e 1de8 00be 6aa2 53be 3112 26be
000002e0: ef6a 273e 794f adbd afe0 65be 1c0e 3a3e
000002f0: ea0a 203d e558 023e 5e1d 0c3e ed83 5c3e
00000300: c2ea 80bb 8174 5abe 36b0 dbbd 5f17 283e
00000310: fec5 24be 19d0 3c3d 3611 663d 5d3e 24bd
00000320: 9a4a d73d 031b babd fe3c a1b7 67f7 2cbe
00000330: 6a73 93bd a81e 5f3e 3930 b13d 0e4a 733d
00000340: 31a9 2cbe dec8 4abd 80a0 213e a47c 233e
00000350: c77b 22be e0d4 8a3c 8480 453e bbd3 f5bd
00000360: 53e3 adbb 6c25 21be c4ce 3f3e fc24 a33d
00000370: 8787 4a3e 5662 233e 7fd5 51be 7499 25be
00000380: a8cb 86bd af3a a5bd f39c c43d 25e3 d3bd
00000390: c3a4 02be 0d06 30bd d174 da3c 8e3c 16be
000003a0: ad1b 6abe 5177 46be d21c 6b3d 5bf8 d63d
000003b0: b665 63be d9d0 0bbd 0ff0 023d ae36 42be
000003c0: 6c78 15b8 35b0 133d 7fd3 14be f10a 5fbe
000003d0: 167c 1ebe 438b 80bd 6ef5 85ba dd17 783d
000003e0: 0074 8a3d 4bf6 5e3e a297 29bd f830 cc3d
000003f0: d05f de3d 2797 273e 3cea 343e b170 aa3c

conv_blocks_K.0.0.bias f4 [32]
0.027119854 0.10459666 0.070632294 -0.21732812 -0.045832388 -0.076614395 0.05769721 0.16154218
-0.16375105 -0.11456233 0.17524652 0.031880215 0.06359832 0.02363393 -0.20920096 -0.17123999
0.15915531 0.081851035 0.19419973 -0.15636007 0.18870807 0.16960204 -0.01691515 0.0701121
-0.00880019 0.22447214 0.21824515 0.082745835 0.13692153 0.17490105 0.2089629 -0.07759446
00000000: 752a de3c c636 d63d aaa7 903d 438b 5ebe
00000010: beba 3bbd 02e8 9cbd e953 6c3d 506b 253e
00000020: 5bae 27be a89f eabd d373 333e d494 023d
00000030: d63f 823d f29b c13c c738 56be 8959 2fbe
00000040: 9cf9 223e 84a1 a73d 4bdc 463e db1c 20be
00000050: b03c 413e 28ac 2d3e a491 8abc ef96 8f3d
00000060: ac2e 10bc 06dc 653e a87b 5f3e a676 a93d
00000070: 2835 0c3e 4319 333e 5ffa 553e d8e9 9ebd

conv_blocks_K.0.2.weight f4 [32, 32, 3, 3]
0.020519737 0.033147156 0.0488455 0.04036714 0.054205127 0.024189364 -0.02318278 -0.011203834
0.04074628 0.0006908823 0.032592688 0.04984936 0.018995248 0.048145864 -0.000369788 0.014723319
-0.04364825 -0.0024370747 -0.031581104 -0.00248601 0.0012860375 -0.020079201 -0.026346117 -0.04248154
-0.028773565 -0.02369836 0.031752624 0.05181718 -0.0062587853 0.009001622 0.051193282 -0.053506117
0.034357674 0.013044779 -0.031691495 0.052392818 -0.009658475 0.018016424 0.017595012 0.018182412
0.04929331 0.005010691 0.045712497 0.0047347955 0.027104411 -0.019624088 -0.00015821694 -0.046969064
-0.050327543 0.031277977 0.04903188 -0.045712765 -0.012026208 0.003659391 0.035792395 -0.012465797
0.0041663065 -0.030925153 -0.032596923 -0.035599373 -0.025167538 -0.010585599 -0.014115971 -0.005184357
-0.030806212 -0.05372523 -0.008722175 0.051894557 0.014995914 0.010700417 0.005074464 -0.036174934
-0.0035958108 0.0430064 -0.03166741 0.03575637 -0.01641787 -0.020625262 0.002828257 0.045273807
-0.024067035 0.036981523 -0.040489722 -0.019980054 -0.020160263 0.009113633 0.016825529 -0.003139746
0.053167563 -0.00015562418 0.04712015 0.003088032 0.020436289 0.020918354 0.0131992595 -0.043810457
-0.0054001515 -0.038292106 -0.03449477 -0.028953534 -0.032446682 -0.016967284 0.04466686 0.009561881
0.04115942 -0.006059878 -0.032640487 -0.0032055266 -0.021032408 0.005209022 0.019733662 -0.023591988
0.00043250757 0.0212636 8.829581e-05 0.004127683 0.00043201528 0.00023975442 0.034854423 0.0001636171
-0.020221177 -0.013708204 -0.04757194 0.029784322 -0.04238923 -0.010384565 0.0027430507 -0.034013756
-0.05280024 -0.03367518 -0.016672831 0.03735856 -0.042083256 -0.031258147 -0.048607115 0.045997627
0.012530061 0.0326204 0.0019764346 0.05250737 -0.014385857 -0.03067831 0.01966968 0.00020805205
0.0064727743 -0.036147736 -0.03879219 -0.02621825 -0.01015733 0.0059385556 -0.028314058 -0.0132106915
-0.04209985 0.016651392 0.04829583 -0.039879292 0.041468915 -0.02779196 -0.01161765 0.00070261385
0.014009566 -0.04398896 0.041900806 0.013717967 -0.047337294 -0.04813665 0.021763697 -0.044657566
0.0012196008 0.043481257 0.0386804 0.053754233 0.025927348 -0.03957527 0.05096663 -0.04577747
-0.042129032 0.03734076 -0.034513436 -0.050266568 -0.009272089 -0.029238544 0.015460588 -0.03125043
0.037271563 0.04171659 0.022158667 0.035717163 0.0446242 0.017136702 0.01029418 -0.052782997
-0.047274705 0.014287233 -0.022972094 0.02314453 0.02907937 0.0015547894 0.02228906 0.023205502
-0.03161377 0.020244017 -0.0032749572 -0.030418903 -0.053487584 0.012068703 -0.022881102 0.011751123
0.03404286 -0.006252411 -0.026690988 -0.0052064923 -0.027445512 -0.0033366492 -0.0097583225 -0.05150481
0.026954765 0.02871857 -0.04219097 0.04516161 -0.04755058 -0.029058034 0.012873009 0.0056153056
0.031269606 -0.010867519 0.039928634 -0.04408692 0.02812279 0.017731164 0.016264947 -0.029730111
0.012782818 -0.024817016 -0.024483582 0.02637287 0.009412429 0.044214062 0.052732166 0.05315287
-0.05024673 0.020196602 0.0015547454 -0.027629616 0.04050243 -0.041066423 -0.00091385836 0.0007343564
0.0007552568 -0.052809592 0.006628396 -0.012254857 -0.03145794 -0.01598546 0.035394467 0.051856697
00000000: 0219 a83c 50c5 073d 3812 483d 0458 253d
00000010: 3206 5e3d c628 c63c d0e9 bdbc 4990 37bc
00000020: 92e5 263d 541c 353a e97f 053d d82e 4c3d
00000030: ec9b 9b3c 9934 453d 1be0 c1b9 133a 713c
00000040: 82c8 32bd 54b7 1fbb 305b 01bd 54ec 22bb
00000050: 4290 a83a 237d a4bc d0d3 d7bc 2001 2ebd
00000060: 8ab6 ebbc 1023 c2bc 0a0f 023d 403e 543d
00000070: 7f16 cdbb 8a7b 133c 0cb0 513d 3b29 5bbd
00000080: a2ba 0c3d c5b9 553c f1ce 01bd da99 563d
00000090: 953e 1ebc 2e97 933c 6a23 903c 48f3 943c
000000a0: c8e7 493d b930 a43b 073d 3b3d 5826 9b3b
000000b0: 120a de3c b2c2 a0bc 09e7 25b9 a262 40bd
000000c0: 4124 4ebd 561d 003d a7d5 483d 4f3d 3bbd
000000d0: 9309 45bc 65d2 6f3b 0c9b 123d 583d 4cbc
000000e0: 8385 883b bf56 fdbc 5a84 05bd a6d0 11bd
000000f0: 272c cebc 386f 2dbc ac46 67bc 8ae1 a9bb
00000100: 4f5d fcbc fd0e 5cbd 74e7 0ebc 638f 543d
00000110: 6cb1 753c cd50 2f3c b047 a63b 2b2c 14bd
00000120: b2a7 6bbb 7b27 303d b0b5 01bd 4575 123d
00000130: c57e 86bc 4ff6 a8bc 475a 393b 0771 393d
00000140: 3b28 c5bc f079 173d 8dd8 25bd 36ad a3bc
00000150: 2327 a5bc 5951 153c b1d5 893c 32c4 4dbb
00000160: 3bc6 593d 0c2f 23b9 0f01 413d 9460 4a3b
00000170: 016a a73c f85c ab3c b541 583c 9872 33bd
00000180: c1f3 b0bb 2fd8 1cbd 634a 0dbd f62f edbc
00000190: d0e6 04bd f9fe 8abc 99f4 363d 70a9 1c3c
000001a0: c896 283d f191 c6bb 08b2 05bd d013 52bb
000001b0: 284c acbc 72b0 aa3b 7da8 a13c fc43 c1bc
000001c0: 2fc2 e239 0031 ae3c 742b b938 8441 873b
000001d0: 1c80 e239 9666 7b39 83c3 0e3d a190 2b39
000001e0: e2a6 a5bc 6098 60bc cbda 42bd 40fe f33c
000001f0: 54a0 2dbd 0624 2abc c1c4 333b 0252 0bbd
00000200: 1145 58bd fcee 09bd 7695 88bc 4a05 193d
00000210: 7e5f 2cbd 8b08 00bd 4118 47bd 0268 3c3d
00000220: e34a 4d3c f89c 053d 1287 013b f811 573d
00000230: a8b2 6bbc 1451 fbbc 4f22 a13c 8c28 5a39
00000240: 9119 d43b a60f 14bd 8fe4 1ebd a8c7 d6bc
00000250: ee6a 26bc 3798 c23b e2f2 e7bc a871 58bc
00000260: e470 2cbd 8068 883c d9d1 453d 7858 23bd
00000270: 4fdb 293d f7ab e3bc f557 3ebc 9e2f 383a
00000280: 6188 653c c52d 34bd 2ea0 2b3d 53c1 603c
00000290: c0e4 41bd f02a 45bd c849 b23c daea 36bd
000002a0: 03db 9f3a 6719 323d 576f 1e3d 662d 5c3d
000002b0: 9765 d43c ae19 22bd 63c2 503d 2881 3bbd
000002c0: 7e8f 2cbd a0f2 183d f65d 0dbd 51e4 4dbd
000002d0: f6e9 17bc ac85 efbc 684e 7d3c 7300 00bd
000002e0: 11aa 183d 04df 2a3d 1886 b53c 294c 123d
000002f0: ddc7 363d 4562 8c3c eca8 283c fc32 58bd
00000300: 1fa3 41bd 0015 6a3c f92f bcbc 9999 bd3c
00000310: dc37 ee3c 13ca cb3a 8c97 b63c 7719 be3c
00000320: 717d 01bd c8d6 a53c aaa0 56bb 1031 f9bc
00000330: cc15 5bbd cfbb 453c 2671 bbbc c887 403c
00000340: 8770 0b3d 06e1 ccbb 0fa7 dabc 399b aabb
00000350: 69d5 e0bc afab 5abb 5fe1 1fbc b5f6 52bd
00000360: 3dd0 dc3c 3543 eb3c 70d0 2cbd 61fb 383d
00000370: 66c4 42bd 1d0b eebc 50e9 523c 9900 b83b
00000380: 8f14 003d ae0d 32bc 358c 233d 7c94 34bd
00000390: c461 e63c f240 913c 113e 853c 908c f3bc
000003a0: 066f 513c 0e4d cbbc cb91 c8bc eb0b d83c
000003b0: 9736 1a3c ce19 353d affd 573d d3b6 593d
000003c0: 84cf 4dbd 5873 a53c 99c8 cb3a 8157 e2bc
000003d0: e0e5 253d 4435 28bd ff8f 6fba d381 403a
000003e0: 6dfc 453a df4e 58bd 0433 d93b 99c8 48bc
000003f0: 0ada 00bd f0f3 82bc caf9 103d b067 543d

conv_blocks_K.0.2.bias f4 [32]
-0.049261786 -0.023400273 -0.003666151 0.04234027 -0.0013419082 -0.016680613 0.03003595 -0.014350648
0.042368293 0.049415868 0.021252815 0.0014005329 0.03969959 -0.05123185 -0.053591512 0.012656884
-0.0346599 -0.045612436 -0.012765689 -0.032818757 0.0056668646 -0.0337895 0.0038386935 0.026692428
-0.026985286 0.04412229 -0.020174487 0.042826686 -0.03663479 -0.034801085 0.027186137 0.058325123
00000000: bac6 49bd eeb1 bfbc cf43 70bb fe6c 2d3d
00000010: f8e2 afba c8a5 88bc f40d f63c fb1e 6bbc
00000020: 608a 2d3d 4b68 4a3d 621a ae3c 1692 b73a
00000030: 0a9c 223d 7dd8 51bd c682 5bbd d25e 4f3c
00000040: 8af7 0dbd 1bd4 3abd 2e27 51bc f66c 06bd
00000050: 1bb1 b93b dc66 0abd 9792 7b3b 14aa da3c
00000060: 3f10 ddbc 93b9 343d f744 a5bc 096b 2f3d
00000070: 5d0e 16bd 958b 0ebd 76b5 de3c 53e6 6e3d

conv_blocks_K.0.4.weight f4 [2, 32, 3, 3]
-0.026250398 -0.04825947 -0.025230756 0.030100983 -0.042025853 -0.012280508 -0.045983434 0.00046568978
0.037487518 0.0028885712 0.0015029634 -0.0038533027 0.050571356 0.008295359 0.0037153785 0.008195921
0.0044980017 0.04007443 0.041271828 0.012173094 0.027121032 -0.042735994 -0.043374002 0.0042931424
0.014831517 0.008279438 0.025899027 0.04932914 -0.05048504 -0.053645954 0.00130171 -0.032871116
0.017060645 0.010330127 -0.00087976793 0.003222678 0.002610525 -0.049527083 0.02446235 0.016742842
0.05201804 0.007938506 0.0032238467 0.0027873917 -0.004421261 0.015714565 0.0047866167 0.05198893
-0.027858628 -0.03180964 0.045636673 0.026339 0.0033703072 0.04532531 -0.004126704 0.014288469
0.0076575326 -0.0022545746 0.03130992 -0.02877801 -0.016031558 0.03920455 0.029106928 0.017356878
0.022039147 0.032884203 -0.0021354274 0.053454604 0.010355541 -0.008885986 0.022732355 0.015870659
-0.042283498 -0.0015282306 0.00922068 0.037489574 -0.04632026 -0.04165736 -0.043079615 0.028164338
-0.0066402154 -0.05235409 -0.036875676 0.04535279 0.024664573 0.03921284 -0.05574755 -0.023980048
0.0113264965 0.02239439 0.04566197 -0.050079513 0.027905403 0.0066722175 0.054495327 -0.04558208
0.0023883856 -0.051544245 -0.011462319 0.026214523 0.034301013 -0.049938437 0.0014235207 0.04400579
-0.0076175495 -0.0058507076 0.0032889708 -0.00016585151 -0.0055849687 0.047973208 -0.019439844 -0.05010215
0.043536812 -0.020694075 -0.023887854 -0.01946027 0.031238982 0.002300365 0.029019289 -0.03339485
-0.018249692 -0.035657555 0.039374005 -0.048705157 -0.05017215 0.030637575 -0.028808456 0.04579842
-0.042080306 0.002147951 0.022572812 0.032362025 -0.018005757 -0.009888808 0.017932102 -0.025012452
-0.028994689 0.027924959 0.01134732 -0.047280136 0.0013325628 0.018606996 -0.051756237 -0.022432083
-0.047643244 -0.053212907 -0.020891136 0.048290856 0.003142181 0.0005531582 0.008184207 0.008701872
0.0023511401 0.020535987 -0.0129048955 0.054428015 0.0020674875 -0.016448664 -0.00059612334 0.031208757
-0.034636952 0.04986617 -0.009396211 -0.0075740535 -0.024605975 0.029679498 0.01526884 0.016691737
-0.021716844 -0.0345807 -0.023622531 0.013006561 -0.038313624 0.011586829 -0.038182028 -0.008390705
0.0037485566 -0.023854697 -0.04899247 0.027872564 -0.0079645775 0.005665872 0.048650865 -0.0044557024
-0.036286343 -0.018492369 0.046916023 0.03330777 -0.04260541 -0.026842209 -0.022877863 0.024832634
0.043989252 0.02680812 0.011342946 0.00033787414 -0.026402945 0.029647086 -0.052430652 -0.04205666
0.043364983 -0.014008124 -0.026109116 0.020817894 0.01632535 -0.0061228387 -0.007328854 0.042675138
0.03114072 0.04906523 0.0134841865 0.017890293 0.029292716 -0.04014997 0.009466751 0.002544492
0.02748526 0.016332729 0.0018084313 0.047703877 -0.0014080515 0.05207475 -0.05136757 0.052320488
-0.0351133 0.009571285 0.04400598 0.030134503 -0.0542856 0.018408839 -0.038250193 0.047402356
0.051092345 0.03555291 0.040309012 -0.034308676 -0.0037811901 -0.013278106 0.030324098 -0.015378402
0.039070476 -0.03619114 0.012610253 -0.02261901 0.028876662 0.019657971 -0.020215843 -0.020243296
0.042493954 0.012750949 -0.017138813 -0.041248843 0.027497983 0.035785526 0.022302108 -0.04446941
00000000: 130b d7bc b9ab 45bd bbb0 cebc 5696 f63c
00000010: 4d23 2cbd 2f34 49bc 2059 3cbd d327 f439
00000020: 838c 193d 2f4e 3d3b 15ff c43a b187 7cbb
00000030: e923 4f3d 42e9 073c b57d 733b 2f48 063c
00000040: f963 933b 1625 243d a60c 293d a871 473c
00000050: ed2c de3c f00b 2fbd f0a8 31bd 7dad 8c3b
00000060: e4ff 723c 7ba6 073c 322a d43c 5a0d 4a3d
00000070: 67c9 4ebd dcbb 5bbd 249e aa3a dda3 06bd
00000080: c4c2 8b3c b13f 293c 3aa0 66ba 9133 533b
00000090: 5815 2b3b e9dc 4abd 4465 c83c 4928 893c
000000a0: de10 553d 8210 023c 2c47 533b acac 363b
000000b0: 3ae0 90bb d5bb 803c 0dd9 9c3b 58f2 543d
000000c0: c737 e4bc d34a 02bd 85ed 3a3d e3c4 d73c
000000d0: 5fe0 5c3b 08a7 393d 4d39 87bb 2f1a 6a3c
000000e0: 0aec fa3b 7cc1 13bb d53e 003d dcbf ebbc
000000f0: 9d54 83bc f394 203d a771 ee3c 0330 8e3c
00000100: 718b b43c 96b1 063d 87f2 0bbb 37f3 5a3d
00000110: 49aa 293c 8796 11bc 3439 ba3c 2f03 823c
00000120: 7631 2dbd e94e c8ba 5612 173c ab8e 193d
00000130: 50ba 3dbd e8a0 2abd 4074 30bd e6b8 e63c
00000140: 2a96 d9bb 3e71 56bd f30a 17bd d9c3 393d
00000150: 5c0d ca3c a59d 203d 8b57 64bd ce71 c4bc
00000160: c592 393c 7174 b73c 0c08 3b3d 2d20 4dbd
00000170: df99 e43c 9ea2 da3b 7e36 5f3d 46b4 3abd
00000180: 7686 1c3b 0f20 53bd 73cc 3bbc d7bf d63c
00000190: 387f 0c3d 3f8c 4cbd 6e95 ba3a 6a3f 343d
000001a0: a39c f9bb 4bb7 bfbb c68b 573b 6de8 2db9
000001b0: 1d02 b7bb 8e7f 443d 4f40 9fbc e937 4dbd
000001c0: a853 323d 9f86 a9bc 76b0 c3bc 256b 9fbc
000001d0: e5e8 ff3c b8c1 163b dcb9 ed3c 0ac9 08bd
000001e0: 6180 95bc a80d 12bd a346 213d 0f7f 47bd
000001f0: 5081 4dbd a7fb fa3c b6ff ebbc 2097 3b3d
00000200: 665c 2cbd a3c4 0c3b 9eea b83c 0b8e 043d
00000210: cf80 93bc ab04 22bc 58e6 923c eae6 ccbc
00000220: 4586 edbc e2c2 e43c 1cea 393c d1a8 41bd
00000230: 63a9 ae3a b36d 983c 59fe 53bd 7dc3 b7bc
00000240: 9025 43bd c7f5 59bd e323 abbc a2cc 453d
00000250: 0ded 4d3b d201 113a 0d17 063c 4c92 0e3c
00000260: 9615 1a3b 163b a83c 0e6f 53bc e9ef 5e3d
00000270: af7e 073b 59bf 86bc 2945 1cba 82a9 ff3c
00000280: 7adf 0dbd 7840 4c3d 91f2 19bc c42f f8bb
00000290: 7892 c9bc 6b22 f33c 282a 7a3c 1cbd 883c
000002a0: 86e7 b1bc 7ea4 0dbd 0a84 c1bc 7919 553c
000002b0: bfee 1cbd afd6 3d3c c264 1cbd 2b79 09bc
000002c0: 58aa 753b ed6a c3bc 54ac 48bd 0155 e43c
000002d0: dc7d 02bc c7a8 b93b 2146 473d 2401 92bb
000002e0: fda0 14bd 4f7d 97bc 042b 403d ba6d 083d
000002f0: 0383 2ebd 31e4 dbbc 5b6a bbbc cf6d cb3c
00000300: 132e 343d b49c db3c c4d7 393c b324 b139
00000310: fd4a d8bc 72de f23c 86c1 56bd 9b43 2cbd
00000320: 7b9f 313d 5582 65bc c9e2 d5bc 4a8a aa3c
00000330: bebc 853c 18a2 c8bb e226 f0bb 20cc 2e3d
00000340: d31a ff3c 9ff8 483d c7ec 5c3c aa8e 923c
00000350: 47f7 ef3c 4c74 24bd 6e1a 1b3c 7ec1 263b
00000360: c528 e13c 37cc 853c e308 ed3a 2465 433d
00000370: 5e8e b8ba 554c 553d cd66 52bd 024e 563d
00000380: f7d2 0fbd e1d0 1c3c 9d3f 343d a2dc f63c
00000390: 945a 5ebd 22ce 963c 3cac 1cbd f928 423d
000003a0: 3546 513d ee9f 113d 101b 253d 4187 0cbd
000003b0: d8cd 77bb 6a8c 59bc 3e6a f83c b1f5 7bbc
000003c0: 5d08 203d 293d 14bd 3c9b 4e3c 814b b9bc
000003d0: c08e ec3c c109 a13c b29b a5bc 45d5 a5bc
000003e0: 240e 2e3d 5be9 503c b266 8cbc 8cf4 28bd
000003f0: 7343 e13c d893 123d e9b2 b63c 8e25 36bd

conv_blocks_K.0.4.bias f4 [2]
0.015281566 0.028165238
00000000: 895f 7a3c c9ba e63c

conv_blocks_K.1.0.weight f4 [32, 2, 3, 3]
0.043391727 0.17341563 0.046043128 -0.18274136 0.105114356 0.19563788 -0.15451322 -0.21464339
0.0057343277 0.16146252 0.106695265 -0.14881343 0.103888385 -0.063075036 -0.03402827 -0.012340872
-0.18161646 -0.09394987 0.0050347717 0.13998024 -0.13504392 0.093649566 0.041823853 -0.015789585
-0.054934435 -0.19049756 0.07362696 -0.12441124 0.2187854 0.08374492 0.08218829 0.22146574
-0.016955571 -0.088663585 0.0025731898 -0.06904504 0.07409171 -0.22962277 0.034678034 -0.031530585
-0.054784097 0.13092695 -0.1774611 -0.051203787 0.17577246 0.033515997 -0.14936355 0.1351297
-0.19231234 0.14826192 -0.09132573 0.077258065 0.17208064 0.20445608 0.06887932 0.09916732
-0.053911626 -0.054313987 -0.21096982 0.10561142 0.043809146 0.06617355 -0.14618272 -0.22844769
0.11977994 -0.10750154 -0.07212118 0.06608747 0.08757313 -0.22110662 -0.05447707 0.19895215
0.03895109 -0.1323729 0.18303546 -0.21437779 0.020447247 0.049596667 0.020009875 0.21115853
0.04020414 -0.14726526 -0.030892514 -0.09327354 0.19087943 0.025925906 -0.20922849 -0.00029800384
-0.0015045814 0.009168406 0.05341083 0.12316175 -0.18276913 0.06955027 -0.11394453 0.15037726
-0.12440214 -0.16346958 -0.13087638 0.13083953 -0.040473975 0.20062907 -0.19216803 0.071228325
-0.0797157 0.029574724 0.14479463 0.115514316 -0.21577807 -0.030147681 0.09336137 -0.22930133
-0.16897233 -0.22934744 0.027389346 0.046005137 -0.09397532 0.09089003 0.031245545 0.096078336
0.20228589 -0.15268706 -0.17802054 0.21960619 -0.1176272 0.16180076 -0.07666675 -0.048326034
-0.10175955 0.068557374 -0.014422109 0.18349665 -0.22689521 -0.0048288293 0.032817535 0.07208459
0.17877781 0.077257015 -0.19901423 0.028320625 -0.09496362 0.14054105 -0.09772026 -0.02367052
0.055716783 0.14973024 -0.10885378 0.17064776 -0.16174147 -0.05203948 -0.14349213 0.045250237
-0.18669881 -0.003297825 -0.15803666 0.14745456 -0.20863958 -0.09840969 -0.19507015 -0.1435783
0.012876852 0.10776751 0.11366781 -0.18105559 -0.036894023 -0.04434097 0.095191516 -0.019186867
-0.026094407 -0.14230266 -0.15894082 -0.007212585 0.10602847 -0.11274523 0.045271907 0.11040187
-0.08136303 0.20825244 0.20924751 0.13614774 0.09648335 -0.18192722 0.12157594 -0.022661956
0.17732291 -0.1885524 -0.0041211164 0.2098183 0.042450417 0.07206044 0.0018386572 -0.10742819
0.11144083 0.1812203 0.12419878 -0.15422212 -0.15441982 0.22295147 -0.02808491 0.09415978
0.06346493 -0.14517267 0.19777922 0.039119367 -0.10958698 0.21767665 0.07405651 0.053121645
-0.15672654 0.20236045 -0.11443995 -0.07769709 -0.22375312 0.061187807 -0.12864093 -0.2041102
0.16151491 -0.20996802 -0.043854747 -0.083818264 0.013312208 0.030561686 0.2040437 0.06745147
-0.07123803 -0.1357781 -0.058370695 0.12524322 -0.2230443 0.08472569 -0.011385967 -0.10620825
0.15020658 0.11438079 0.0045185066 -0.11222364 -0.13929333 -0.05933532 -0.14184166 -0.03702329
0.074246876 -0.021851571 0.025750922 -0.081037186 -0.059737984 0.133204 -0.023873411 0.05469896
-0.1576456 -0.1318928 0.17569616 -0.0028246792 0.22416832 -0.07545478 0.12033616 0.09701618
00000000: 86bb 313d de93 313e b897 3c3d 8d20 3bbe
00000010: 3246 d73d 4c55 483e b738 1ebe 7acb 5bbe
00000020: 07e7 bb3b 6e56 253e 0c83 da3d 8c62 18be
00000030: 6fc3 d43d 7c2d 81bd 3a61 0bbd 5e31 4abc
00000040: aaf9 39be ca68 c0bd bafa a43b fb56 0f3e
00000050: f448 0abe 58cb bf3d 7d4f 2b3d 2959 81bc
00000060: ee02 61bd cb11 43be bbc9 963d 52cb febd
00000070: 4809 603e 7582 ab3d 5652 a83d eac7 623e
00000080: 69e6 8abc 4195 b5bd f6a2 283b 7c67 8dbd
00000090: 65bd 973d 3b22 6bbe 8e0a 0e3d 3726 01bd
000000a0: 4a65 60bd b711 063e 5db8 35be 10bb 51bd
000000b0: b2fd 333e 1248 093d c2f2 18be 715f 0a3e
000000c0: 87ed 44be f9d1 173e fc08 bbbd 7a39 9e3d
000000d0: e835 303e ef5c 513e 9a10 8d3d 3c18 cb3d
000000e0: 70d2 5cbd 5878 5ebd 7908 58be cd4a d83d
000000f0: 3871 333d 0086 873d ecb0 15be 31ee 69be
00000100: 2f4f f53d c429 dcbd 45b4 93bd de58 873d
00000110: 8b59 b33d c669 62be 5923 5fbd 1dba 4b3e
00000120: 2e8b 1f3d c38c 07be a66d 3b3e da85 5bbe
00000130: fc80 a73c e025 4b3d c0eb a33c f139 583e
00000140: 19ad 243d b4cc 16be 4c12 fdbc 3306 bfbd
00000150: e675 433e 9162 d43c fe3f 56be 663d 9cb9
00000160: 6035 c5ba 1537 163c 51c5 5a3d 3a3c fc3d
00000170: d527 3bbe 5f70 8e3d c05b e9bd 7ffc 193e
00000180: 8dc6 febd 9264 27be 7504 06be ccfa 053e
00000190: 0ac8 25bd b571 4d3e b2c7 44be 28e0 913d
000001a0: fc41 a3bd b146 f23c 0b45 143e c592 ec3d
000001b0: edf4 5cbe 45f8 f6bc 3f34 bf3d f8cd 6abe
000001c0: 1507 2dbe 0eda 6abe 9f5f e03c e26f 3c3d
000001d0: 2276 c0bd 8d24 ba3d a8f6 ff3c b8c4 c43d
000001e0: 0824 4f3e ff59 1cbe 044b 36be 72e0 603e
000001f0: 88e6 f0bd 19af 253e 7503 9dbd 85f1 45bd
00000200: 5067 d0bd cf67 8c3d b64a 6cbc 8ce6 3b3e
00000210: 3857 68be 283b 9ebb ae6b 063d 16a1 933d
00000220: 8811 373e ed38 9e3d 63ca 4bbe a800 e83c
00000230: 497c c2bd fee9 0f3e 8f21 c8bd aee8 c1bc
00000240: 4837 643d e252 193e bbee debd 49be 2e3e
00000250: 8e9f 25be 5a27 55bd 9aef 12be 5058 393d
00000260: f92d 3fbe 5320 58bb 5dd4 21be 54fe 163e
00000270: 9da5 55be 058b c9bd 78c0 47be 3106 13be
00000280: 6ff9 523c 36b5 dc3d abca e83d a366 39be
00000290: 301e 17bd e19e 35bd c5f3 c23d c72d 9dbc
000002a0: f0c3 d5bc cab7 11be 62c1 22be 8c57 ecbb
000002b0: 7425 d93d f9e6 e6bd 096f 393d 601a e23d
000002c0: a9a1 a6bd 2140 553e fb44 563e 506a 0b3e
000002d0: 1099 c53d 214b 3abe cefc f83d 91a5 b9bc
000002e0: 2394 353e e113 41be 6e0a 87bb 9cda 563e
000002f0: 7de0 2d3d 6d94 933d 19ff f03a 5003 dcbd
00000300: 173b e43d d091 393e ee5b fe3d 67ec 1dbe
00000310: 3b20 1ebe 644d 643e 5312 e6bc d8d6 c03d
00000320: e7f9 813d 25a8 14be a386 4a3e a13b 203d
00000330: 236f e0bd a1e6 5e3e f1aa 973d 1596 593d
00000340: ec7c 20be 9437 4f3e 7e5f eabd a71f 9fbd
00000350: 8a1f 65be 11a0 7a3d 73ba 03be 4402 51be
00000360: 2a64 253e db01 57be 09a1 33bd e9a8 abbd
00000370: 721b 5a3c 805c fa3c d5f0 503e ff23 8a3d
00000380: 3fe5 91bd 6a09 0bbe 1c16 6fbd c23f 003e
00000390: ba65 64be aa84 ad3d 358c 3abc b683 d9bd
000003a0: c1cf 193e 7a40 ea3d fb0f 943b 82d5 e5bd
000003b0: e9a2 0ebe 9809 73bd f13e 11be bca5 17bd
000003c0: bf0e 983d 1102 b3bc 99f3 d23c d3f6 a5bd
000003d0: d1af 74bd a166 083e 2c92 c3bc 040c 603d
000003e0: d96d 21be e80e 07be b2e9 333e 411e 39bb
000003f0: 618c 653e 0988 9abd ce72 f63d 6bb0 c63d

conv_blocks_K.1.0.bias f4 [32]
-0.15590113 -0.18451065 0.0669311 -0.20994593 0.2286275 0.1472336 -0.12866354 0.1162057
0.22540627 -0.15316771 0.14866193 0.06230856 -0.19947803 -0.051215217 -0.026229886 -0.15723279
-0.051297527 0.13600142 0.17686659 0.030940976 -0.07750887 -0.22063956 -0.15563208 -0.011247408
0.0007042382 0.080901474 -0.021164728 -0.2098642 -0.14090446 -0.051742252 0.15907714 0.056568716
00000000: 8ca4 1fbe 5cf0 3cbe 2c13 893d 11fc 56be
00000010: 541d 6a3e 68c4 163e 60c0 03be 41fd ed3d
00000020: e7d0 663e ffd7 1cbe d53a 183e 4337 7f3d
00000030: f843 4cbe 0cc7 51bd 0fe0 d6bc a201 21be
00000040: 5b1d 52bd f543 0b3e 841c 353e ee77 fd3c
00000050: f8bc 9ebd 56ef 61be 045e 1fbe 0c47 38bc
00000060: a09c 383a acaf a53d a761 adbc a4e6 56be
00000070: 4249 10be afef 53bd 1ee5 223e 99b4 673d

conv_blocks_K.1.2.weight f4 [32, 32, 3, 3]
-0.0027731245 -0.04922751 -0.044030305 -6.538554e-05 -0.036691517 0.047081195 -0.054611593 -0.026553214
-0.051754948 0.042317957 0.04594395 0.024789188 -0.031023664 -0.046055716 -0.05137353 0.02476674
0.004549068 0.027099092 0.01837782 0.045861084 0.054343253 0.03107074 0.011504974 -0.034412496
-0.05237957 0.048624516 0.01288557 0.05010852 -0.024790227 -0.0044559394 -0.04255735 0.017527295
0.041400414 0.05051972 0.0012822237 -0.01578896 0.039947305 0.02899235 0.031294726 -0.02329409
0.009136555 -0.015206502 -0.008155046 -0.016940143 0.011585769 0.021365844 0.012264101 -0.0061770114
-0.042712227 -0.015743013 0.04490554 -0.03551778 -0.050905995 -0.013095315 0.0148881925 -0.039612144
0.013811821 -0.027992675 -0.020465618 -0.031208333 -0.0022365055 -0.043024253 -0.0084781675 -0.022753242
0.045904737 -0.025984077 0.01381213 -0.030410053 0.025324307 -0.04729125 -0.021324456 0.024781948
0.04612095 0.023994997 -0.034035034 0.009316898 0.0016389701 0.04037631 -0.0123745175 -0.035422694
0.033273585 0.016543688 -0.023454063 0.043064106 0.028094921 -0.050117802 0.03442784 -0.023493886
-0.010504867 0.031950306 0.0075560776 0.053390093 -0.04751937 0.025847835 0.010175831 -0.015164265
-0.014684867 0.023669563 0.039027326 -0.05230039 0.021450168 -0.03713563 0.002887004 -0.028701399
0.003384113 -0.048856262 0.023965815 -0.03681907 0.03253821 -0.04071405 0.039125007 0.031155098
-0.054592207 -0.046287388 -0.022878049 -0.03647282 -0.054366104 -0.0008661739 -0.03373961 0.01651957
-0.04816747 -0.0303171 0.019884197 0.016368017 0.040104587 -0.045135327 -0.041320562 -0.020364147
0.0034841085 -0.016444262 0.011441529 0.039445158 0.010731423 0.03909886 0.009644682 0.019615453
-0.043772113 -0.006569347 0.043133687 -0.01890551 -0.016896376 -0.021629473 0.016237317 0.047663875
0.019194452 0.047641706 0.0365666 -0.0043612146 -0.016085576 -0.015506359 0.01998873 0.034289554
-0.05227864 -0.023526551 -0.051934283 -0.031955462 0.043697294 0.050016522 -0.034743447 -0.024831276
0.020787798 0.018859563 0.008857651 -0.007192233 -0.027857644 -0.04874138 -0.01281165 -0.044644307
0.049750417 0.049038142 -0.0389309 0.021485934 0.039075583 0.044877466 0.043783054 -0.03675083
0.04203485 0.05175771 0.0024553298 0.024410298 -0.019493522 0.053703453 -0.049064375 -0.03209108
0.0055651288 -0.021662284 -0.01758199 0.016427506 0.02880183 0.033861354 0.045508355 0.02481976
-0.021766335 0.016022353 -0.031364694 0.02964096 0.020138295 0.045403704 0.028869115 0.048669476
-0.008586723 -0.046614952 0.041899137 -0.049058985 0.0034286224 0.004544038 0.0052309125 0.036099035
0.007433855 -0.016797593 -0.0007007444 -0.05401406 -0.035697203 -0.00082306174 0.04887806 -0.010289978
0.027352396 -0.033182807 -0.041610878 0.023447638 0.02992573 -0.00023807389 0.040299352 0.018743327
0.025497388 0.012509756 0.055006627 -0.041212916 -0.0077427123 -0.033779453 -0.031835 0.012938007
-0.002634618 -0.005016719 0.018175222 0.048618414 -0.04951497 -0.01423471 -0.0020978497 0.02862401
-0.020694686 -0.050690565 -0.01913595 -0.028032571 -0.05174301 -0.037596058 -0.019298077 0.015830902
-0.028409598 -0.014495345 -0.044499937 -0.03045098 -0.0066241976 -0.022631321 -0.0013954085 0.012327722
00000000: 4fbd 35bb c9a2 49bd 1f59 34bd 981f 89b8
00000010: d849 16bd 36d8 403d 68b0 5fbd 2086 d9bc
00000020: fffc 53bd 9855 2d3d b92f 3c3d b212 cb3c
00000030: 5725 febc eba4 3cbd 0d6d 52bd 9ee3 ca3c
00000040: 5910 953b eafe dd3c 158d 963c d5d8 3b3d
00000050: 0897 5e3d 1188 fe3c 5c7f 3c3c 1ef4 0cbd
00000060: f68b 56bd 802a 473d ff1d 533c 973e 4d3d
00000070: e014 cbbc 2103 92bb 9e50 2ebd 6795 8f3c
00000080: 7b93 293d c4ed 4e3d 4a10 a83a d957 81bc
00000090: c99f 233d 5d81 ed3c e62e 003d 3fd3 bebc
000000a0: 7db1 153c b124 79bc be9c 05bc 0ec6 8abc
000000b0: 3dd2 3d3c 6c07 af3c 5eef 483c 8768 cabb
000000c0: 04f3 2ebd 7ef7 80bc dfee 373d 177b 11bd
000000d0: ce82 50bd bb8d 56bc 9bed 733c 5840 22bd
000000e0: fa4a 623c e550 e5bc 83a7 a7bc 9ea8 ffbc
000000f0: 5692 12bb 333a 30bd 03e8 0abc 0265 babc
00000100: 9b06 3c3d 8fdc d4bc 464c 623c 811e f9bc
00000110: ec74 cf3c 78b4 41bd a0b0 aebc 8303 cb3c
00000120: 52e9 3c3d 2891 c43c 5268 0bbd e7a5 183c
00000130: b6d2 d63a a161 253d 7dbe 4abc 6317 11bd
00000140: e249 083d a186 873c bc22 c0bc fd63 303d
00000150: 5227 e63c 5348 4dbd 3504 0d3d 4076 c0bc
00000160: 9b1c 2cbc 53de 023d f998 f73b 92af 5a3d
00000170: aca3 42bd d7be d33c 87b8 263c 8a73 78bc
00000180: cc98 70bc ace6 c13c 1edb 1f3d ef38 56bd
00000190: 43b8 af3c 881b 18bd e433 3d3b 321f ebbc
000001a0: ffc7 5d3b 811d 48bd f553 c43c 98cf 16bd
000001b0: c946 053d c7c3 26bd 8b41 203d fa38 ff3c
000001c0: 149c 5fbd d897 3dbd bf6a bbbc 8664 15bd
000001d0: feae 5ebd f20f 63ba 8c32 0abd 0d54 873c
000001e0: 414b 45bd 915b f8bc 2fe4 a23c 3816 863c
000001f0: b544 243d d2df 38bd c03f 29bd b6d2 a6bc
00000200: a455 643b 1eb6 86bc 4075 3b3c 3f91 213d
00000210: dad2 2f3c 2026 203d ba04 1e3c 96b0 a03c
00000220: 634a 33bd ad43 d7bb f3ac 303d badf 9abc
00000230: 456a 8abc 4b30 b1bc 1f04 853c 323b 433d
00000240: af3d 9d3c f323 433d dcc6 153d 85e8 8ebb
00000250: e6c5 83bc 620e 7ebc 68bf a33c 3473 0c3d
00000260: 2122 56bd c1ba c0bc 0bb9 54bd bbe3 02bd
00000270: effb 323d 20de 4c3d 254f 0ebd f66a cbbc
00000280: 2c4b aa3c 5f7f 9a3c ae1f 113c d3ac ebbb
00000290: b735 e4bc 0ba5 47bd f4e7 51bc f3dc 36bd
000002a0: 18c7 4b3d 38dc 483d 0276 1fbd 4503 b03c
000002b0: b80d 203d 6fd1 373d dc55 333d 0a88 16bd
000002c0: bc2c 2c3d e4ff 533d 99e9 203b 1bf8 c73c
000002d0: e1b0 9fbc 27f8 5b3d baf7 48bd f071 03bd
000002e0: af5b b63b 1a75 b1bc 1b08 90bc fa92 863c
000002f0: d1f1 eb3c 34b2 0a3d f866 3a3d cf52 cb3c
00000300: 504f b2bc 4f41 833c 4478 00bd 99d1 f23c
00000310: 11f9 a43c 3cf9 393d ec7e ec3c a559 473d
00000320: 54af 0cbc 52ef 3ebd 6e9e 2b3d 13f2 48bd
00000330: bdb2 603b 27e6 943b 1368 ab3b 95dc 133d
00000340: b297 f33b 1b9b 89bc 29b2 37ba d93d 5dbd
00000350: 3b37 12bd bdc2 57ba 5c34 483d 4c97 28bc
00000360: 2212 e03c b2ea 07bd 2b70 2abd 4315 c03c
00000370: ce26 f53c 79a3 79b9 ef10 253d 9b8b 993c
00000380: e6df d03c b8f5 4c3c a14e 613d e0ce 28bd
00000390: 94b6 fdbb 535c 0abd 6b65 02bd eff9 533c
000003a0: 8ea9 2cbb 4a63 a4bb 34e4 943c 1a24 473d
000003b0: 36d0 4abd b338 69bc 147c 09bb e67c ea3c
000003c0: e787 a9bc e9a0 4fbd ffc2 9cbc 90a4 e5bc
000003d0: 7af0 53bd 53fe 19bd 0017 9ebc cfaf 813c
000003e0: 3fbb e8bc e27d 6dbc 9145 36bd 5574 f9bc
000003f0: cc0f d9bb 5265 b9bc 24e6 b6ba 37fa 493c

conv_blocks_K.1.2.bias f4 [32]
-0.035656266 -0.034930844 0.03772184 0.009207269 0.04026654 0.0049576503 -0.030311516 -0.021585118
-0.013522735 0.03295068 -0.049054667 0.026808005 -0.017270051 0.056927357 0.0033187037 0.007057424
-0.014268624 0.016848763 0.006155761 -0.0061276634 0.060239993 -0.058502235 0.050950572 0.049666137
0.026611092 -0.019290105 -0.026663188 -0.043278467 0.034791574 0.0072358544 0.018244023 0.022456735
00000000: 4e0c 12bd a513 0fbd 3782 1a3d 16da 163c
00000010: 87ee 243d c973 a23b db4f f8bc 46d3 b0bc
00000020: 768e 5dbc 4bf7 063d 8ced 48bd 769c db3c
00000030: ec79 8dbc a92c 693d 9c7e 593b f741 e73b
00000040: f2c6 69bc 6b06 8a3c 44b6 c93b 91ca c8bb
00000050: 36be 763d 0aa0 6fbd 8cb1 503d b86e 4b3d
00000060: 81ff d93c 4806 9ebc c26c dabc c344 31bd
00000070: 9c81 0e3d bf1a ed3b 7d74 953c 30f7 b73c

conv_blocks_K.1.4.weight f4 [2, 32, 3, 3]
0.027622124 -0.0049172416 0.032939766 0.012709413 0.017782515 0.0062045273 0.0017315344 -0.01585084
-0.051778983 0.011935736 0.022820784 0.0502806 0.04643328 -0.052586373 0.013953416 0.012603638
-0.042066865 -0.009217015 -0.02203732 -0.032652877 0.047388602 -0.056551028 -0.04709208 0.004041184
0.05811905 0.015875837 0.030474285 0.03101881 0.020830983 -0.022466544 0.039055772 -0.031069748
0.048915286 -0.026464097 0.0212166 0.020588495 -0.0039531803 -0.0025590586 0.014957966 -0.013826661
-0.017388066 -0.051607296 0.025999784 0.04080917 0.003951834 -0.054109927 -0.055163365 0.034938704
0.02404651 -0.046604168 -0.051679097 0.04476931 -0.017190492 0.011326495 0.016945757 0.0039625517
0.05435654 0.0055100587 0.042493954 0.04391108 0.04190677 -0.054940052 0.00025182747 0.058467403
0.02317151 -0.0056591523 0.01160285 -0.011680088 0.044625208 -0.034017026 -0.047110964 0.03927376
0.05113213 -0.028304316 0.038322918 0.039308395 -0.009936943 0.047129955 -0.021222662 -0.031942226
0.028839504 -0.04062876 0.036271416 -0.045739114 0.0014818943 0.0031154973 -0.048080612 0.026554631
-0.037681255 0.046484 -0.011248474 0.048873875 -0.037691716 0.0001387046 -0.044652432 0.0013479932
-0.023093348 -0.019362675 0.03593756 0.008041938 0.015438204 0.054224808 -0.018326148 -0.002114073
-0.015873706 0.016093027 -0.034854595 -0.028507322 0.038296085 0.04923376 -0.020691719 -0.00038895957
0.031422336 0.0187033 0.038229518 -0.009871037 0.056861706 -0.053433023 -0.034471393 -0.0066911858
0.014347378 -0.0043454315 -0.018241266 0.046556223 -0.055086173 -0.019769907 -0.0050690197 -0.016313758
0.0014726645 0.022692438 0.041427974 0.024398083 0.0468727 -0.018135747 0.054790363 -0.031854007
-0.0036568944 0.05652939 0.02799898 -0.051042452 -0.026953831 -0.027853522 0.02204628 -0.043053202
-0.0314009 0.046596054 -0.04690896 -0.050505687 0.0430613 -0.021710945 0.00017367152 0.030046452
0.009041662 0.010342191 -0.056049857 0.04826963 0.04381402 -0.05479687 0.056043193 -0.002878937
-0.04265262 -0.012067786 -0.029749298 0.023704924 -0.052890837 0.04745789 -0.018691165 -0.052237257
-0.011375341 0.05403125 0.040094145 -0.051574655 -0.017308526 -0.04371205 -0.01765553 -0.015793035
-0.026776351 0.005506617 0.041787148 -0.053096063 -0.038608827 0.00022705787 -0.00080130686 0.054599304
-0.044459146 -0.025837693 -0.045980234 0.013239749 -0.008914289 -0.05314599 0.0012835584 -0.051897015
0.025194015 -0.014076701 -0.010881256 -0.00086765876 -0.011481226 0.0487708 -0.040107537 -0.015706299
0.056177534 -0.028891822 0.0032659273 -0.01641024 -0.028467393 -0.018595776 -0.033326086 0.035738904
-0.007653646 0.054865878 -0.025662428 -0.01601842 -0.04050546 0.036773387 -0.01162261 0.008730981
-0.017573962 0.010617275 0.008216597 -0.052320763 0.04352118 0.04674689 0.0075876927 0.03770265
0.03317566 -0.047613043 -0.00890064 -0.044641618 0.026027014 0.020702962 -0.025774842 0.0045024343
0.03972018 -0.0056807343 -0.052968226 0.011906282 0.026174283 -0.014279653 -0.024377605 0.019999508
-0.054126333 0.0025594605 -0.04985374 -0.047093112 -0.051758826 -0.027647179 -0.056579992 -0.026952391
-0.033341374 -0.02124913 -0.034868028 0.019722406 -0.054691363 0.026520574 -0.024970654 -0.030049542
00000000: cb47 e23c d020 a1bb d9eb 063d 243b 503c
00000010: a3ac 913c 594f cb3b a7f4 e23a 9fd9 81bc
00000020: 3316 54bd 1b8e 433c a7f2 ba3c 08f3 4d3d
00000030: d330 3e3d cf64 57bd de9c 643c 7d7f 4e3c
00000040: 4e4e 2cbd f602 17bc 9c87 b4bc 06bf 05bd
00000050: 8d1a 423d 0da2 67bd a0e3 40bd e96b 843b
00000060: 3e0e 6e3d 0b0e 823c 35a5 f93c 291b fe3c
00000070: bda5 aa3c c20b b8bc f2f8 1f3d fc85 febc
00000080: 655b 483d 3ccb d8bc 6fce ad3c 34a9 a83c
00000090: ae89 81bb e1b5 27bb 4212 753c 3889 62bc
000000a0: 6b71 8ebc 2c62 53bd 80fd d43c 8427 273d
000000b0: 637e 813b 5fa2 5dbd fbf2 61bd e31b 0f3d
000000c0: 30fd c43c 03e4 3ebd 76ad 53bd 0660 373d
000000d0: 13d3 8cbc c392 393c d4d1 8a3c 4bd8 813b
000000e0: f7a4 5e3d b98d b43b 240e 2e3d 1bdc 333d
000000f0: 6fa6 2b3d d208 61bd b607 8439 847b 6f3d
00000100: 2ed2 bd3c 6970 b9bb e119 3e3c d75d 3fbc
00000110: ecc8 363d 7055 0bbd 6df7 40bd 86dd 203d
00000120: ed6f 513d 74de e7bc 7ef8 1c3d d701 213d
00000130: 8fce 22bc 570b 413d 26db adbc dad5 02bd
00000140: d340 ec3c 586a 26bd 5691 143d f058 3bbd
00000150: 1f3c c23a 5f2d 4c3b 2df0 44bd 1989 d93c
00000160: a957 1abd 0266 3e3d 854b 38bc f92f 483d
00000170: a162 1abd 3c71 1139 78e5 36bd 25af b03a
00000180: 432e bdbc 799e 9ebc 4333 133d 55c2 033c
00000190: 85f0 7c3c d51a 5e3d b820 96bc 428c 0abb
000001a0: 9309 82bc 86d5 833c b1c3 0ebd 3088 e9bc
000001b0: 5bdc 1c3d 57a9 493d ae81 a9bc 45ed cbb9
000001c0: b5b4 003d aa37 993c 8e96 1c3d 21ba 21bc
000001d0: d2e7 683d 96dc 5abd e031 0dbd bc41 dbbb
000001e0: 4411 6b3c 1f64 8ebb b56e 95bc bdb1 3e3d
000001f0: 0aa2 61bd 80f4 a1bc 051a a6bb 6ea4 85bc
00000200: 6c06 c13a 7ee5 b93c 61b0 293d 7dde c73c
00000210: 97fd 3f3d 6b91 94bc dc6b 603d 5979 02bd
00000220: 82a8 6fbb 5d8b 673d 1e5e e53c e411 51bd
00000230: 48ce dcbc 122d e4bc 669a b43c 8e58 30bd
00000240: 3b9e 00bd 81db 3e3d 9c23 40bd 0ddf 4ebd
00000250: 0c61 303d 27db b1bc 981b 3639 fa23 f63c
00000260: 7b23 143c 4b72 293c 8994 65bd 60b6 453d
00000270: 5476 333d af72 60bd 8c8d 653d 8cac 3cbb
00000280: 83b4 2ebd f7b7 45bc cdb4 f3bc d430 c23c
00000290: 10a4 58bd 3463 423d 371e 99bc bcf6 55bd
000002a0: a35f 3abc df4f 5d3d c239 243d f23f 53bd
000002b0: 9cca 8dbc 680b 33bd 54a2 90bc 6560 81bc
000002c0: 145a dbbc da70 b43b 0029 2b3d 427b 59bd
000002d0: 4a24 1ebd 6216 6e39 cb0e 52ba 85a3 5f3d
000002e0: cb1a 36bd 92a9 d3bc c555 3cbd 88eb 583c
000002f0: 3d0d 12bc 9caf 59bd 133d a83a f791 54bd
00000300: ae63 ce3c f7a1 66bc 4c47 32bc 9873 63ba
00000310: c11b 3cbc e4c3 473d cd47 24bd 7faa 80bc
00000320: 6a1a 663d 8bae ecbc 2b09 563b c56e 86bc
00000330: 7334 e9bc 2b56 98bc ef80 08bd f562 123d
00000340: 70cb fabb 0bbb 603d 033a d2bc 1039 83bc
00000350: 0ee9 25bd b19f 163d c26c 3ebc 630c 0f3c
00000360: 45f7 8fbc 14f4 2d3c e89e 063c 4c4e 56bd
00000370: 4443 323d ab79 3f3d 2ea2 f83b 186e 1a3d
00000380: 33e3 073d e505 43bd fdd3 11bc 21da 36bd
00000390: 9b36 d53c 4299 a93c c325 d3bc 2889 933b
000003a0: a1b1 223d 7425 babb 36f5 58bd 9112 433c
000003b0: 736b d63c 35f5 69bc 8bb3 c7bc 02d6 a33c
000003c0: 93b3 5dbd 9fbc 273b 6f33 4cbd b5e4 40bd
000003d0: 1001 54bd 567c e2bc 6cc0 67bd 43cb dcbc
000003e0: f790 08bd a812 aebc c7d1 0ebd e290 a13c
000003f0: 0d04 60bd ad41 d93c 428f ccbc 752a f6bc

conv_blocks_K.1.4.bias f4 [2]
0.033458296 0.04078708
00000000: 910b 093d 5a10 273d

conv_blocks_I.0.0.weight f4 [32, 2, 3, 3]
0.014494119 0.14394337 0.0970283 0.09469786 -0.19028811 -0.20957215 0.0070167487 -0.0958855
0.04154381 0.14321114 -0.011276588 -0.222943 -0.08407487 0.21799274 -0.16031903 0.08465522
0.0643013 0.08846068 -0.15213957 0.17636289 -0.007766674 0.032938596 0.048669003 -9.148131e-05
-0.06131908 -0.20579316 0.17050117 0.064602286 -0.09964835 -0.19014096 -0.079089515 -0.0700766
0.17936933 0.09066207 -0.19611703 -0.0005888941 -0.09532337 0.122026525 -2.3421524e-05 0.09262075
0.027460627 -0.17526369 -0.09703432 -0.15961848 0.024920864 -0.061860457 -0.08166581 0.22326846
0.13501777 0.011319961 0.15481058 -0.20628531 0.06432419 -0.15292592 -0.08056018 -0.20782952
0.0647964 -0.21654557 0.14135012 0.093143225 0.028322974 0.1375221 -0.0003186699 -0.120748885
0.0029742066 -0.07444156 0.024197029 0.15619491 -0.21051174 -0.1837781 0.12495354 -0.11494015
0.1945617 0.18879096 -0.0035773532 0.14599445 0.14319034 -0.13564202 0.1882671 0.015690377
0.0058075506 0.15606844 -0.18751208 -0.21425734 -0.09493659 -0.11872191 -0.11045812 0.05013395
0.057052884 0.090525925 0.13479713 0.056976903 0.08426892 0.0047578975 0.18017718 -0.05710911
0.03397832 0.07895767 0.0042076013 -0.11975799 -0.050730105 -0.023344206 -0.1572076 -0.12146512
0.215546 0.053791832 0.020241274 0.02571398 -0.21812429 0.12719528 0.10772447 0.18964018
0.10738009 0.04067035 0.17938328 0.051437538 0.19175011 -0.18000886 -0.2162547 0.09665946
0.022094447 0.11041084 -0.10427099 -0.045225147 0.07163339 0.06927472 -0.18516544 0.043641943
0.017846957 -0.09160489 -0.1320446 0.038295735 0.22686374 0.21479146 -0.009842375 0.06388128
0.20587438 0.067527525 -0.07686819 0.008609829 0.16156927 0.081497915 -0.13699484 -0.041747976
-0.21246018 -0.00012295696 -0.03160737 -0.06647738 0.113378525 0.19428355 0.09727361 0.14039582
0.055016797 0.057821188 -0.15440552 0.08941542 0.024555536 -0.20358643 -0.000122045814 0.0262768
0.22499545 0.22157952 0.08627415 0.024690786 -0.10746736 -0.0071638688 0.014076712 -0.20318085
-0.16936436 -0.082915165 -0.053243935 -0.03145887 -0.0629358 -0.21542637 0.07444982 0.14503051
0.1770384 -0.16794015 -0.022236975 0.049033485 -0.04940815 -0.21672496 -0.09858978 -0.22264151
-0.19674738 -0.21369538 -0.11133504 -7.0652095e-05 0.12472615 0.116917446 0.20153527 -0.0005028014
0.15741311 -0.055703912 0.21309696 0.16331632 -0.10728004 -0.008809384 -0.1313699 0.2307992
0.1520317 -0.18999419 0.13582721 0.0956974 0.098890655 -0.09322797 -0.18006939 0.14059673
0.034567434 -0.16863304 0.22881591 0.18853848 -0.06413857 -0.13710776 0.015761659 0.21526197
0.20141937 0.13176697 -0.21583454 0.14510985 0.18344647 -0.18697523 -0.1309327 0.2174237
-0.14297763 -0.12091355 0.12123338 -0.19175123 -0.18849023 0.027733574 0.007910702 -0.084811226
0.031157114 0.13144475 0.03500235 0.1829215 -0.15974341 0.06597308 -0.15810652 0.17253342
0.18801384 -0.013218285 -0.09350336 -0.08117496 -0.13626128 -0.22897153 -0.0064094113 -0.12233489
0.016899781 0.046023365 -0.05817973 -0.080717705 0.15607327 -0.06415364 -0.2053227 0.019034395
00000000: be78 6d3c e465 133e c6b6 c63d f4f0 c13d
00000010: e3da 42be 159a 56be c1ec e53b 9e5f c4bd
00000020: d829 2a3d f1a5 123e 70c1 38bc 2b4b 64be
00000030: 722f acbd 7d39 5f3e ac2a 24be b75f ad3d
00000040: 66b0 833d df2a b53d 7aca 1bbe 7998 343e
00000050: 957f febb 9fea 063d 2659 473d a8d9 bfb8
00000060: b729 7bbd 71bb 52be dc97 2e3e 344e 843d
00000070: 6f14 ccbd 50b4 42be aff9 a1bd 5284 8fbd
00000080: 98ac 373e 09ad b93d e7d2 48be 0460 1aba
00000090: e638 c3bd 0be9 f93d 5779 c4b7 f3af bd3d
000000a0: 1cf5 e03c 5378 33be eeb9 c6bd 0773 23be
000000b0: d726 cc3c 6461 7dbd 6740 a7bd 7da0 643e
000000c0: 1942 0a3e 5c77 393c aa86 1e3e 753c 53be
000000d0: 67bc 833d 9d98 1cbe bcfc a4bd 43d1 54be
000000e0: fab3 843d 1fbe 5dbe 16be 103e e0c1 be3d
000000f0: 9505 e83c 98d2 0c3e 2613 a7b9 314b f7bd
00000100: e8ea 423b d174 98bd d938 c63c 8ff1 1f3e
00000110: 6490 57be 5430 3cbe a4e7 ff3d be65 ebbd
00000120: 2f3b 473e 6b52 413e 0772 6abb 927f 153e
00000130: 7da0 123e bee5 0abe 17c9 403e 1b89 803c
00000140: 444d be3b 68d0 1f3e 2b03 40be 4766 5bbe
00000150: 1d6e c2bd 7924 f3bd de37 e2bd 4259 4d3d
00000160: 49b0 693d a865 b93d 4208 0a3e 9d60 693d
00000170: 2f95 ac3d 23e8 9b3b 5e80 383e 3eeb 69bd
00000180: da2c 0b3d 8fb4 a13d ebdf 893b ad43 f5bd
00000190: 5fca 4fbd 593c bfbc 07fb 20be b4c2 f8bd
000001a0: 17b8 5c3e d354 5c3d 07d1 a53c 20a6 d23c
000001b0: f95b 5fbe 7b3f 023e a69e dc3d 0931 423e
000001c0: 18ea db3d f495 263d 40b0 373e 2bb0 523d
000001d0: 245a 443e 3e54 38be df71 5dbe 65f5 c53d
000001e0: 6aff b43c 141f e23d 078c d5bd 013e 39bd
000001f0: 87b4 923d e8df 8d3d 029c 3dbe e5c1 323d
00000200: c833 923c 589b bbbd b336 07be fddb 1c3d
00000210: f84e 683e 4bf2 5b3e ea41 21bc 30d4 823d
00000220: bcd0 523e df4b 8a3d 126d 9dbd 3d10 0d3c
00000230: 6a72 253e 61e8 a63d 6048 0cbe edff 2abd
00000240: 298f 59be 02ee 00b9 bb76 01bd 4b25 88bd
00000250: 0033 e83d 44f2 463e 6337 c73d ecc3 0f3e
00000260: 4b59 613d e9d5 6c3d 7b1c 1ebe 6f1f b73d
00000270: b128 c93c f678 50be d9f2 ffb8 7242 d73c
00000280: 3565 663e bee5 623e 80b0 b03d 5544 ca3c
00000290: d917 dcbd e3be eabb 02a2 663c a40e 50be
000002a0: da6d 2dbe 6dcf a9bd 5016 5abd 04db 00bd
000002b0: 7ce4 80bd bb98 5cbe 2679 983d e182 143e
000002c0: 8e49 353e 81f8 2bbe 512a b6bc 56d7 483d
000002d0: 3360 4abd 26ed 5dbe 70e9 c9bd 23fc 63be
000002e0: 2578 49be f6d2 5abe a003 e4bd 0e2b 94b8
000002f0: 6c70 ff3d 6a72 ef3d 435f 4e3e 6ece 03ba
00000300: e730 213e c929 64bd 1736 5a3e 653c 273e
00000310: a3b5 dbbd 3c55 10bc d585 06be a056 6c3e
00000320: 33ae 1b3e d68d 42be 4a16 0b3e 00fd c33d
00000330: 2f87 ca3d 4eee bebd 1c64 38be 97f8 0f3e
00000340: 9596 0d3d 24ae 2cbe b84e 6a3e 3b10 413e
00000350: 155b 83bd fa65 0cbe 981e 813c a26d 5c3e
00000360: e140 4e3e eced 063e bb03 5dbe ad97 143e
00000370: 64d9 3b3e 6f76 3fbe 3913 06be 52a4 5e3e
00000380: ba68 12be 86a1 f7bd 3549 f83d 6f5a 44be
00000390: 9503 41be 8531 e33c e49b 013c 82b1 adbd
000003a0: 343d ff3c 7499 063e a05e 0f3d c64f 3b3e
000003b0: c793 23be e51c 873d ade6 21be 9aac 303e
000003c0: b386 403e 8191 58bc b17e bfbd 0f3f a6bd
000003d0: 1488 0bbe 8377 6abe 0a06 d2bb b78a fabd
000003e0: 6971 8a3c ff82 3c3d de4d 6ebd 534f a5bd
000003f0: acd1 1f3e fc62 83bd 1d40 52be 05ee 9b3c

conv_blocks_I.0.0.bias f4 [32]
0.22411844 -0.03587403 -0.12203353 0.12791835 0.092104726 0.13731512 -0.20211697 0.21893162
0.009392831 -0.0035069895 0.19262744 0.20422383 0.18983464 0.14393124 -0.11220043 0.0786344
-0.0044003157 -0.21369772 -0.002422873 -0.008813769 -0.08239577 -0.2127452 0.13199668 -0.08916134
0.047150254 0.10039939 0.044302676 -0.23079266 -0.16222513 0.08621171 -0.039886333 -0.22981119
00000000: 4e7f 653e a6f0 12bd b7ec f9bd 07fd 023e
00000010: 67a1 bc3d 569c 0c3e c0f7 4ebe 9c2f 603e
00000020: 63e4 193c 85d5 65bb 2140 453e 0d20 513e
00000030: 0364 423e b662 133e 57c9 e5bd 130b a13d
00000040: 8630 90bb 93d3 5abe 10c9 1ebb a067 10bc
00000050: 1dbf a8bd e1d9 59be 232a 073e 389a b6bd
00000060: a020 413d 329e cd3d b976 353d e954 6cbe
00000070: 581e 26be c48f b03d da5f 23bd a053 6bbe
