kiki_checkpoints/kiki_epoch_80.pth (torch, 531239 bytes, 72 tensors)

conv_blocks_K.0.0.weight f4 [32, 2, 3, 3]
000000 29 68 4c 3e df bb a3 3c 51 54 1d 3e e3 fe 54 3e
       0.19961609 0.019987045 0.15364195 0.20800357
000010 38 ea 39 3c 93 5a 10 be e9 d6 63 3e bc 0e 67 bd
       0.011347346 -0.14097051 0.2224995 -0.056410536
000020 03 ad 82 bb ef bc 2a 3e ba 53 58 3e 3b 14 58 b7
       -0.0039879098 0.16673635 0.21125689 -1.28793135e-05
000030 21 bf 13 be 0d ed 57 bd 0c eb a4 bd 20 98 cf bd
       -0.14428379 -0.052716304 -0.08052644 -0.101364374
000040 7c 33 c5 bd 3e 22 c9 bd c0 67 31 3e 22 0d 16 3d
       -0.096289605 -0.09820984 0.17324734 0.03663362
000050 d7 81 a4 bd 4f 17 43 be c8 b0 3c 3e 68 7a 02 be
       -0.080325775 -0.1905186 0.18426812 -0.12742007
000060 c0 7a 8b bd 9b 4b 8b bd 83 ee ac 3c 17 02 e8 3c
       -0.06810522 -0.0680153 0.021109825 0.028321309
000070 ad 8c 56 3d 0d 89 79 3d 74 a6 5a be 7c d6 3d bd
       0.052380253 0.060921717 -0.2135256 -0.046347126
000080 1b 63 a5 bd 64 ef 12 be 92 b2 c0 bd da 18 a3 bd
       -0.080755435 -0.14349133 -0.094090596 -0.079637244
000090 a5 de 3d 3e f0 f7 20 3d 3b 31 13 3d 54 c5 09 3e
       0.18541963 0.03929895 0.03593562 0.13454181
0000a0 da 5f c0 bc 16 fd 0a 3b e5 4c 91 3d f6 d8 1c be
       -0.023483206 0.002120798 0.070947446 -0.15317139
0000b0 5e 5b 61 3b 45 30 bf 3d d9 5a 2f be 33 56 5e bd
       0.0034386734 0.093353786 -0.171245 -0.054281425
0000c0 7b 3d 9c 3d cc 03 4c 3e 4d e7 35 be b7 5b 21 be
       0.07628914 0.19923323 -0.17764015 -0.15757643
0000d0 f8 6e 35 be e7 fd 24 be b2 9c 08 bd c9 a8 4f be
       -0.17718112 -0.16112481 -0.03335256 -0.2027923
0000e0 40 eb 2e 3d 69 69 6d bd d7 0a d0 3d 0c b1 29 bd
       0.04270482 -0.057961855 0.101583175 -0.04142861
0000f0 3a 92 6d bd d1 46 5e 3e 5f 62 95 3d 35 93 3d bd
       -0.05800078 0.21706702 0.072941534 -0.046282966
000100 82 1d 5a be e4 1d 07 bd 08 d6 03 3e e8 a0 e7 3d
       -0.21300319 -0.03298749 0.12874615 0.11309987
000110 42 fe 3a 3e 76 2f a1 bd 16 77 51 be 91 5f 56 be
       0.18261054 -0.078703806 -0.20455584 -0.20934893
000120 b0 55 49 35 bf d7 11 be de fd d2 3d 35 29 d5 bd
       7.5003027e-07 -0.14242457 0.103023276 -0.1040825
000130 b2 2e 87 3d 0c ff 95 ba 48 9d 02 3d 08 e2 13 be
       0.06600703 -0.0011443808 0.031888276 -0.14441693
000140 a3 53 20 3c ed cf 50 3d 8e 15 44 3e 6c 6e d1 3c
       0.009785566 0.050979543 0.19148847 0.025565349
000150 34 76 45 3e 75 17 04 be f3 30 f8 bd c6 d4 6c bb
       0.19283372 -0.12899573 -0.12118711 -0.0036137565
000160 6a 9d 31 be db 11 35 be f8 e9 56 3e 2a fe 59 3e
       -0.17345205 -0.17682593 0.2098769 0.21288362
000170 03 40 3a bd 5c 91 04 3e 5c 19 51 bc f2 18 10 bc
       -0.045471203 0.12946075 -0.012762394 -0.00879501
000180 3f 1d 31 3e 7e 8a 3a 3e 3e 3e db 3d 91 15 6b bc
       0.17296313 0.18216893 0.10705231 -0.014348404
000190 e4 80 b3 bd 21 fa 65 be 30 c0 57 3e 5e 43 d4 3d
       -0.08764818 -0.22458698 0.21069407 0.10364412
0001a0 c0 6e 1a b8 8e 8c 19 3e a1 3f 62 3e e8 b7 a0 bd
       -3.6819605e-05 0.14995024 0.22094585 -0.07847577
0001b0 d9 ad 27 be 9c 8a f7 3d 75 92 6a be 68 ae 45 3d
       -0.16374911 0.120869845 -0.22907431 0.04826203
0001c0 3f 25 9e 3d 42 fa db 3c 3b c1 ba 3d 51 9b fa bc
       0.07721948 0.02685273 0.09118887 -0.030591639
0001d0 17 f0 09 3e cd cc c5 bd eb 61 21 be a9 c4 19 be
       0.13470493 -0.09658203 -0.15760009 -0.15016426
0001e0 59 76 b0 3d 47 37 60 3e 53 4b 55 be 76 23 d6 3d
       0.08616323 0.21896087 -0.20829515 0.104559824
0001f0 00 05 dc 3d a0 24 04 3e 82 3c a9 3c 51 f0 66 3e
       0.10743141 0.12904596 0.020658735 0.22552611
000200 d7 97 0f bd 34 f2 6b be e3 23 42 3b 35 34 d8 3d
       -0.035056915 -0.23041612 0.002962344 0.10556833
000210 f5 fc 32 bc f9 9d 4d 3e b0 91 e3 bd bf aa e3 3d
       -0.0109245675 0.20079793 -0.11111772 0.111165516
000220 7e 71 68 3e 0c 0b 9b 3d 3e 50 35 be cf 62 39 be
       0.22699544 0.075704664 -0.17706391 -0.18104099
000230 e5 c4 33 be 59 eb a7 bd 4a f8 6f 38 17 e8 11 bd
       -0.17555578 -0.08199186 5.7213278e-05 -0.03562173
000240 db d2 39 3d be 53 03 be c6 90 50 3e 51 be 35 3d
       0.045367103 -0.12824914 0.20367727 0.044370953
000250 c2 aa a8 bc c4 40 94 bd 68 f0 3b be a7 ae 2a be
       -0.020589236 -0.072389156 -0.18353426 -0.16668187
000260 49 bc 89 bd 88 04 3f 3e e8 62 30 3e 95 60 e0 3d
       -0.06725366 0.18654072 0.1722523 0.109559216
000270 bf bf 00 3e 69 11 39 3e dd 3c 04 3e ab c7 04 be
       0.12573145 0.18073048 0.12913842 -0.12966792
000280 cc 51 8f bd 89 82 2d 3e e4 7c e0 3d 5c c7 45 bd
       -0.069980234 0.16944326 0.10961321 -0.048285827
000290 5e 61 0d 3e 53 73 5b be 26 98 a5 3d 3e 09 cf 3d
       0.13806674 -0.21430711 0.08085661 0.10109185
0002a0 e5 09 34 3e 3f 7d 26 be c8 ee 2c 3e 34 87 a5 3d
       0.175819 -0.16258715 0.16887963 0.080824286
0002b0 be 9e 1b 3d 3b c7 6a be fe 70 a3 3c b9 bc 9d 39
       0.037993185 -0.22927563 0.01995134 0.00030085983
0002c0 b7 a0 09 be 22 68 38 3e 26 a9 6b 3e 24 ed 98 bd
       -0.13440214 0.18008474 0.23013744 -0.07467106
0002d0 a5 5b 67 3e b9 66 00 be 61 20 53 be 6d 90 25 be
       0.22593553 -0.12539186 -0.2061782 -0.16168375
0002e0 29 e9 26 3e 50 4e ac bd 91 5e 65 be 36 8c 39 3e
       0.16299881 -0.084133744 -0.22399355 0.18119892
0002f0 ae 13 1e 3d 7e d7 01 3e d9 9b 0b 3e d9 01 5c 3e
       0.038592987 0.1267986 0.1363367 0.2148508
000300 b5 63 6a bb 6d f2 59 be 04 ae da bd 99 95 27 3e
       -0.0035764996 -0.21283884 -0.10677722 0.1636566
000310 3e 44 24 be c7 d5 3a 3d c6 13 64 3d 9f 46 22 bd
       -0.16041657 0.04561403 0.05568292 -0.03961813
000320 7c 48 d6 3d 84 19 b9 bd 1e c2 1d b6 99 75 2c be
       0.10463044 -0.0903807 -2.3507814e-06 -0.16841735
000330 1b 73 92 bd 92 9c 5e 3e f5 2e b0 3d d6 4b 71 3d
       -0.07150861 0.21739414 0.08602706 0.058910213
000340 63 27 2c be 5c cd 48 bd c8 1e 21 3e e8 fa 22 3e
       -0.168119 -0.04902397 0.15734398 0.15916026
000350 0d fa 21 be ec 17 87 3c 8e fe 44 3e 20 d1 f4 bd
       -0.15818043 0.016490899 0.1923773 -0.1195395
000360 52 44 a1 bb b5 a3 20 be d6 4c 3f 3e 21 24 a2 3d
       -0.0049214745 -0.1568745 0.18681654 0.07917047
000370 87 05 4a 3e 9a e0 22 3e 79 53 51 be b2 17 25 be
       0.19728671 0.15905991 -0.20441999 -0.1612232
000380 e1 cb 85 bd c2 39 a4 bd 36 9b c3 3d 18 e1 d2 bd
       -0.065330274 -0.08018829 0.095510885 -0.102968395
000390 5c 23 02 be fd 0c 2e bd a8 98 d6 3c ef ba 15 be
       -0.12708801 -0.042492855 0.026195839 -0.14622091
0003a0 87 99 69 be 59 f5 45 be 15 1f 69 3d 3e f6 d5 3d
       -0.22812472 -0.19331874 0.056914408 0.104473576
0003b0 9c e3 62 be 81 dc 09 bd 40 fd 00 3d bd b4 41 be
       -0.22157139 -0.033657555 0.031491518 -0.18916602
0003c0 d5 b9 60 35 a6 ba 11 3d e1 51 14 be db 88 5e be
       8.3716924e-07 0.035578392 -0.1448436 -0.21731894
0003d0 63 fa 1d be 94 17 7f bd 5b 58 55 ba 61 19 76 3d
       -0.15427546 -0.062278345 -0.0008138471 0.060082797
0003e0 10 74 89 3d 35 74 5e 3e 45 9f 27 bd 11 2f cb 3d
       0.0671159 0.21724017 -0.040923376 0.099210866
0003f0 93 5d dd 3d 61 15 27 3e 60 68 34 3e 25 a4 a6 3c
       0.108088635 0.16316749 0.17617941 0.020341942

conv_blocks_K.0.0.bias f4 [32]
000000 6f b9 dc 3c be 27 d5 3d 9e 98 8f 3d 16 09 5e be
       0.02694389 0.10407971 0.07011531 -0.21683154
000010 55 cf 39 bd 40 e6 9b bd 6d 50 6c 3d 79 e8 24 3e
       -0.045363743 -0.07612276 0.057693888 0.16104306
000020 cb 2b 27 be ad 9e e9 bd 38 ee 32 3e 9d 1c 01 3d
       -0.163253 -0.11407218 0.17473686 0.03152143
000030 74 40 81 3d dc a3 bd 3c 99 b7 55 be 11 d7 2e be
       0.063111216 0.023149423 -0.20870818 -0.17074229
000040 1e 73 22 3e ed 99 a6 3d ab 6f 46 3e c3 9a 1f be
       0.15864226 0.08134828 0.19378535 -0.1558638
000050 6f b8 40 3e 72 27 2d 3e 10 4f 87 bc 4f 14 8f 3d
       0.18820356 0.16909578 -0.016517192 0.069862954
000060 a6 33 08 bc c9 66 65 3e 0a 18 5f 3e 7e 64 a8 3d
       -0.008313095 0.2240249 0.21786514 0.08222292
000070 12 b7 0b 3e f3 91 32 3e 39 7d 55 3e 71 e7 9d bd
       0.13644055 0.17438488 0.2084855 -0.077101596

conv_blocks_K.0.2.weight f4 [32, 32, 3, 3]
000000 ef 53 a4 3c 9a d3 05 3d 2f 18 46 3d 9e 61 23 3d
       0.020059554 0.032672502 0.048362907 0.039888017
000010 64 0a 5c 3d 61 57 c2 3c d7 10 ba bc 68 50 30 bc
       0.053720847 0.023723306 -0.022713108 -0.010761358
000020 ff ee 24 3d b7 0e 68 3a eb 94 03 3d 42 38 4a 3d
       0.040266987 0.00088522903 0.03212444 0.049370058
000030 13 f2 97 3c a3 3e 43 3d 44 ba af b8 62 26 6a 3c
       0.018548047 0.047667157 -8.379345e-05 0.014291378
000040 f9 c9 30 bd 35 0a 07 bb 65 c7 fe bc e8 12 0b bb
       -0.043161366 -0.002060545 -0.031100938 -0.0021220986
000050 4b e0 9e 3a 68 a4 a0 bc e9 ec d3 bc da 04 2c bd
       0.0012121288 -0.019609645 -0.025869804 -0.041996814
000060 a8 cb e7 bc d5 40 be bc a6 21 00 3d 0d 41 52 3d
       -0.028295353 -0.023224274 0.03128209 0.05133157
000070 48 54 c0 bb ec 6f 0c 3c 15 b3 4f 3d 6f 2d 59 bd
       -0.005869422 0.008571606 0.050707895 -0.053021844
000080 c2 c4 0a 3d 37 60 4e 3c f5 bb ff bc 87 9c 54 3d
       0.03387905 0.012596182 -0.031217555 0.05190709
000090 7f 3d 17 bc 14 d4 8f 3c 31 62 8c 3c 91 2f 91 3c
       -0.00923097 0.017557181 0.017136665 0.017722877
0000a0 26 ec 47 3d 4a aa 97 3b a4 42 39 3d 4a c8 8e 3b
       0.048809193 0.0046284543 0.04522957 0.0043573724
0000b0 42 2c da 3c 3a fc 9c bc 04 37 fc b8 5d 68 3e bd
       0.026632432 -0.01916324 -0.00012026544 -0.046486247
0000c0 d0 28 4c bd 03 55 fc 3c f7 d9 46 3d 81 43 39 bd
       -0.04984361 0.030802255 0.04854771 -0.045230392
0000d0 e8 d6 3d bc 92 87 58 3b 99 a9 10 3d 7a d1 44 bc
       -0.011586882 0.003303979 0.03531799 -0.012012834
0000e0 3a f3 7b 3b c7 6a f9 bc 3b 8d 03 bd f5 d7 0f bd
       0.0038444535 -0.030446423 -0.03211711 -0.035118062
0000f0 3b 49 ca bc d0 21 26 bc 3e c9 5f bc c7 98 9b bb
       -0.024693122 -0.0101398975 -0.01365882 -0.004748437
000100 18 63 f8 bc da 0b 5a bd b8 78 07 bc 9f 9a 52 3d
       -0.03032069 -0.05323396 -0.008268528 0.05141699
000110 0b c7 6e 3c eb f0 28 3c 83 81 9d 3b 71 2d 12 bd
       0.014573823 0.010311346 0.0048066988 -0.035687868
000120 0c 96 55 bb 83 2d 2e 3d a7 88 ff bc e1 7e 10 3d
       -0.0032590656 0.042523872 -0.03119309 0.03527725
000130 40 c9 82 bc 06 2e a5 bc 0c 4e 23 3b 32 76 37 3d
       -0.015965104 -0.020163547 0.0024918346 0.044790454
000140 53 55 c1 bc 1d 83 15 3d 49 e1 23 bd 54 e6 9f bc
       -0.023600256 0.036501992 -0.04000977 -0.019519009
000150 6d 5f a1 bc 6d 4e 0e 3c 45 16 86 3c e3 66 38 bb
       -0.019698823 0.00868569 0.01636804 -0.0028137497
000160 1e c9 57 3d c5 9d 2b b9 ea 0f 3f 3d 6d 6b 44 3b
       0.052682035 -0.00016366605 0.046646036 0.0029971257
000170 bd d0 a3 3c 7d bd a7 3c 2f 96 51 3c 44 71 31 bd
       0.019996995 0.020476097 0.012792154 -0.04332091
000180 5c 9a a2 bb ca d7 1a bd 91 4b 0b bd 72 4a e9 bc
       -0.0049622487 -0.03780345 -0.034007613 -0.028477881
000190 72 f1 02 bd 8e 39 87 bc 5c fc 34 3d 20 c7 15 3c
       -0.03196854 -0.016506936 0.04418598 0.009141713
0001a0 2a a0 26 3d 4d 38 b9 bb 99 bc 03 bd 68 a2 3a bb
       0.040680088 -0.0056524635 -0.032162283 -0.002847815
0001b0 4d 71 a8 bc 84 51 9f 3b 2d f0 9d 3c c7 63 bd bc
       -0.020561839 0.0048620123 0.019279564 -0.023118867
0001c0 49 82 0f 3a 1f 71 aa 3c d7 94 90 39 a7 a6 79 3b
       0.0005474431 0.020805893 0.00027576715 0.0038093717
0001d0 cf fe 19 3a 77 c9 a0 39 3a d0 0c 3d 15 47 8c 39
       0.0005874456 0.0003066768 0.034378268 0.0002675584
0001e0 7b d7 a1 bc b7 35 59 bc f8 de 40 bd a0 1f f0 3c
       -0.01975607 -0.0132574355 -0.04708764 0.029311955
0001f0 57 a6 2b bd 64 f8 22 bc 59 9f 1d 3b 3f 5f 09 bd
       -0.04190668 -0.009946916 0.0024051277 -0.0335381
000200 77 49 56 bd 5c fc 07 bd eb df 84 bc c1 0d 17 3d
       -0.052316155 -0.033199653 -0.016220054 0.03687835
000210 f5 67 2a bd c0 2f fc bc 06 1e 45 bd dd 6c 3a 3d
       -0.041603047 -0.030784488 -0.048124336 0.045513976
000220 96 fb 45 3c 76 a8 03 3d 04 a1 db 3a d1 14 55 3d
       0.012083909 0.03214308 0.001675636 0.052021805
000230 e7 60 64 bc 13 70 f7 bc ad 55 9d 3c 51 32 a4 38
       -0.013939119 -0.030204808 0.019205892 7.8295016e-05
000240 59 db c9 3b 8d 10 12 bd e2 e4 1c bd 90 d4 d2 bc
       0.0061601815 -0.035660315 -0.038304217 -0.025736123
000250 83 e4 1e bc b9 8f b8 3b 85 fc e3 bc 87 c6 50 bc
       -0.009698036 0.0056323675 -0.027830372 -0.012742645
000260 75 70 2a bd bc c7 84 3c de da 43 3d 63 5c 21 bd
       -0.041611154 0.016208522 0.04781615 -0.039394747
000270 71 e7 27 3d 0a c1 df bc 1f ed 36 bc 4f d3 5b 3a
       0.040992204 -0.027313728 -0.0111649325 0.00083856744
000280 a8 6f 5e 3c 56 30 32 bd d2 b3 29 3d a6 2b 5a 3c
       0.013576426 -0.043503128 0.041431256 0.013316071
000290 77 e1 3f bd d3 27 43 bd ee ab ae 3c 8f e8 34 bd
       -0.04684588 -0.0476454 0.021322217 -0.044167098
0002a0 8f 95 bd 3a 9b 2b 30 3d 1c 85 1c 3d f0 2f 5a 3d
       0.0014464128 0.043010335 0.03821288 0.053268373
0002b0 24 88 d0 3c 1c 23 20 bd bf c5 4e 3d bc 87 39 bd
       0.025455542 -0.039095983 0.050481554 -0.045295462
0002c0 9b 97 2a bd 60 fb 16 3d 6f 6a 0b bd 45 e9 4b bd
       -0.04164849 0.036860824 -0.03403705 -0.04978301
0002d0 e4 58 10 bc 87 89 eb bc 1a 7f 76 3c d1 04 fc bc
       -0.008810256 -0.028752102 0.015044952 -0.030764015
0002e0 ab c0 16 3d 88 f1 28 3d 05 e5 b1 3c b4 64 10 3d
       0.036804836 0.041245967 0.02171565 0.035252288
0002f0 a7 d8 34 3d 9a e0 88 3c f1 78 22 3c b6 2f 56 bd
       0.04415193 0.01670866 0.00991653 -0.052291594
000300 24 a1 3f bd 8d 45 63 3c 90 40 b8 bc f6 ed b9 3c
       -0.046784535 0.013871563 -0.022491723 0.022696476
000310 2f 76 ea 3c 7a 4e db 3a 00 c6 b2 3c 53 45 ba 3c
       0.028620807 0.0016731762 0.02182293 0.022738134
000320 07 16 ff bc d1 0b a2 3c 48 78 40 bb 1c 4e f5 bc
       -0.031138433 0.019781025 -0.0029368568 -0.029944472
000330 26 19 59 bd d3 80 3e 3c 89 9e b7 bc 61 97 39 3c
       -0.0530025 0.011627394 -0.022414463 0.011327595
000340 69 81 09 3d a9 0a bf bb be bf d6 bc cf 2a 9d bb
       0.03357068 -0.005830128 -0.026214477 -0.004796363
000350 fb ec dc bc 8c b0 41 bb 91 99 18 bc a8 f7 50 bd
       -0.02696847 -0.0029554693 -0.009313957 -0.051017433
000360 5c f3 d8 3c e2 62 e7 3c c1 d7 2a bd 62 01 37 3d
       0.02648323 0.028245393 -0.041709665 0.044679053
000370 96 c9 40 bd 62 2a ea bc 8a a1 4b 3c da 36 ab 3b
       -0.047067247 -0.028584663 0.012428651 0.0052250447
000380 76 44 fc 3c 82 58 2a bc f6 a3 21 3d 95 90 32 bd
       0.030794363 -0.0103970785 0.039463006 -0.043594915
000390 7e ad e2 3c 6f cc 8d 3c bc d7 81 3c 0f 8d ef bc
       0.027670618 0.017309396 0.01584994 -0.029242067
0003a0 28 16 4b 3c ba 52 c7 bc 2a 97 c4 bc 39 61 d4 3c
       0.012395419 -0.02433144 -0.023997862 0.025925266
0003b0 09 9c 14 3c 7d 2c 33 3d 6d 0b 56 3d 10 c4 57 3d
       0.009070405 0.0437436 0.05225699 0.052677214
0003c0 e4 ca 4b bd 93 e9 a1 3c e1 d5 e7 3a 23 6c de bc
       -0.04975404 0.019764697 0.0017687642 -0.027151173
0003d0 fc f2 23 3d b3 38 26 bd cc 9f 20 ba da e5 5b 3a
       0.04002665 -0.040581416 -0.0006127327 0.00083884376
0003e0 ff 05 60 3a fb 4e 56 bd 4c 2a cd 3b c5 52 41 bc
       0.00085458154 -0.052321415 0.0062611457 -0.011799519
0003f0 8f bc fd bc 8d 2f 7e bc 82 0e 0f 3d 9a 71 52 3d
       -0.0309737 -0.015514267 0.034925945 0.05137787

conv_blocks_K.0.2.bias f4 [32]
000000 e6 ae 47 bd ad 60 bd bc c8 dc 5d bb e6 23 2c 3d
       -0.04875078 -0.023117388 -0.003385352 0.042026423
000010 9e ed cc ba 11 3a 8c bc 48 04 f2 3c e6 c8 6a bc
       -0.001563478 -0.017117532 0.029543057 -0.0143301245
000020 a0 1d 2f 3d db c4 48 3d 48 5e ac 3c 64 1c 6e 3a
       0.042752862 0.04901586 0.02104105 0.000908321
000030 f1 d2 20 3d 57 c6 4f bd 4e 94 59 bd ff ce 4f 3c
       0.03926367 -0.05072626 -0.05311995 0.012683629
000040 7e ed 0b bd 74 e2 38 bd 43 09 49 bc a0 56 04 bd
       -0.034162037 -0.045137838 -0.012270275 -0.032309175
000050 07 9e ab 3b 77 65 0b bd 91 d3 8d 3b b5 e4 d6 3c
       0.005237344 -0.03403231 0.004328199 0.026232103
000060 85 1f da bc 96 bb 32 3d a5 89 a3 bc ff bc 2e 3d
       -0.026626358 0.043635927 -0.019963095 0.04266071
000070 5d 7a 17 bd 3f 72 0c bd 28 25 e2 3c d9 86 70 3d
       -0.03698193 -0.03428864 0.027605608 0.05872235

conv_blocks_K.0.4.weight f4 [2, 32, 3, 3]
000000 88 03 d3 bc 8b a3 43 bd d0 a3 ca bc 75 ee f2 3c
       -0.02575852 -0.04776339 -0.024736315 0.02965472
000010 54 1c 2a bd db 3e 41 bc fa 51 3a bd 74 e9 54 3a
       -0.041530922 -0.011794771 -0.045488335 0.00081219454
000020 d9 af 17 3d a4 9b 51 3b b5 15 f6 3a d0 2b 5d bb
       0.037032936 0.0031983638 0.001877478 -0.0033748038
000030 a9 4e 4d 3d 2f 08 08 3c 31 7b 84 3b e9 51 06 3c
       0.050123844 0.008302732 0.004043006 0.00819824
000040 bf ce 9b 3b 19 67 22 3d 29 39 27 3d f1 6e 43 3c
       0.0047548707 0.039649103 0.040825997 0.011928306
000050 76 0c db 3c c5 fe 2c bd 4e 95 2f bd 09 35 99 3b
       0.02673934 -0.042235155 -0.042866997 0.0046755117
000060 d4 f2 6d 3c 85 32 06 3c a8 1a d1 3c 55 1d 48 3d
       0.014523227 0.008190756 0.025525406 0.0488561
000070 eb e5 4c bd 18 be 59 bd f0 7d c2 3a 30 dd 04 bd
       -0.050023954 -0.053159803 0.0014838558 -0.032437503
000080 52 08 88 3c 77 7c 23 3c 5a cb b7 ba 88 52 41 3b
       0.01660553 0.009978405 -0.0014022395 0.0029498655
000090 2d 07 3a 3b 7b cd 48 bd 7e 1b c5 3c 9c 31 86 3c
       0.0028385625 -0.049024086 0.02406096 0.016381077
0000a0 d7 2e 53 3d 9f 42 ff 3b 6a 61 61 3b 72 22 49 3b
       0.05155834 0.0077899243 0.0034390339 0.0030690697
0000b0 7f 70 81 bb 63 3f 7b 3c 63 ca 90 3b 41 06 53 3d
       -0.003950178 0.015334937 0.0044186576 0.051519636
0000c0 ba 00 e4 bc 6b 46 02 bd 9e 09 39 3d fa 74 d4 3c
       -0.027832378 -0.031805437 0.045175187 0.025934685
0000d0 56 a5 45 3b a7 cb 37 3d 99 62 86 bb 5e 49 62 3c
       0.0030158362 0.044871952 -0.004101109 0.013811437
0000e0 12 0f ee 3b 19 8f 1c bb 3f 7d fc 3c 83 1f e8 bc
       0.00726498 -0.0023889004 0.03082144 -0.028335338
0000f0 18 fb 7f bc ca 8e 1e 3d 46 a3 ea 3c 3a bf 8a 3c
       -0.01562383 0.038710393 0.028642308 0.016936887
000100 d1 15 b1 3c b6 d8 04 3d df 8b ee ba 9d 0a 59 3d
       0.021616848 0.032433234 -0.0018199644 0.052988637
000110 76 05 24 3c 6c 84 09 bc ee d6 b6 3c c2 d1 7d 3c
       0.010011068 -0.008393388 0.022319283 0.015491905
000120 e6 28 2e bd 34 a7 03 bb cb 73 0e 3c 5f 5d 17 3d
       -0.042519473 -0.0020088675 0.008694599 0.03695428
000130 72 ce 3e bd db 0c 2c bd dd 9d 31 bd 52 41 e2 3c
       -0.0465836 -0.042004447 -0.04336344 0.027619038
000140 da 66 ea bb db 3e 56 bd 3c b3 17 bd 77 a7 37 3d
       -0.007153374 -0.052306037 -0.037036166 0.04483744
000150 53 2b c6 3c 24 8a 1e 3d e9 56 64 bd 86 7b c6 bc
       0.02419058 0.03870596 -0.055746946 -0.024228822
000160 42 06 32 3c f6 78 b3 3c 3d 23 39 3d 26 21 4b bd
       0.01086575 0.021908265 0.04519962 -0.04959216
000170 05 f9 e0 3c ca 92 d5 3b 72 3e 5d 3d b9 ad 38 bd
       0.027462492 0.0065177428 0.05401463 -0.04508755
000180 9c 76 30 3b 14 20 51 bd f1 f0 33 bc 6c f6 d2 3c
       0.0026926165 -0.051055983 -0.010982738 0.025752269
000190 cf 89 0a 3d 4c 8e 4a bd ff 75 ac 3a 4f 44 32 3d
       0.03382283 -0.04945211 0.0013157724 0.043522175
0001a0 e9 d1 eb bb 6a b6 b0 bb 61 75 44 3b d4 f4 29 39
       -0.007196654 -0.005392839 0.002997719 0.00016208302
0001b0 f0 3f c3 bb 0e 45 42 3d 5a e1 a1 bc 22 5f 4c bd
       -0.0059585497 0.047429137 -0.019760776 -0.049895413
0001c0 10 19 30 3d 54 31 ac bc ee 97 c4 bc 87 15 a2 bc
       0.04299265 -0.021019615 -0.023998227 -0.019785656
0001d0 7d 90 fb 3c 05 46 27 3b ce 3a ea 3c b0 bb 06 bd
       0.030708546 0.0025523913 0.028592493 -0.032893836
0001e0 7d 7a 91 bc a4 01 10 bd 86 71 1f 3d 4c 74 45 bd
       -0.017758602 -0.035157815 0.038926624 -0.048206612
0001f0 5b 74 4b bd 69 78 f7 3c 85 d9 e7 bc fa db 39 3d
       -0.049671512 0.030208783 -0.028301964 0.0453758
000200 be 42 2a bd 1e 34 25 3b 7b 88 b6 3c 03 0a 03 3d
       -0.041567557 0.0025208066 0.022281876 0.03199197
000210 62 64 8f bc 25 dd 19 bc 5f 40 91 3c a3 cb c8 bc
       -0.017503921 -0.009391104 0.01773089 -0.024511164
000220 0d 64 e9 bc fd 91 e1 3c 79 07 37 3c ec 97 3f bd
       -0.02849009 0.027535433 0.011171215 -0.046775743
000230 eb 26 e1 3a 21 ca 95 3c 5a ed 51 bd 42 9f b3 bc
       0.0017177736 0.01828486 -0.051251747 -0.021926526
000240 b3 1a 41 bd 37 e8 57 bd e4 0f a7 bc 86 eb 43 3d
       -0.047144603 -0.05271169 -0.02039332 0.047832035
000250 ae 21 62 3b 02 33 77 3a df 00 04 3c b7 04 0d 3c
       0.0034504938 0.0009429903 0.008056848 0.008607081
000260 94 6a 2f 3b dd af a4 3c 27 66 4c bc c2 f8 5c 3d
       0.0026766406 0.02010339 -0.012475527 0.05394817
000270 e0 66 0f 3b bf 1b 83 bc 38 e1 a5 b9 0d ee fb 3c
       0.0021881387 -0.016004441 -0.00031639053 0.03075316
000280 18 f1 0b bd 4f 4a 4a 3d 9a c5 20 bc 31 0f 03 bc
       -0.03416547 0.049387272 -0.009812737 -0.007999227
000290 de f9 cc bc 89 e1 ee 3c 27 e6 71 3c c3 57 84 3c
       -0.02502149 0.029160278 0.014764345 0.01615513
0002a0 49 df b4 bc 07 b9 0e bd 97 0c c5 bc eb a6 50 3c
       -0.022079127 -0.034844425 -0.024053855 0.012735109
0002b0 97 df 1a bd 46 9c 3a 3c 88 59 1a bd 78 8e 01 bc
       -0.03781089 0.011389798 -0.03768304 -0.007907502
0002c0 d4 dc 84 3b e2 58 bf bc a6 9c 46 bd 48 10 e1 3c
       0.004054645 -0.023357812 -0.048489235 0.027473584
0002d0 45 a4 f6 bb 9c 4b ae 3b 2b 4f 45 3d 44 aa 84 bb
       -0.0075269067 0.005319072 0.048171204 -0.0040486176
0002e0 90 a5 12 bd 02 a4 93 bc fb 33 3e 3d 93 7f 06 3d
       -0.035802424 -0.018022541 0.04643629 0.032836508
0002f0 3d 86 2c bd bf e2 d7 bc e5 41 b8 bc 00 21 c8 3c
       -0.042120207 -0.026353238 -0.022492358 0.024429798
000300 b6 68 32 3d 72 01 d8 3c 86 85 34 3c ed de 8a 39
       0.04355689 0.026367877 0.011018163 0.00026487504
000310 fa d0 d4 bc 20 83 ef 3c 8c c7 55 bd f4 a0 2b bd
       -0.025978554 0.02923733 -0.052192256 -0.041901544
000320 d5 5b 2f 3d 0e fa 6b bc fd 52 d7 bc 63 07 a6 3c
       0.042812187 -0.014402879 -0.02628469 0.020267194
000330 01 39 81 3c 5a d2 d7 bb ab a5 ff bb 06 dd 2c 3d
       0.015774252 -0.006586355 -0.0078017316 0.042202972
000340 95 49 fb 3c 33 fb 46 3d a2 f5 55 3c 29 e6 8e 3c
       0.030674735 0.048579406 0.013059052 0.017443733
000350 35 2c ec 3c 01 23 25 bd c6 e7 13 3c 1e 80 0b 3b
       0.028829673 -0.040316585 0.009027427 0.002128608
000360 b9 97 dd 3c c9 ad 82 3c d5 df 08 3b d2 7d 41 3d
       0.027049886 0.015952008 0.0020885367 0.047239132
000370 ac 9d 81 ba e8 62 53 3d d5 5d 50 bd 30 63 54 3d
       -0.0009888909 0.051607996 -0.050870735 0.051852405
000380 47 ca 0d bd 0d 09 16 3c 70 42 32 3d 2e f7 f2 3c
       -0.034616735 0.009157431 0.04352039 0.02965888
000390 7f 96 5e bd a8 19 93 3c 92 97 1d bd cc 31 40 3d
       -0.054342743 0.01795657 -0.038474627 0.04692249
0003a0 b8 43 4f 3d e5 a4 0f 3d 14 12 23 3d 98 91 0c bd
       0.05060169 0.035069365 0.039812163 -0.034318537
0003b0 1f b7 89 bb a2 50 5e bc 03 60 f4 3c 0e d9 80 bc
       -0.004202738 -0.013569029 0.029830938 -0.0157285
0003c0 49 01 1e 3d 81 56 14 bd 6b b2 46 3c cd 8e b9 bc
       0.038575444 -0.03621531 0.012127499 -0.0226511
0003d0 10 0b e8 3c 30 81 9c 3c c5 d1 a6 bc 88 95 a7 bc
       0.028325588 0.01910457 -0.020363698 -0.020457044
0003e0 ca ce 2b 3d 6b 33 48 3c fc 8f 8e bc 8a 41 28 bd
       0.041945256 0.01221929 -0.017402641 -0.041078128
0003f0 25 a6 dd 3c 09 a4 10 3d 4a f7 b2 3c c2 d3 35 bd
       0.027056763 0.035312686 0.021846432 -0.0443914

conv_blocks_K.0.4.bias f4 [2]
000000 1a 8f 72 3c 2f bb e3 3c
       0.014804626 0.027799217

conv_blocks_K.1.0.weight f4 [32, 2, 3, 3]
000000 8d c3 2f 3d 2d 12 31 3e 01 9f 3a 3d cd 9e 3a be
       0.0429111 0.1729209 0.045561794 -0.1822464
000010 ac 44 d6 3d 24 d3 47 3e 07 b7 1d be 70 49 5b be
       0.10462317 0.19514138 -0.1540185 -0.21414733
000020 00 2e af 3b 9f d4 24 3e f5 80 d9 3d f5 e0 17 be
       0.00534606 0.16096734 0.106203 -0.14831908
000030 82 c1 d3 3d 20 2e 80 bd 68 6b 09 bd 1f ff 42 bc
       0.10339643 -0.06258798 -0.033549696 -0.011901646
000040 b7 77 39 be 56 67 bf bd be de 98 3b 71 d5 0e 3e
       -0.18112074 -0.09345882 0.004665225 0.13948609
000050 66 c7 09 be 3d ca be 3d ba 58 29 3d b6 28 7b bc
       -0.1345497 0.09315918 0.041344382 -0.01532953
000060 75 03 5f bd cd 8f 42 be 16 ca 95 3d aa c8 fd bd
       -0.054446656 -0.19000168 0.073139355 -0.12391789
000070 34 87 5f 3e 25 81 aa 3d 68 51 a7 3d d9 45 62 3e
       0.2182892 0.083254136 0.08169824 0.22096957
000080 f0 28 87 bc cd 93 b4 bd b6 e0 14 3b 71 67 8c bd
       -0.016499013 -0.08817253 0.0022716946 -0.068556674
000090 4a d2 96 3d 23 9c 6a be bc 78 0c 3d 54 b9 fd bc
       0.07364328 -0.22911124 0.03429483 -0.03097216
0000a0 f8 30 5e bd 8a 96 05 3e 50 30 35 be e0 5e 4f bd
       -0.05424592 0.13045707 -0.17694211 -0.05062759
0000b0 b5 82 33 3e b2 5c 07 3d ab 70 18 be 85 de 09 3e
       0.1753033 0.033047386 -0.1488673 0.1346379
0000c0 b6 6a 44 be 30 51 17 3e fd 03 ba bd 1b 3b 9d 3d
       -0.19181332 0.14777064 -0.09082792 0.07677289
0000d0 77 b4 2f 3e 47 db 50 3e c9 11 8c 3d 1f 17 ca 3d
       0.17158686 0.20396148 0.0683933 0.09867691
0000e0 12 d5 5a bd e2 78 5c bd 5e 86 57 be b0 49 d7 3d
       -0.053425856 -0.05382622 -0.21047351 0.10512102
0000f0 d6 7d 31 3d 05 88 86 3d 04 2f 15 be 04 6c 69 be
       0.043332897 0.065689124 -0.14568716 -0.22795111
000100 a5 4c f4 3d 72 27 db bd d2 b3 92 bd 13 59 86 3d
       0.11928681 -0.10700883 -0.07163204 0.06559958
000110 48 58 b2 3d a2 e7 61 be 01 26 5d bd 1c 38 4b 3e
       0.087082446 -0.22061017 -0.05399132 0.19845623
000120 50 c4 1d 3d 89 07 07 be 2a ee 3a 3e af 01 5b be
       0.038517296 -0.13186468 0.18254915 -0.21387361
000130 9b 56 a4 3c 86 48 49 3d 8d f3 a0 3c ba ba 57 3e
       0.020060828 0.04914143 0.019647384 0.21067324
000140 ae f0 22 3d 9b 4a 16 be 34 17 f9 bc f4 02 be bd
       0.03978031 -0.14676897 -0.030406572 -0.09277907
000150 38 f4 42 3e 7a 9c d0 3c 89 bd 55 be 0c aa 02 ba
       0.19038475 0.025465239 -0.20873083 -0.00049844454
000160 5c 4d bd ba 29 17 0f 3c f8 22 59 3d e4 45 fb 3d
       -0.001444261 0.008733549 0.053011864 0.1226919
000170 8e a7 3a be 86 8a 8d 3d 7b 60 e8 bd 7c 7e 19 3e
       -0.1822798 0.06911187 -0.11346527 0.14989656
000180 4a cb fd bd 74 e6 26 be eb 85 05 be 41 79 05 3e
       -0.1239229 -0.16298848 -0.13039367 0.13034536
000190 a7 d1 23 bd 6f ef 4c 3e 99 45 44 be 7a df 90 3d
       -0.039994862 0.20013212 -0.19167174 0.07073875
0001a0 05 41 a2 bd f8 72 ee 3c e1 c3 13 3e 82 90 eb 3d
       -0.07922558 0.029107556 0.1443019 0.11502172
0001b0 05 73 5c be ff 1d f3 bc 2c 32 be 3d c3 4b 6a be
       -0.21528251 -0.02967739 0.09286913 -0.22880463
0001c0 76 85 2c be e7 57 6a be 6d 87 dc 3c 8c 77 3a 3d
       -0.16847786 -0.22885095 0.026920045 0.045524165
0001d0 fb 74 bf bd 1f 23 b9 3d 51 11 fc 3c 10 c3 c3 3d
       -0.09348484 0.09039902 0.030769976 0.095586896
0001e0 04 a2 4e 3e 4f d8 1b be 28 c9 35 be 5b 5e 60 3e
       0.20178992 -0.15219234 -0.17752516 0.21910994
0001f0 d8 e3 ef bd 54 2d 25 3e 1d 28 9c bd 26 77 44 bd
       -0.117133796 0.16130573 -0.076248385 -0.04796519
000200 01 82 cf bd 16 7d 8b 3d ad 43 6a bc 99 64 3b 3e
       -0.10132218 0.068109676 -0.014298362 0.18300094
000210 34 da 67 be 2f 60 9c bb d7 05 05 3d db a0 92 3d
       -0.22641832 -0.004772208 0.032476272 0.07159587
000220 e1 8f 36 3e 34 39 9d 3d b6 48 4b be 83 20 e4 3c
       0.17828323 0.07676926 -0.19851956 0.027847534
000230 b6 7b c1 bd ce 67 0f 3e 1e 21 c7 bd d8 2b be bc
       -0.09447424 0.14004442 -0.097231135 -0.023214266
000240 f1 6a 62 3d 5a d6 18 3e 23 e0 dd bd 8a 43 2e 3e
       0.05527777 0.14925519 -0.10833766 0.17017952
000250 af 18 25 be 5f e0 52 bd 2b 66 12 be 16 ad 37 3d
       -0.16122697 -0.05148351 -0.14296786 0.044842802
000260 bb a5 3e be 6b 78 38 bb 61 52 21 be 61 7d 16 3e
       -0.18617909 -0.0028147947 -0.15754081 0.14696266
000270 b0 22 55 be e5 86 c8 bd b4 3d 47 be 43 84 12 be
       -0.20814013 -0.09791354 -0.19457132 -0.14308266
000280 ca 1c 4c 3c 03 b3 db 3d 77 c8 e7 3d c3 e4 38 be
       0.012458036 0.10727503 0.113175325 -0.18056016
000290 62 29 15 bd 27 a6 33 bd ed f1 c1 3d d6 72 99 bc
       -0.03641642 -0.043859627 0.09469972 -0.018731516
0002a0 ea fb d1 bc 6a 36 11 be 0a 40 22 be e8 0b df bb
       -0.025632817 -0.14180914 -0.15844741 -0.0068068393
0002b0 24 23 d8 3d ba e4 e5 bd 55 74 37 3d 1e 18 e1 3d
       0.105535775 -0.11225267 0.044788677 0.10990928
0002c0 f3 a0 a5 bd 0d be 54 3e e7 c2 55 3e be e8 0a 3e
       -0.08087339 0.20775624 0.2087513 0.13565347
0002d0 ba 91 c4 3d 03 c9 39 be a4 f6 f7 3d ff b3 b5 bc
       0.09598108 -0.18143086 0.1210759 -0.022180555
0002e0 20 11 35 3e 3a 91 40 be 6a a2 7a bb 12 59 56 3e
       0.17682314 -0.188054 -0.003824378 0.20932415
0002f0 33 ea 2b 3d 87 96 92 3d 2e b2 d0 3a 43 00 db bd
       0.041971397 0.07157617 0.0015922242 -0.10693409
000300 23 38 e3 3d de 0f 39 3e af 58 fd 3d 8b 6a 1d be
       0.110946916 0.18072459 0.12370431 -0.15372674
000310 61 9e 1d be 4f cb 63 3e be 93 e3 bc 9d e7 bf 3d
       -0.15392448 0.22245525 -0.02778041 0.093703486
000320 b7 17 81 3d 00 29 14 be f7 06 4a 3e ca cd 1e 3d
       0.06303351 -0.14468765 0.1972922 0.038770474
000330 28 72 df bd e3 66 5e 3e 86 c8 96 3d 8c 9c 57 3d
       -0.109104455 0.21718936 0.073624656 0.05263953
000340 68 fb 1f be 70 b5 4e 3e 40 5c e9 bd a0 20 9e bd
       -0.15623248 0.201864 -0.113945484 -0.077210665
000350 5e 9d 64 be 6b aa 78 3d 9c 38 03 be ee 7f 50 be
       -0.22325656 0.0607094 -0.12814564 -0.20361301
000360 c9 e2 24 3e 8a 7f 56 be f4 a3 31 bd 94 a6 aa bd
       0.16102137 -0.2094709 -0.04336925 -0.083325535
000370 ed 1d 53 3c 97 8f f6 3c f9 6e 50 3e 05 26 89 3d
       0.012885553 0.030097766 0.20354833 0.06696705
000380 31 e4 90 bd df 87 0a be 84 18 6d bd c6 7c ff 3d
       -0.07074774 -0.13528393 -0.057884708 0.124749705
000390 9c e3 63 be b1 83 ac 3d 03 62 33 bc 67 81 d8 bd
       -0.22254795 0.08423556 -0.010948661 -0.105715565
0003a0 11 4e 19 3e 1d 3e e9 3d 0d f2 88 3b 09 d3 e4 bd
       0.14971186 0.113888 0.0041792453 -0.11173064
0003b0 5d 21 0e be 99 0c 71 bd 66 bd 10 be ec b1 15 bd
       -0.13879915 -0.058849905 -0.1413475 -0.036546633
0003c0 53 0e 97 3d e4 42 af bc 4e 1c cf 3c d4 f5 a4 bd
       0.07375779 -0.0213942 0.025282051 -0.080547005
0003d0 d1 b0 72 bd 27 e5 07 3e 3f bb bf bc 6c 0f 5e 3d
       -0.059250657 0.13271008 -0.023404716 0.054213926
0003e0 1b ec 20 be 73 8d 06 be d6 67 33 3e db 4b 24 bb
       -0.15715067 -0.13139896 0.17520079 -0.0025069627
0003f0 30 0a 65 3e 38 88 99 bd 05 70 f5 3d 06 ae c5 3d
       0.22367167 -0.07496685 0.11984257 0.09652333

conv_blocks_K.1.0.bias f4 [32]
000000 4e 22 1f be 24 6f 3c be 05 a3 88 3d 31 83 56 be
       -0.1554043 -0.18401772 0.066717185 -0.20948483
000010 65 a9 69 3e aa b3 16 3e 54 50 03 be da 01 ee 3d
       0.22818525 0.14716974 -0.12823611 0.11621447
000020 04 77 66 3e ff 64 1c be 4e e0 17 3e 9b b8 7e 3d
       0.22506338 -0.15272902 0.14831659 0.062187772
000030 8f c6 4b be 77 58 50 bd 43 43 d3 bc 49 8b 20 be
       -0.19899963 -0.050865617 -0.025788909 -0.15678133
000040 6d 20 50 bd fa 2d 0b 3e 95 0e 35 3e 8c 61 ff 3c
       -0.050812174 0.13591757 0.17681344 0.031174444
000050 92 dd 9d bd 14 77 61 be 6e e2 1e be da a1 33 bc
       -0.07708277 -0.22018081 -0.15516064 -0.010963881
000060 3f c0 ac 39 1f ee a5 3d 19 87 ac bc 98 69 56 be
       0.0003294963 0.081020586 -0.021060513 -0.20938718
000070 9e cb 0f be f5 2a 52 bd 65 c8 22 3e 46 f3 67 3d
       -0.14042518 -0.0513105 0.15896757 0.056628488

conv_blocks_K.1.2.weight f4 [32, 32, 3, 3]
000000 c8 9d 24 bb d1 9f 47 bd 39 56 32 bd 82 d2 46 b9
       -0.002511846 -0.048736397 -0.04353926 -0.00018961172
000010 df 4a 14 bd 27 e8 3e 3d fb b1 5d bd a4 a9 d5 bc
       -0.036204215 0.046608116 -0.054124814 -0.026081868
000020 fe fd 51 bd df 66 2b 3d dd 3d 3a 3d 0e 6f c7 3c
       -0.051267616 0.041846152 0.045469154 0.024344947
000030 ba 28 fa bc 68 a3 3a bd ca 67 50 bd 0f 13 c7 3c
       -0.030536998 -0.045565993 -0.05088023 0.02430108
000040 01 2f 88 3b ef 36 da 3c 4a e0 92 3c e1 d3 39 3d
       0.004155994 0.026637523 0.017929215 0.04536808
000050 81 80 5c 3d fe 80 fa 3c 57 49 37 3c 96 63 0b bd
       0.05383349 0.030579086 0.011186919 -0.03403052
000060 0d 93 54 bd 92 45 45 3d 4e ab 4b 3c d7 4c 4b 3d
       -0.05189805 0.04816205 0.012430979 0.049633827
000070 70 23 c7 bc 46 5a 83 bb 1d 4d 2c bd 6b 01 8c 3c
       -0.02430889 -0.004008564 -0.04206573 0.01709052
000080 dc ab 27 3d e7 f4 4c 3d 18 e9 76 3a f1 16 7b bc
       0.040935382 0.050038245 0.0009418889 -0.015325294
000090 3e 6e 22 3d db cb ec 3c da 3a fc 3c 85 5e bc bc
       0.039655916 0.0289058 0.030789781 -0.02299429
0000a0 d3 fd 16 3c 3b 2b 7f bc 8d 4a ff bb ff 5c 87 bc
       0.00921579 -0.015574272 -0.0077908696 -0.016523836
0000b0 c5 5d 37 3c 8a 6f ad 3c 47 f4 49 3c c8 c9 d6 bb
       0.01119179 0.02117135 0.012326307 -0.006554816
0000c0 bc 41 2d bd b9 31 7c bc 51 c7 35 3d 99 97 0f bd
       -0.042299017 -0.015392714 0.044379536 -0.035056684
0000d0 b8 97 4e bd 7a ff 56 bc f2 dc 6c 3c b7 41 20 bd
       -0.05043766 -0.013122434 0.014456974 -0.03912517
0000e0 79 77 5b 3c ac 56 e1 bc 3a c0 a3 bc b3 af fb bc
       0.013395184 -0.027507149 -0.019989122 -0.030723428
0000f0 0c e9 10 bb 6e 3f 2e bd 52 de 03 bc d8 27 b7 bc
       -0.0022111563 -0.04254096 -0.008048611 -0.022357866
000100 dc 04 3a 3d bf 62 d3 bc fa 5d 5e 3c f2 ac f5 bc
       0.04541479 -0.025803922 0.01357221 -0.029989693
000110 2b 31 cb 3c b3 c2 3f bd 15 fd aa bc ea 26 c7 3c
       0.024803719 -0.04681654 -0.020872632 0.024310548
000120 50 5e 3b 3d c3 3d c4 3c 8b 68 0b bd a1 7b 19 3c
       0.04574424 0.023955232 -0.034035247 0.009367854
000130 ea 2a ef 3a 6c 39 23 3d c7 2c 44 bc 44 4a 0f bd
       0.0018247042 0.039849684 -0.011973566 -0.034982935
000140 be 60 06 3d 46 f1 83 3c d0 3a bc bc 58 75 2e 3d
       0.032807104 0.01610626 -0.022977263 0.042592376
000150 d0 63 e2 3c a1 46 4b bd 3f 1e 0b 3d 66 9f bc bc
       0.027635485 -0.049627904 0.03396439 -0.023025226
000160 a6 3c 25 bc b8 f1 00 3d ad 2e fc 3b d0 b5 58 3d
       -0.0100852605 0.03148052 0.007695994 0.052907765
000170 04 60 41 bd 59 f5 d0 3c 03 6f 26 3c 31 30 7d bc
       -0.04721071 0.025507616 0.010158303 -0.015453384
000180 5e 27 6a bc dd 34 c2 3c 05 e6 1d 3d 9f 5f 54 bd
       -0.014291612 0.023706848 0.03854944 -0.051849004
000190 4c f1 ab 3c fc 70 16 bd cc 2d 3e 3b 7f 9e e7 bc
       0.020989083 -0.036728844 0.0029018996 -0.028273819
0001a0 69 6c 41 3b ff 34 46 bd 26 fe c0 3c 65 03 15 bd
       0.002951408 -0.048390385 0.023558687 -0.03638019
0001b0 b3 5f 03 3d 0a c4 24 bd 0f 5a 1e 3d 13 72 fb 3c
       0.032073688 -0.04022602 0.038660105 0.030694043
0001c0 34 98 5d bd 47 92 3b bd 32 9b b7 bc 91 6f 13 bd
       -0.05410023 -0.045793798 -0.02241287 -0.03599507
0001d0 c9 ae 5c bd 4c 8b 37 ba 2e 3b 08 bd 91 aa 83 3c
       -0.053877626 -0.0007001653 -0.033259563 0.016072543
0001e0 30 4c 43 bd 5c 70 f4 bc 16 2c 9f 3c 50 64 82 3c
       -0.04768008 -0.029838733 0.019430202 0.015916973
0001f0 d5 4d 22 3d 00 e5 36 bd f9 45 27 bd 4b 04 a3 bc
       0.039625008 -0.044651985 -0.040838216 -0.019899508
000200 70 7e 4f 3b e1 f6 82 bc f0 4e 34 3c a7 9b 1f 3d
       0.0031661056 -0.015986862 0.011005148 0.0389668
000210 70 a7 28 3c 28 2e 1e 3d 37 07 17 3c eb fd 9c 3c
       0.010293826 0.038618237 0.009218029 0.019164046
000220 91 4c 31 bd ec 7f c8 bb 93 ba 2e 3d ce 0a 97 bc
       -0.04328591 -0.006118765 0.0426584 -0.01843777
000230 2a 7e 86 bc d9 69 ad bc e1 43 81 3c 51 44 41 3d
       -0.016417582 -0.021168636 0.015779437 0.047184292
000240 fb 84 99 3c b9 2b 41 3d 5b d5 13 3d 52 67 82 bb
       0.018740168 0.047160838 0.036092144 -0.003979602
000250 78 fe 7f bc 85 7d 76 bc f9 f9 9f 3c 39 7f 0a 3d
       -0.015624635 -0.015044575 0.019528376 0.033812735
000260 a8 24 54 bd c0 a8 bd bc 73 f1 52 bd 57 16 02 bd
       -0.05179277 -0.023151755 -0.051499795 -0.031759586
000270 a7 f6 30 3d 62 c9 4a 3d 05 80 0d bd 21 cb c7 bc
       0.043203976 0.04950846 -0.034545917 -0.024388852
000280 9a d2 aa 3c da c2 96 3c 86 1f 13 3c 01 23 e2 bb
       0.020852376 0.01840346 0.008979684 -0.0069011454
000290 88 ff e3 bc 02 ff 45 bd ac 08 4d bc e6 27 36 bd
       -0.027831808 -0.048338898 -0.012514275 -0.044471644
0002a0 05 41 4a 3d 74 65 47 3d e4 30 1e bd d9 2b ac 3c
       0.049378414 0.048680738 -0.038620844 0.021017002
0002b0 63 1c 1e 3d cf c4 35 3d a7 5f 31 3d 5c 91 14 bd
       0.03860129 0.044377144 0.04330411 -0.036271438
0002c0 9a 23 2a 3d 91 0d 52 3d c6 d4 2b 3b 80 09 c4 3c
       0.04153786 0.05128247 0.0026219352 0.023930311
0002d0 b9 d9 9b bc 78 fe 59 3d cd f8 46 bd 42 78 01 bd
       -0.019024717 0.053221196 -0.04857712 -0.031608827
0002e0 ca 25 aa 3b ba 91 ad bc 45 45 8c bc b4 da 82 3c
       0.005192493 -0.021187652 -0.017122874 0.015973426
0002f0 bf 17 e8 3c bc ca 08 3d 0c 76 38 3d ac b9 c7 3c
       0.028331636 0.033396468 0.045034453 0.024380527
000300 d2 5c ae bc 0c 6a 7f 3c 45 e8 fc bc 1e f5 ee 3c
       -0.021284495 0.015589248 -0.030872473 0.029169615
000310 c3 2e a1 3c 01 06 38 3d d4 b2 e8 3c f6 64 45 3d
       0.019675618 0.0449276 0.028405584 0.048191987
000320 86 28 05 bc 66 ed 3c bd d1 ad 29 3d 19 ee 46 bd
       -0.008127337 -0.04612484 0.04142553 -0.04856691
000330 aa 41 48 3b 92 16 88 3b 19 04 a1 3b 64 e9 11 3d
       0.0030556717 0.004153081 0.0049138186 0.03562297
000340 4f 60 e6 3b 41 da 85 bc a2 3e 0c ba ff 3e 5b bd
       0.007030524 -0.016339423 -0.0005349909 -0.053526875
000350 21 41 10 bd b8 d8 2f ba 74 3a 46 3d c1 7d 21 bc
       -0.03521836 -0.0006708014 0.04839559 -0.009856642
000360 bb 05 dc 3c 4d 0c 06 bd f8 7b 28 bd c9 1d bc 3c
       0.026858201 -0.032726575 -0.04113385 0.022963421
000370 b1 13 f1 3c 35 5c ed b8 5e 0a 23 3d fd 7f 95 3c
       0.029428335 -0.000113182155 0.03980481 0.018249506
000380 43 00 cd 3c 98 95 49 3c 6a 31 5f 3d 98 2d 27 bd
       0.025024539 0.012303732 0.054490484 -0.040814966
000390 bb dc f4 bb 4b a9 08 bd 95 12 01 bd ea 23 53 3c
       -0.007472602 -0.033364575 -0.03151186 0.012886981
0003a0 9e 97 15 bb 55 a0 a8 bb 60 25 91 3c ad 28 45 3d
       -0.0022825967 -0.005146066 0.017718017 0.048134495
0003b0 55 d3 48 bd dc d7 61 bc f0 ec ed ba 16 a1 e6 3c
       -0.049029667 -0.013784375 -0.0018152278 0.028152984
0003c0 7c be a5 bc e3 a5 4d bd e9 f9 98 bc 95 a6 e1 bc
       -0.020232432 -0.05020703 -0.018673854 -0.027545253
0003d0 00 ec 51 bd da fa 17 bd 01 24 9a bc 8d 5b 7c 3c
       -0.051250458 -0.037104465 -0.018815996 0.015402687
0003e0 97 b7 e4 bc 13 3f 66 bc e5 4a 34 bd fb 86 f5 bc
       -0.027919574 -0.014053124 -0.044016737 -0.02997159
0003f0 4a 77 cb bb 90 80 b5 bc ca f8 84 ba f1 15 43 3c
       -0.0062092887 -0.02215603 -0.0010144946 0.011907087

conv_blocks_K.1.2.bias f4 [32]
000000 fa fe 10 bd 72 87 0e bd d0 71 1a 3d 7d 08 16 3c
       -0.035399415 -0.03479714 0.037706196 0.009157297
000010 56 60 26 3d 7c 0c a3 3b 80 98 f9 bc a7 69 af bc
       0.040619217 0.0049758535 -0.030468225 -0.021412684
000020 24 96 5e bc 7a 94 06 3d ed 7f 48 bd 56 57 dd 3c
       -0.013585601 0.032856442 -0.048950125 0.027019184
000030 21 61 8d bc f6 02 69 3d 3d 47 56 3b 4a a0 e6 3b
       -0.017258229 0.05688759 0.003269627 0.007038151
000040 43 2b 6b bc bb 1c 8a 3c fc b1 c8 3b 4e 2f c0 bb
       -0.014353576 0.016859403 0.006124733 -0.005865014
000050 29 e0 77 3d d7 a1 6f bd d1 4f 50 3d 8b 74 4b 3d
       0.06051651 -0.058503952 0.05085737 0.04967169
000060 8b 74 da 3c 39 f1 9a bc 44 e0 d9 bc 37 ad 30 bd
       0.0266669 -0.018913852 -0.026596196 -0.04313394
000070 80 e4 0d 3d df 1a f1 3b ab 1a 98 3c e9 b0 bb 3c
       0.034641743 0.0073579396 0.018567404 0.022911506

conv_blocks_K.1.4.weight f4 [2, 32, 3, 3]
000000 1e d2 de 3c e7 34 98 bb 73 b7 04 3d fc 2a 4c 3c
       0.027199801 -0.0046449783 0.032401513 0.01246142
000010 9e 2e 8f 3c 36 3e bb 3b eb 7d e0 3a 8d 96 7e bc
       0.017478283 0.005714203 0.001712737 -0.015538824
000020 dd 70 52 bd dd 9a 41 3c 15 a5 b9 3c 1a ec 4c 3d
       -0.051377166 0.011816707 0.022661725 0.05002985
000030 86 3e 3d 3d f6 20 56 bd 43 bc 64 3c 83 0a 4d 3c
       0.046202205 -0.052277528 0.013960901 0.012514713
000040 68 53 2b bd ed 19 15 bc 24 21 b4 bc 23 9a 05 bd
       -0.04182759 -0.0091004195 -0.021988459 -0.0326177
000050 68 e8 41 3d fc 8e 67 bd 95 fa 40 bd 58 3e 82 3b
       0.04734078 -0.056532845 -0.047113974 0.003974717
000060 90 f8 6d 3d bf b4 81 3c 81 12 f9 3c e3 45 fe 3c
       0.058098376 0.015833257 0.030404331 0.031039184
000070 67 d3 aa 3c d4 fb b7 bc d3 bf 1f 3d 4a 9d fe bc
       0.020852758 -0.022458948 0.039001297 -0.03108086
000080 dd e2 47 3d bb 7a d8 bc 33 ad ad 3c af 49 a8 3c
       0.048800338 -0.02642571 0.021200752 0.020542948
000090 5d 6e 7f bb 0e 96 26 bb 1a b5 74 3c 62 e1 62 bc
       -0.0038975694 -0.002541903 0.014935756 -0.013847681
0000a0 b4 fb 8e bc b8 9f 53 bd 66 f2 d4 3c 1d e9 26 3d
       -0.017454006 -0.05166599 0.02599449 0.040749658
0000b0 3b a8 7f 3b eb ff 5b bd b9 3d 60 bd 43 a2 0d 3d
       0.0039010185 -0.05371086 -0.054746363 0.034578573
0000c0 6d c7 c2 3c 75 35 3d bd ab fe 51 bd 48 c7 35 3d
       0.023776734 -0.04619356 -0.05126826 0.044379503
0000d0 31 91 8a bc ff cc 37 3c ee 57 89 3c 87 9a 81 3b
       -0.016914936 0.0112183085 0.016765561 0.0039551887
0000e0 63 51 5d 3d 76 c5 b2 3b 83 22 2d 3d e9 d8 32 3d
       0.054032695 0.005455668 0.04226924 0.043663893
0000f0 a3 8e 2a 3d 2f 96 5f bd fc a1 a8 39 15 9d 6f 3d
       0.041639935 -0.054586586 0.00032164145 0.058499414
000100 fe b1 bd 3c 34 bd b8 bb 10 4d 3e 3c 46 27 40 bc
       0.023156162 -0.005637789 0.011615053 -0.0117281135
000110 f6 81 36 3d e0 26 0b bd 73 08 41 bd dc 88 20 3d
       0.044557534 -0.03397262 -0.0471272 0.03919302
000120 ee c0 4f 3d 50 8c eb bc 1e 3b 1b 3d 38 79 1f 3d
       0.0507211 -0.02875343 0.037898175 0.038933963
000130 6f 01 2a bc 76 33 3f 3d 5d f9 aa bc 0a 8d 04 bd
       -0.010376318 0.046679936 -0.020870859 -0.032361068
000140 67 e5 e8 3c 2f 09 26 bd 9f 9e 14 3d 09 40 3b bd
       0.0284297 -0.040536102 0.036284085 -0.045715366
000150 32 cc c2 3a 0b b6 4a 3b 10 12 45 bd 07 7d d9 3c
       0.001486188 0.003093126 -0.04811293 0.026548875
000160 e7 5a 1a bd 43 11 3e 3d 4a 89 36 bc 56 f7 46 3d
       -0.037684347 0.04640318 -0.011141131 0.04857572
000170 52 30 19 bd f7 ab 62 39 07 63 35 bd be a8 ba 3a
       -0.037399597 0.00021617101 -0.044283893 0.0014240963
000180 19 a1 bb bc 13 a4 9c bc d0 13 12 3d d9 a7 01 3c
       -0.022903966 -0.019121205 0.035663426 0.007913553
000190 83 d0 76 3c 29 d7 5b 3d 1f f9 95 bc 73 c2 24 bb
       0.0150643615 0.05367199 -0.018307267 -0.0025140315
0001a0 f6 43 86 bc ef 9d 81 3c df 41 0d bd 94 8c eb bc
       -0.016389828 0.015822379 -0.034486648 -0.028753556
0001b0 f8 32 1c 3d 59 a8 48 3d 4e 2f a8 bc ee 2a e6 b9
       0.038134545 0.048988674 -0.02053037 -0.00043901004
0001c0 6a 92 ff 3c a5 11 98 3c c5 f9 1b 3d 84 e9 21 bc
       0.031197745 0.018563101 0.038079996 -0.009882335
0001d0 c9 26 68 3d 3f 78 5a bd c0 1a 0d bd ac d9 da bb
       0.056677613 -0.05333733 -0.03444934 -0.0066787805
0001e0 c9 66 6b 3c 0e 2a 8f bb f8 9d 95 bc 5c a1 3e 3d
       0.014367768 -0.004369027 -0.018263802 0.046540603
0001f0 57 b2 61 bd 80 47 a2 bc ac e8 a6 bb e4 d9 84 bc
       -0.05510172 -0.019809484 -0.0050936546 -0.01621718
000200 d7 9b bc 3a 2b 51 b8 3c 1c 8a 28 3d 69 5e c6 3c
       0.0014389706 0.022499641 0.041147336 0.02421494
000210 50 c3 3e 3d fb 46 93 bc 7e 1e 5f 3d 17 33 02 bd
       0.046572983 -0.017978182 0.05447244 -0.031787004
000220 54 13 71 bb 84 5e 67 3d 87 29 e5 3c 2b 43 51 bd
       -0.0036785202 0.05648662 0.027973903 -0.051089447
000230 83 08 dd bc 2b e6 e3 bc 4b ff b3 3c 35 5d 30 bd
       -0.026981598 -0.027819714 0.02197232 -0.04305764
000240 54 1d 00 bd 44 f1 3d 3d 59 3b 3f bd 93 d7 4d bd
       -0.03127797 0.046372667 -0.046687458 -0.050254416
000250 9e ac 2f 3d ad 96 b0 bc 60 90 33 39 b5 36 f5 3c
       0.04288923 -0.021556223 0.00017124554 0.029933313
000260 89 c9 13 3c cc 3c 2a 3c 1d f1 64 bd b2 2e 45 3d
       0.009020218 0.010390472 -0.055894006 0.048140235
000270 62 5f 33 3d 2a db 5f bd 07 ed 64 3d e4 cb 3b bb
       0.043792136 -0.05465237 0.05589011 -0.0028655464
000280 73 57 2e bd 68 00 47 bc c8 e1 f2 bc 1e df c1 3c
       -0.042563867 -0.012146093 -0.029648677 0.02366596
000290 73 53 58 bd dd 74 42 3d c8 2e 99 bc 61 ab 55 bd
       -0.05281396 0.04747473 -0.018699065 -0.052165393
0002a0 42 45 3a bc 44 d1 5c 3d 71 ee 23 3d 84 3f 51 bd
       -0.011369051 0.05391051 0.040022317 -0.051085964
0002b0 98 cb 90 bc be c4 31 bd 8b 31 8c bc 9d c4 85 bc
       -0.017675206 -0.04340052 -0.017113468 -0.016329104
0002c0 b7 80 d9 bc ba ed ac 3b 46 0f 29 3d 24 c7 57 bd
       -0.026550634 0.0052773627 0.04127433 -0.05268015
0002d0 fe 21 1d bd d5 93 11 b8 e2 b0 87 ba 6e 27 5e 3d
       -0.038362496 -3.4708373e-05 -0.0010352398 0.05423682
0002e0 67 94 37 bd b5 53 d6 bc ea 1f 3b bd ad 28 53 3c
       -0.044819262 -0.026162961 -0.045684732 0.012888116
0002f0 68 54 14 bc f9 eb 58 bd af 14 a5 3a 6c 8f 53 bd
       -0.009053327 -0.052959416 0.0012594665 -0.05165045
000300 b6 a7 cd 3c b3 8c 64 bc cf bc 2f bc f6 0f 65 ba
       0.025104385 -0.013949561 -0.010726168 -0.0008738035
000310 57 c2 3a bc 62 29 47 3d 9d 00 24 bd b7 b5 80 bc
       -0.011398873 0.04862345 -0.040039647 -0.015711648
000320 5b f5 65 3d f6 ac ec bc 54 24 51 3b c5 fb 86 bc
       0.056142192 -0.028891068 0.0031912522 -0.016477475
000330 2c 1b e9 bc 27 b5 98 bc 39 b4 08 bd 4b 84 12 3d
       -0.02845534 -0.018641068 -0.033375 0.035770696
000340 6a b0 fa bb da 93 60 3d 1d 61 d2 bc 87 d1 83 bc
       -0.0076504247 0.054828502 -0.025681073 -0.016091121
000350 27 35 26 bd f6 91 16 3d e0 1f 3f bc 1c 22 0e 3c
       -0.040578034 0.036760293 -0.011665314 0.0086751245
000360 2b ae 8e bc 02 c8 2a 3c bc 6f 04 3c 76 87 55 bd
       -0.017417034 0.010423662 0.00808328 -0.05213114
000370 a7 61 30 3d 16 a1 3d 3d c3 16 f8 3b fe 3c 19 3d
       0.04306188 0.0462962 0.007571073 0.037411682
000380 2a f7 06 3d 86 35 41 bd 48 70 0e bc 33 0a 35 bd
       0.032950558 -0.047170185 -0.008693762 -0.04419918
000390 51 11 d2 3c 7d 11 a7 3c 40 e1 cf bc 25 21 8f 3b
       0.025643023 0.020394081 -0.025375962 0.004367965
0003a0 41 d7 20 3d 98 4c b4 bb 12 5a 58 bd b8 ae 42 3c
       0.039267782 -0.0055022947 -0.052820273 0.0118824765
0003b0 0a d2 d5 3c 91 e5 69 bc 4b 5e c7 bc a3 1a a3 3c
       0.026101131 -0.014275924 -0.024336955 0.019910162
0003c0 d3 0b 5d bd c6 a6 28 3b e4 8f 4b bd 8d e0 3f bd
       -0.053966355 0.002573417 -0.04969777 -0.046845008
0003d0 5a c7 52 bd 3c f5 e0 bc 83 5d 66 bd 2a 95 da bc
       -0.051459648 -0.027460687 -0.056241523 -0.026682455
0003e0 9e 6b 07 bd 6b f9 ac bc 6b cd 0d bd 87 bb a0 3c
       -0.033061616 -0.021115026 -0.03461973 0.01962067
0003f0 f7 bf 5f bd f1 2a d9 3c 99 d5 cc bc c3 2c f6 bc
       -0.05462643 0.026509734 -0.025004195 -0.03005064

conv_blocks_K.1.4.bias f4 [2]
000000 21 a4 08 3d 7b 1a 26 3d
       0.03335965 0.040552597
