kiki_checkpoints/kiki_epoch_40.pth (torch, 531239 bytes, 72 tensors)

conv_blocks_K.0.0.weight f4 [32, 2, 3, 3]
00000000: f8cd 4d3e 9042 ae3c 5bb9 1e3e cb64 563e
00000010: 000c 4e3c 4ebf 11be fa3c 653e 638c 6cbd
00000020: c159 a5bb 3922 2c3e b2b9 593e 7b29 8c38
00000030: f223 15be 4a68 5dbd 1eaf a7bd c15e d2bd
00000040: 99f9 c7bd 8ce8 cbbd 2bcd 323e 9478 1b3d
00000050: dd45 a7bd fc7c 44be 6216 3e3e bfde 03be
00000060: 8e3c 8ebd 680d 8ebd 2a7e b73c c2bb f23c
00000070: ab07 5c3d 4309 7f3d 710c 5cbe b54c 43bd
00000080: 3327 a8bd 3054 14be 7078 c3bd c7dc a5bd
00000090: 4344 3f3e d566 263d b19b 183d e329 0b3e
000000a0: e9ff cabc 6b17 473b 4a0f 943d fe3d 1ebe
000000b0: b655 923b 0df6 c13d 3bc0 30be 7ed2 63bd
000000c0: db00 9f3d 9a69 4d3e c84c 37be d3c0 22be
000000d0: 71d4 36be 1963 26be 2d03 0ebd a10e 51be
000000e0: fb5d 343d fde7 72bd 7fd1 d23d 6522 2fbd
000000f0: d210 73bd d4ac 5f3e 2325 983d 6109 43bd
00000100: 7e83 5bbe c283 0cbd 6b3a 053e 9568 ea3d
00000110: d663 3c3e 3bf3 a3bd f2dc 52be 82c5 57be
00000120: 220d ca37 833c 13be a9c4 d53d 1cf0 d7bd
00000130: 0df0 893d 9988 faba 3e01 083d da46 15be
00000140: 1427 343c eb49 563d 3f7b 453e 931a dc3c
00000150: ebdb 463e d97b 05be 38f9 fabd 2d6b 98bb
00000160: d602 33be 5277 36be ea4f 583e 2664 5b3e
00000170: 73b5 3fbd c5f5 053e 2174 65bc 4baf 23bc
00000180: aa82 323e 0ef0 3b3e 6705 de3d baa4 7fbc
00000190: fb45 b6bd 3960 67be 2426 593e 380a d73d
000001a0: ce14 68b9 80f1 1a3e aea5 633e a57b a3bd
000001b0: 1513 29be dd52 fa3d 9df8 6bbe 4426 4b3d
000001c0: c8e8 a03d 09ad e63c c186 bd3d 35af 02bd
000001d0: a754 0b3e f192 c8bd 07c7 22be 9d29 1bbe
000001e0: 3a3b b33d 4f9d 613e 3eb1 56be 67ea d83d
000001f0: 34cc de3d 0489 053e aec8 b33c 6d56 683e
00000200: 0101 15bd 5f58 6dbe e3a7 813b 3efb da3d
00000210: 5b0b 47bc cc03 4f3e 3559 e6bd 4672 e63d
00000220: a0d7 693e 4fce 9d3d b6b5 36be 5bc8 3abe
00000230: 592a 35be a3af aabd 47ba 9c36 1952 17bd
00000240: 3048 3f3d 1cb8 04be a1f6 513e b732 3b3d
00000250: 6336 b3bc 6f03 97bd ff55 3dbe f113 2cbe
00000260: e97d 8cbd 286a 403e 51c8 313e f827 e33d
00000270: 0a24 023e f276 3a3e 42a1 053e 152c 06be
00000280: fe13 92bd e1e7 2e3e 4744 e33d 3d3f 4bbd
00000290: 06c6 0e3e 50d9 5cbe 425c a83d dacf d13d
000002a0: 5a6f 353e 78e2 27be 1f54 2e3e 504b a83d
000002b0: 040c 213d 642d 6cbe 63f7 ad3c e905 4c3a
000002c0: 4605 0bbe aacd 393e 500f 6d3e 3cb0 9bbd
000002d0: c3c1 683e 04cb 01be 4486 54be a5f5 26be
000002e0: 644e 283e ea12 afbd a7c4 66be c2f1 3a3e
000002f0: b481 233d d13b 033e 7700 0d3e d867 5d3e
00000300: 4220 97bb 6958 5bbe 2975 ddbd d5fa 283e
00000310: 6ba9 25be 584b 403d fa90 693d e7b5 27bd
00000320: 6f0f d93d efde bbbd fd19 7538 ecda 2dbe
00000330: 9e35 95bd 9602 603e d3f3 b23d f3ca 763d
00000340: b58c 2dbe d745 4ebd e383 223e 0e60 243e
00000350: 2c5f 23be ea7b 913c 4364 463e 4999 f7bd
00000360: 954c c5bb ce08 22be 77b2 403e fbe7 a43d
00000370: 526b 4b3e c045 243e 55b9 52be e57c 26be
00000380: 108d 88bd c4fd a6bd 3a61 c63d e3a7 d5bd
00000390: b287 03be 807f 33bd 2448 e13c cc1f 17be
000003a0: adff 6abe 125b 47be 089d 6e3d 2ebd d83d
000003b0: ab49 64be 7a43 0fbd 7f60 063d 651a 43be
000003c0: b39c 4eb9 9724 173d b7b6 15be dfee 5fbe
000003d0: 6f5f 1fbe 404c 82bd f27f c4ba 2699 7b3d
000003e0: a835 8c3d 39da 5f3e 1010 2dbd 7df5 cd3d
000003f0: d524 e03d 9c7a 283e d5cd 353e c52d b13c
0.20098102 0.021271974 0.15500395 0.20936887 0.012576103 -0.14233133 0.22386542 -0.05775107
-0.0050461 0.1680993 0.21262243 6.6834466e-05 -0.14564493 -0.054054536 -0.08187698 -0.10271979
-0.09764404 -0.09956464 0.17461078 0.03795679 -0.08167622 -0.19188303 0.18563226 -0.1287794
-0.06945144 -0.06936151 0.022399027 0.029630546 0.05371825 0.062264692 -0.21489121 -0.047680575
-0.08210602 -0.1448524 -0.09544456 -0.080987506 0.18678384 0.040625412 0.037257854 0.13590197
-0.02478023 0.0030378948 0.07229479 -0.15453336 0.004465784 0.094707586 -0.1726083 -0.055620663
0.07763835 0.20059815 -0.17900383 -0.15893869 -0.17854477 -0.1624874 -0.034670997 -0.20415737
0.04403494 -0.059303273 0.102938645 -0.04275741 -0.059342213 0.21843272 0.07428958 -0.047616366
-0.21436879 -0.03430534 0.13010566 0.11445729 0.1839746 -0.08005377 -0.20592096 -0.21071437
2.4086392e-05 -0.14378552 0.104379006 -0.10543844 0.06735239 -0.0019114196 0.03320431 -0.14577809
0.010995645 0.052316587 0.19285296 0.02686814 0.1941983 -0.13035525 -0.12254566 -0.004651448
-0.1748155 -0.17818955 0.21124235 0.21424922 -0.046803903 0.13082035 -0.014004738 -0.009990524
0.17432657 0.18353292 0.10840874 -0.015603239 -0.089000665 -0.225953 0.21205956 0.10499996
-0.00022132994 0.15131187 0.2223117 -0.07982568 -0.16511185 0.12222836 -0.23044057 0.04959704
0.078568995 0.028158681 0.09254218 -0.03190537 0.13606511 -0.09793652 -0.15896235 -0.15152593
0.08751531 0.22032665 -0.2096605 0.10591584 0.108787924 0.13040549 0.021946277 0.22689219
-0.03637791 -0.23178242 0.0039567812 0.10692452 -0.012148703 0.20216292 -0.11247484 0.11252265
0.2283616 0.07705366 -0.17842755 -0.18240492 -0.17691936 -0.08334281 4.670848e-06 -0.03694353
0.046699703 -0.12960857 0.20504238 0.045702662 -0.02187652 -0.07373702 -0.18489836 -0.16804482
-0.06859953 0.18790495 0.17361571 0.11091608 0.1270906 0.18209437 0.13049796 -0.13102753
-0.071327195 0.17080642 0.11097007 -0.049620856 0.13942727 -0.21567273 0.08220722 0.10244723
0.17718259 -0.16394985 0.17024277 0.0821749 0.0393181 -0.2306419 0.021236127 0.0007782863
-0.1357623 0.18144861 0.23150373 -0.076019734 0.22730164 -0.126751 -0.20754343 -0.16304643
0.16436154 -0.085485294 -0.22535954 0.18256286 0.039918616 0.12815787 0.13769709 0.21621644
-0.0046119997 -0.21420445 -0.10813362 0.16501935 -0.16177909 0.046946853 0.057023026 -0.04094496
0.10598647 -0.091733806 5.8436755e-05 -0.16978043 -0.07285617 0.21875986 0.08737912 0.06025214
-0.16948207 -0.050359573 0.15870623 0.16052267 -0.15954274 0.017759282 0.19374184 -0.12089784
-0.006021092 -0.15823671 0.18818079 0.08052059 0.19865158 0.16042233 -0.20578511 -0.16258581
-0.066675305 -0.08153871 0.09686513 -0.104324125 -0.12844732 -0.043822765 0.02750022 -0.14758223
-0.22949095 -0.19468334 0.058255225 0.10582958 -0.22293727 -0.03497646 0.03280687 -0.19053037
-0.00019704066 0.03690013 -0.14620481 -0.21868466 -0.15563749 -0.063622 -0.0014991744 0.06142535
0.068461716 0.21860589 -0.042251647 0.10056589 0.10944525 0.16453022 0.177543 0.02162827

conv_blocks_K.0.0.bias f4 [32]
00000000: dcde e13c 16e3 d73d 174a 923d 0a6f 5fbe
00000010: f92b 3fbd 53a8 9ebd aeba 6d3d 8e51 263e
00000020: 4c92 28be 9f62 ecbd a35b 343e 2b8a 053d
00000030: 4cba 833d 8c43 c83c d91b 57be 003d 30be
00000040: cad9 233e e242 a93d 3ab2 473e 9f00 21be
00000050: 1818 423e 0e8a 2e3e 5fe5 90bc 7bb5 903d
00000060: 2ca7 1dbc 5eb7 663e 3447 603e ef28 ab3d
00000070: 6b17 0d3e 28fc 333e f9db 563e d5ae a0bd
0.027572088 0.1054136 0.07143038 -0.21819702 -0.046672795 -0.07746949 0.05803936 0.16242048
-0.16462058 -0.11542248 0.17613082 0.03260247 0.06432018 0.024446271 -0.21006717 -0.1721077
0.16001049 0.0826471 0.19501582 -0.15722893 0.18954504 0.17044851 -0.017687498 0.07065865
-0.009622376 0.22530887 0.21902162 0.08357417 0.13778464 0.17576659 0.2098235 -0.078458466

conv_blocks_K.0.2.weight f4 [32, 32, 3, 3]
00000000: 62d0 ae3c ca35 0b3d 2a8e 4b3d d8ce 283d
00000010: 9584 613d 02f1 cc3c 67b4 c4bc fc7b 44bc
00000020: b65c 2a3d d1cd d739 9beb 083d eca8 4f3d
00000030: 563c a23c d6ad 483d 3405 61ba 0b2d 7e3c
00000040: 4c45 36bd d0b8 4abb 3ace 04bd b3b4 4dbb
00000050: 4abb d73a 2d3f abbc 6cac debc ff7b 31bd
00000060: 2f96 f2bc f9f3 c8bc 037c 053d e0bc 573d
00000070: 3be0 e4bb c11e 203c 582e 553d 6da7 5ebd
00000080: 3c2e 103d eace 623c 0d3e 05bd a218 5a3d
00000090: c7e7 2abc f245 9a3c 7fcf 963c fba2 9b3c
000000a0: c664 4d3d 4a6d bb3b 33b8 3e3d 382c b23b
000000b0: 1cdf e43c 9978 a7bc c99d 9cb9 23de 43bd
000000c0: 68a1 51bd 558d 033d 9252 4c3d 1cb8 3ebd
000000d0: a8f8 51bc 84eb 8d3b 9e0c 163d d455 59bc
000000e0: 25ee 9d3b f21c 02bd 93f7 08bd 6546 15bd
000000f0: d900 d5bc a058 3abc 047c 74bc fd3e c2bb
00000100: f4a3 01bd 2691 5fbd 7db3 1bbc d008 583d
00000110: f645 813c 008a 3b3c da70 ba3b 5ba5 17bd
00000120: 4357 8bbb 7ba1 333d 0f25 05bd fee9 153d
00000130: 191f 8dbc 61b0 afbc 8a6d 633b 50ec 3c3d
00000140: f7f0 cbbc 8eef 1a3d f34f 29bd 8064 aabc
00000150: 66df abbc faf0 213c ab7d 903c 77bf 77bb
00000160: 1b45 5d3d de10 46b8 5376 443d b7db 653b
00000170: 0a02 ae3c 11fa b13c bfd9 643c 59f0 36bd
00000180: 335b c9bb 9753 20bd 9bc2 10bd a60c f4bc
00000190: 0059 08bd f7aa 91bc 266e 3a3d d33c 293c
000001a0: 2e0e 2c3d cfb6 debb 6724 09bd dc9f 7dbb
000001b0: bb12 b3bc cb1c c13b 9655 a83c 7713 c8bc
000001c0: cd3f f839 93e7 b43c 0c6f 8cb9 158e 9c3b
000001d0: 2fb1 b839 9e9d ae39 ee35 123d 3033 1c38
000001e0: f663 acbc 94b9 6dbc 4957 46bd e4d7 fa3c
000001f0: 101a 31bd 15f5 36bc c9d0 5d3b 96c3 0ebd
00000200: f9c2 5bbd 4d60 0dbd cc36 8fbc 6e7b 1c3d
00000210: a2d7 2fbd 3277 03bd 3994 4abd bce3 3f3d
00000220: 1853 5a3c d00e 093d 3a56 283b b490 5a3d
00000230: 47d1 78bc af16 01bd 42dc a73c 4398 0e3a
00000240: c3cd e93b 5689 17bd a25f 22bd 61a6 ddbc
00000250: 6262 33bc b020 d83b f2d7 eebc 8db2 65bc
00000260: d3ed 2fbd 5efa 8e3c ae4b 493d 46d2 26bd
00000270: ef50 2d3d 5b89 eabc 915f 4bbc 3daf 363a
00000280: d17a 723c f5a9 37bd 6e10 2f3d 9e48 6d3c
00000290: 0965 45bd 95ab 48bd 88e8 b83c 5b69 3abd
000002a0: e5da 823a 888b 353d 86dd 213d a5ac 5f3d
000002b0: 6638 db3c 4b90 25bd 6d40 543d c9fb 3ebd
000002c0: f007 30bd aa68 1c3d 4cd0 10bd 3e61 51bd
000002d0: 61db 24bc a76e f6bc eb09 853c 4776 03bd
000002e0: 2017 1c3d da50 2e3d 0726 bc3c dbb6 153d
000002f0: 933b 3a3d 01dd 923c 5db8 343c f6b4 5bbd
00000300: f022 45bd 1fd3 763c c503 c3bc ba43 c43c
00000310: 8dfc f43c b859 d93a 745b bd3c 10e1 c43c
00000320: 6ded 04bd 5791 ac3c c1b0 80bb 2707 00bd
00000330: 7a94 5ebd e0b0 523c 1d37 c2bc 9442 4d3c
00000340: c9df 0e3d 5260 e5bb da80 e1bc b379 c2bb
00000350: 9ab0 e7bc 0fb8 83bb f7b7 2cbc 2d76 56bd
00000360: 7ba4 e33c 5d1c f23c 5e49 30bd 1f76 3c3d
00000370: 6440 46bd 11e5 f4bc bbf0 5f3c 85a1 cf3b
00000380: 4084 033d b02e 3fbc 24f9 263d d013 38bd
00000390: de1a ed3c 8ab5 973c d6a3 8b3c 3478 fabc
000003a0: 47bb 5d3c d22a d2bc 6b71 cfbc 78bb de3c
000003b0: 95ba 253c c08b 383d 9d75 5b3d 6a2f 5d3d
000003c0: d551 51bd eefd ab3c e648 be3a ad35 e9bc
000003d0: 825a 293d d8af 2bbd 7ece beba bb5b 373a
000003e0: 9703 403a 51cf 5bbd 8c85 f03b a5e1 55bc
000003f0: 694f 04bd 56a8 89bc 4667 143d cde1 573d
0.021339599 0.033986844 0.049696125 0.041212887 0.05505808 0.025017265 -0.024011804 -0.011992451
0.041592322 0.0004116134 0.033427816 0.050698206 0.019804161 0.048993908 -0.0008583844 0.015513669
-0.04449968 -0.003093291 -0.032423235 -0.0031388223 0.0016459015 -0.020904148 -0.027181827 -0.043331143
-0.029612629 -0.024530398 0.03258897 0.05267036 -0.006984738 0.009772957 0.05204615 -0.05435889
0.035200343 0.0138432775 -0.03252988 0.053246148 -0.010431237 0.01883218 0.018409489 0.018998614
0.050144933 0.0057198154 0.046562385 0.0054374 0.027938418 -0.020443248 -0.00029872198 -0.047819268
-0.05117932 0.032117207 0.049883433 -0.0465623 -0.012815632 0.004331054 0.036633126 -0.013265092
0.004819649 -0.031765886 -0.03343923 -0.036444087 -0.02600138 -0.011373669 -0.014922146 -0.005927919
-0.0316505 -0.054581784 -0.009503243 0.05274278 0.01578043 0.011446476 0.0056897225 -0.03702293
-0.0042523458 0.04385517 -0.032506045 0.036600105 -0.017226743 -0.021446409 0.0034702742 0.046123803
-0.024895174 0.037826113 -0.04133601 -0.020799875 -0.020980548 0.009884113 0.017638048 -0.003780333
0.054020982 -4.7222587e-05 0.047964405 0.0035073587 0.021241207 0.021725686 0.01396793 -0.044662807
-0.006144905 -0.039142217 -0.03534184 -0.029791187 -0.033288002 -0.017781718 0.045515202 0.010329443
0.04200571 -0.006796695 -0.03348198 -0.003870002 -0.021859517 0.005893325 0.020548623 -0.024423344
0.0004734978 0.02208308 -0.00026785617 0.0047776797 0.00035227227 0.000333053 0.035695963 3.724097e-05
-0.021043759 -0.014509577 -0.048423085 0.030620523 -0.043237746 -0.011166831 0.003384637 -0.034854494
-0.053652737 -0.034515668 -0.017482184 0.03820365 -0.042930253 -0.032096095 -0.049457762 0.046848044
0.013325475 0.033461392 0.002568616 0.053360656 -0.015186614 -0.031515773 0.02049077 0.0005439559
0.0071351244 -0.036996208 -0.039641984 -0.027056875 -0.010948749 0.0065956935 -0.029155705 -0.014019621
-0.042951416 0.017453369 0.04914444 -0.040727876 0.042313512 -0.02862995 -0.0124129215 0.00069688616
0.0147997895 -0.044839818 0.042740278 0.014482645 -0.048192058 -0.04899176 0.022571817 -0.04551063
0.0009983449 0.04432252 0.0395179 0.054608006 0.026760291 -0.04042081 0.051819254 -0.04662684
-0.04297632 0.038185753 -0.035354897 -0.051118128 -0.01006207 -0.03008206 0.01624008 -0.03209522
0.03810799 0.042557575 0.022967352 0.036551338 0.04546697 0.017927648 0.011030284 -0.053639375
-0.048129022 0.015064984 -0.023805508 0.023958076 0.029905582 0.0016582524 0.023114897 0.0240331
-0.03245299 0.021065397 -0.0039273207 -0.03125682 -0.054340817 0.012859553 -0.02370792 0.0125280805
0.034881387 -0.0070000077 -0.027527262 -0.005934918 -0.028282452 -0.004019744 -0.0105419075 -0.052358795
0.027788391 0.02955454 -0.04303872 0.046011087 -0.04840125 -0.029894384 0.013668234 0.0063363933
0.032108545 -0.011668846 0.040764943 -0.04494077 0.028943475 0.018519182 0.017045897 -0.030574895
0.01353342 -0.025655184 -0.025322637 0.027189001 0.010115285 0.04505515 0.05357896 0.054000296
-0.05110343 0.020995107 0.0014517575 -0.028467977 0.04134608 -0.041915745 -0.0014557389 0.0006994565
0.00073247537 -0.05366451 0.007340139 -0.013054286 -0.032302294 -0.016803902 0.0362313 0.052705575

conv_blocks_K.0.2.bias f4 [32]
00000000: 4249 4dbd 7bee c4bc 37f5 8bbb 484e 303d
00000010: 66d3 2cba ae1c 84bc 20ca fb3c 826d 6abc
00000020: 4717 2c3d effa 4d3d 14f5 b13c 8140 0b3b
00000030: 9ce0 253d 425d 55bd eaef 5ebd 63bc 533c
00000040: 4d74 11bd 8b53 3ebd 3a7c 5dbc 7ce6 09bd
00000050: 625a d13b 14e7 09bd a707 5c3b a36e df3c
00000060: 0661 e3bc 655f 373d e0fe a8bc 0eec 303d
00000070: d5ec 14bd 8203 12bd 2708 db3c 7037 6d3d
-0.050118692 -0.024039498 -0.0042711752 0.043043405 -0.000659278 -0.016126957 0.03073603 -0.014308335
0.042014387 0.050288137 0.021723308 0.0021248164 0.040497407 -0.05209089 -0.05442802 0.012923333
-0.035511304 -0.04646639 -0.013518387 -0.033667073 0.0063889483 -0.03366764 0.0033573897 0.027274435
-0.027756225 0.04476871 -0.020629346 0.04319387 -0.036358673 -0.035647877 0.026737286 0.057914197

conv_blocks_K.0.4.weight f4 [2, 32, 3, 3]
00000000: daf0 ddbc 872d 49bd 1b99 d5bc 664a fd3c
00000010: d1a1 2fbd 8582 56bc 9edb 3fbd fd80 4036
00000020: ffee 1c3d d195 2d3b ac78 8f3a 641f 95bb
00000030: a184 523d 9142 0d3c 1661 623b e894 0b3c
00000040: d152 8f3b ac70 273d 426f 2c3d 09f2 513c
00000050: 406f e43c b18a 32bd d72e 35bd f9c2 7e3b
00000060: 7440 7e3c 6850 0f3c 5a50 da3c 2c70 4d3d
00000070: 8827 52bd 4a3b 5fbd b53a 9a3a f3ce 09bd
00000080: 1694 923c 14c4 333c 1532 fbb5 c60f 793b
00000090: cf6a 273b 4165 4ebd c5c1 ce3c d15b 8f3c
000000a0: 1083 583d ec5e 0b3c 9768 4f3b aa76 293b
000000b0: 70f7 a8bb d565 853c deb8 ad3b d61b 583d
000000c0: b37f e5bc eded 02bd 6b04 3e3d fa1d dd3c
000000d0: e15d 7f3b f1be 3c3d ff07 8abb d941 773c
000000e0: e267 083c 0c4a 00bb dbc3 033d 8dde f1bc
000000f0: 2338 89bc c818 243d 9021 f53c 1558 943c
00000100: 34c0 ba3c 7ef6 093d f38c 26bb 2c52 5e3d
00000110: a83c 343c 09dd 1fbc 804b c03c 91a9 873c
00000120: 8b77 2dbd 5a00 81ba 322d 223c f0d7 1c3d
00000130: 5ab1 3dbd 00f1 29bd bd3c 30bd ed33 ed3c
00000140: 61be c4bb 15f7 57bd 7052 17bd a7f7 3c3d
00000150: 2e95 cf3c 5eba 233d 74b2 65bd 4017 c3bc
00000160: 522e 443c dd4c bd3c dd6d 3e3d 3397 50bd
00000170: b349 eb3c fbe5 e93b d3b6 623d 3235 3ebd
00000180: 6092 073b 0a9b 56bd 1a06 49bc 2378 dd3c
00000190: 4bf6 0f3d 6c0a 50bd b341 ec3a eebf 373d
000001a0: 76f9 08bc 89cc dabb dec3 7e3b d00c 4cba
000001b0: c5dc abbb 5202 483d 7b18 9ebc b4b7 4fbd
000001c0: 06da 353d 3526 a8bc 3e24 c5bc f0ce 9dbc
000001d0: a350 033d 3d5d 0e3b 4d4f f43c f545 0cbd
000001e0: 2c43 9cbc d98c 15bd 03a5 243d 0103 4bbd
000001f0: 9508 51bd 11c7 003d 51d4 f2bc eee6 3e3d
00000200: 7edd 2fbd b0f2 dc3a 7657 be3c b89c 073d
00000210: 8f32 9abc f5da 2ebc b2a2 973c 16bd d3bc
00000220: 1670 f4bc 5814 eb3c 41d6 423c f02b 45bd
00000230: db87 663a d11b 9e3c 2186 57bd 99a7 bebc
00000240: 8ba3 46bd 0b7a 5dbd f3ed b1bc f536 493d
00000250: 50db 383b 13f4 e537 d7bc 0d3c a69b 153c
00000260: cc1a 033b d6a4 ae3c 6bd6 5fbc 606c 623d
00000270: 824c 0b3b 3828 8dbc 1663 85ba a52a 033d
00000280: 0b44 11bd 75bb 4f3d 7120 13bc cfce eabb
00000290: ced1 c6bc 0b51 f93c bc9f 823c 0df1 8e3c
000002a0: 6d6c afbc 8179 0dbd 5414 bebc c8d0 5f3c
000002b0: 656b 20bd 7c58 473c 68e2 1fbd 6048 16bc
000002c0: 4237 633b dc44 cabc 4a33 4cbd 38ab ea3c
000002d0: 6417 0fbc 0d44 d03b 2dc0 4a3d 84a0 a9bb
000002e0: 071a 18bd 4b3d 9ebc f4a4 433d 2edc 0b3d
000002f0: 0ffe 31bd 7688 e2bc 826b c0bc 8379 d13c
00000300: 0154 373d 63fe e13c 860e 443c f15c 213a
00000310: 6cbe ddbc fb0d f93c d98e 59bd c5ce 2ebd
00000320: 2b1e 353d 1808 5fbc e6b9 d6bc 149f b13c
00000330: 8484 8c3c 9e27 b8bb ae9b e0bb a3b0 313d
00000340: 565b 023d 8bf6 4b3d 64cc 663c bce8 973c
00000350: a992 f53c 2d41 24bd 666f 253c 2119 4b3b
00000360: cccd e73c df01 8c3c beaf d43a a1d2 463d
00000370: 17e0 06bb a1bc 583d efea 55bd 87c0 593d
00000380: 1050 13bd 869e 253c b835 373d ab6d fc3c
00000390: d10d 5fbd b302 9c3c 9548 1cbd bf2e 453d
000003a0: 8163 543d 7199 143d 5e3e 283d 22bc 0dbd
000003b0: 8d8f 56bb 447d 55bc 187d fe3c 7069 76bc
000003c0: 8c37 233d 4f41 15bd c32e 5a3c 74ae bcbc
000003d0: b980 f33c d2d1 a73c 6011 a7bc 8995 a6bc
000003e0: 5eb2 313d f1cd 5d3c 52bc 8cbc 926f 2bbd
000003f0: 2ca6 e63c 7c8c 153d c635 bc3c 797a 37bd
-0.027092386 -0.049115684 -0.026073983 0.030919265 -0.04287893 -0.013092642 -0.046840303 2.868531e-06
0.038313862 0.0026487003 0.0010945997 -0.004550861 0.051396016 0.008621828 0.003454273 0.008519389
0.004373886 0.040878937 0.04209829 0.012814053 0.02788508 -0.043589298 -0.044234123 0.0038873537
0.0155182965 0.008747198 0.026649643 0.050155804 -0.05130723 -0.0544999 0.0011766764 -0.033644628
0.017892879 0.010972042 -1.8715533e-06 0.0038003786 0.002554584 -0.050389532 0.02523888 0.017499836
0.052859366 0.008506518 0.0031648034 0.0025858083 -0.00515645 0.016283909 0.005301579 0.05276092
-0.028014993 -0.031965185 0.046390932 0.026991833 0.0038965868 0.046080533 -0.004212379 0.015091383
0.008325549 -0.0019575385 0.032169204 -0.029525066 -0.0167504 0.040062696 0.02992323 0.018108407
0.022796728 0.03368234 -0.0025413602 0.054277584 0.01100079 -0.009757289 0.023473501 0.016560348
-0.042350333 -0.0009842024 0.009898471 0.03829187 -0.046311714 -0.0414896 -0.043026675 0.028955424
-0.0060041402 -0.05272587 -0.036943853 0.046134617 0.02533969 0.039972655 -0.05607839 -0.023814797
0.011973934 0.02310794 0.046491493 -0.050925445 0.028721666 0.0071380115 0.055350136 -0.04643745
0.0020686612 -0.05239395 -0.012269521 0.027034825 0.035146993 -0.05079119 0.0018024951 0.044860773
-0.008360257 -0.0066772145 0.003887407 -0.00077838916 -0.0052448236 0.048830338 -0.019298783 -0.050712302
0.044397376 -0.020526031 -0.024065133 -0.019263715 0.032059323 0.0021723055 0.02982297 -0.034246404
-0.019074999 -0.036511276 0.04019643 -0.04956341 -0.051033575 0.031439845 -0.029642256 0.04660695
-0.04293584 0.0016856994 0.023235064 0.033108443 -0.018822936 -0.010672321 0.018510196 -0.025847
-0.029838603 0.028696224 0.011891902 -0.048137605 0.0008794048 0.019300373 -0.05261815 -0.023273276
-0.04849581 -0.054071467 -0.021719908 0.049124677 0.0028206892 2.7412583e-05 0.00865098 0.009131348
0.0020004986 0.021318834 -0.013661961 0.055279136 0.002125532 -0.017231092 -0.0010176625 0.03202309
-0.03546528 0.050715882 -0.008979903 -0.007165767 -0.024269965 0.030434152 0.015945308 0.017448926
-0.021414006 -0.034539703 -0.023203053 0.013660617 -0.03916492 0.012167092 -0.039034277 -0.009172529
0.0034670387 -0.024691038 -0.0498536 0.028646097 -0.008733604 0.0063557685 0.04949968 -0.0051766057
-0.037134197 -0.019316336 0.047764733 0.034145527 -0.04345518 -0.02765296 -0.023488764 0.025570637
0.044757847 0.027587121 0.011966353 0.0006155512 -0.02706834 0.030402174 -0.053114746 -0.04267766
0.044218224 -0.01361277 -0.02621169 0.0216823 0.017153032 -0.005619957 -0.006854496 0.043381345
0.031825386 0.04979567 0.014086816 0.018543594 0.02997716 -0.04010122 0.01009736 0.003099032
0.028296374 0.017090736 0.0016226692 0.048540715 -0.0020580345 0.052914266 -0.052226003 0.053162124
-0.035965025 0.010108596 0.044728965 0.030814013 -0.054456536 0.019044256 -0.038155157 0.048140284
0.051852707 0.036279146 0.041075103 -0.034603246 -0.0032739372 -0.013030354 0.031065509 -0.015039787
0.039847896 -0.036439236 0.013316813 -0.023032404 0.029724466 0.020485792 -0.020394027 -0.020334976
0.043382995 0.01353787 -0.017179642 -0.04185445 0.028155409 0.03651093 0.02297486 -0.044794533

conv_blocks_K.0.4.bias f4 [2]
00000000: 9460 823c 5492 ec3c
0.015915193 0.028878368

conv_blocks_K.1.0.weight f4 [32, 2, 3, 3]
00000000: af33 353d 4977 323e 2b12 403d 1a04 3cbe
00000010: 9d0a d93d 2239 493e 011c 1fbe 63af 5cbe
00000020: 1290 d33b e439 263e ec47 dc3d d345 19be
00000030: 3d88 d63d 7dee 82bd f6d3 0ebd f52e 57bc
00000040: 5edd 3abe 1f2d c2bd dd1f bc3b 2c3a 103e
00000050: f82b 0bbe 288f c13d d4c6 2e3d 46fb 87bc
00000060: 8a83 64bd 91f5 43be 5c8b 983d 6f48 00be
00000070: 3fed 603e 2846 ad3d 8515 aa3d d3ab 633e
00000080: a091 91bc 0659 b7bd a2a4 503b 5229 8fbd
00000090: 5c67 993d a90a 6cbe 1217 113d d3ed 04bd
000000a0: c221 64bd a5ec 063e fea2 36be dc93 55bd
000000b0: b1d9 343e 99bd 0c3d 78d6 19be c541 0b3e
000000c0: 6ed2 45be 1ab4 183e 8dcf bcbd 93fd 9f3d
000000d0: 6819 313e 7240 523e 84d0 8e3d eddb cc3d
000000e0: 194e 60bd 89f7 61bd 64ec 58be cf0e da3d
000000f0: 7be2 363d 0e45 893d 4b94 16be 42d2 6abe
00000100: a114 f73d e1ee ddbd 9676 95bd 731a 893d
00000110: 291d b53d c34d 63be f3a2 62bd eb9d 4c3e
00000120: 94c7 223d a573 08be c14e 3c3e ca6c 5cbe
00000130: e679 ad3c 1979 4e3d f2a8 a93c 151a 593e
00000140: 7ce2 273d 50b0 17be 08f8 01bd 97ca c0bd
00000150: 6b59 443e 3120 db3c 6724 57be 568f 3639
00000160: aa80 90ba c26b 233c da74 5d3d e6e1 fd3d
00000170: a108 3cbe 78e8 8f3d b00e ebbd 73d4 1a3e
00000180: 8a3d 00be 6742 28be 84e0 06be b5dd 063e
00000190: 2f41 29bd a555 4e3e 8bab 45be 1ca1 933d
000001a0: 7a04 a5bd 98e4 f83c 3427 153e a455 ee3d
000001b0: c5d8 5dbe 3bc6 fdbc 02f8 c03d 0eb2 6bbe
000001c0: 90ea 2dbe 15be 6bbe 371b e73c e9e4 3f3d
000001d0: ab39 c2bd 45e8 bb3d 2b6a 033d d688 c63d
000001e0: cd07 503e 543d 1dbe a62e 37be 5cc4 613e
000001f0: 53ac f2bd 8392 263e 2c7d 9ebd 817e 48bd
00000200: 15f8 d1bd f1ea 8d3d 8b15 70bc ffc6 3c3e
00000210: dd32 69be f57f a4bb 5f59 083d df60 953d
00000220: b3f4 373e 2afa 9f3d 9ead 4cbe d8ce ee3c
00000230: 123f c4bd ffcc 103e afe4 c9bd 2f8f c8bc
00000240: 6a6d 673d d72f 1a3e b2bf e0bd f498 2f3e
00000250: 688a 26be a9f4 58bd 9bdd 13be 5e6e 3c3d
00000260: a418 40be 41e7 71bb fcb7 22be f2e0 173e
00000270: 818a 56be 3751 cbbd 2fa5 48be 56e9 13be
00000280: 7ec2 5f3c af7a de3d c98e ea3d 874a 3abe
00000290: 3e95 1abd 9d1a 39bd b2b6 c43d d9da a3bc
000002a0: 5b87 dcbc ea9a 12be a1a4 23be c45c 02bc
000002b0: 76ea da3d 45ac e8bd 9ae9 3c3d 83df e33d
000002c0: 9b64 a8bd 0024 563e d328 573e 614d 0c3e
000002d0: 1a60 c73d 8e2e 3bbe 1cc5 fa3d 011d c0bc
000002e0: 1279 363e d3f7 41be f228 9bbb 68be 573e
000002f0: 5854 313d ea54 953d ecfb e43a ebc8 ddbd
00000300: 8300 e63d 0276 3a3e 2b11 003e 95cf 1ebe
00000310: de03 1fbe 8931 653e fb0a eabc 796f c23d
00000320: b16c 833d 9c83 15be 4664 4b3e 4a8f 223d
00000330: 7c1e e2bd 70c4 5f3e 672c 993d af05 5d3d
00000340: 9c60 21be 6e1b 503e de25 ecbd d0de a0bd
00000350: 0004 66be d30b 7e3d 729e 04be 97e6 51be
00000360: 3547 263e ffe5 57be 511c 37bd ed6c adbd
00000370: 18a5 663c 778f 003d 7bd4 513e 89e3 8b3d
00000380: b9a7 93bd 7bec 0bbe 3396 72bd ad22 013e
00000390: ab49 65be 1448 af3d 6168 47bc a448 dbbd
000003a0: 14b3 1a3e d205 ec3d 2460 a83b b79a e7bd
000003b0: 0186 0fbe 0589 76bd 0b22 12be 6117 1bbd
000003c0: f5d0 993d 78a8 b9bc 82ba d93c 1dba a7bd
000003d0: 5131 78bd a349 093e 1a5e cabc 6e8a 633d
000003e0: 3c51 22be f7f1 07be 4dcd 343e a574 62bb
000003f0: 8670 663e 4149 9cbd e138 f83d b175 c83d
0.044238742 0.17428316 0.046892326 -0.1836094 0.105977274 0.196507 -0.15538026 -0.2155128
0.0064563835 0.16233021 0.107559055 -0.14968042 0.10475204 -0.06393144 -0.03487011 -0.013133754
-0.18248507 -0.094812624 0.005741103 0.14084691 -0.13590991 0.09451133 0.042670086 -0.016599309
-0.055789508 -0.19136645 0.07448456 -0.12527631 0.21965502 0.08460647 0.08304886 0.22233514
-0.017769635 -0.08952527 0.003183641 -0.06990303 0.07490417 -0.23050942 0.035422392 -0.03245337
-0.055696256 0.1317621 -0.17835614 -0.052142963 0.17661168 0.034360502 -0.1502322 0.13599308
-0.19318554 0.14912453 -0.09219275 0.07812037 0.17294848 0.20532396 0.06973365 0.10002885
-0.05476198 -0.05516771 -0.21183926 0.10647356 0.044649582 0.06702624 -0.14705007 -0.2293177
0.120644815 -0.10836578 -0.07298009 0.06694498 0.088434525 -0.22197632 -0.05533118 0.19982116
0.039741114 -0.13325365 0.18389417 -0.21525875 0.02117629 0.050408456 0.020710442 0.21201356
0.040987477 -0.14813352 -0.03173068 -0.09413641 0.19174735 0.026748748 -0.2100998 0.0001741027
-0.0011024673 0.009974422 0.054066516 0.12396602 -0.18362667 0.07026762 -0.11477411 0.15120105
-0.12523475 -0.1643158 -0.13171583 0.13170512 -0.04132193 0.20149858 -0.1930372 0.072084635
-0.080574945 0.03038244 0.14565736 0.116374284 -0.21664722 -0.030978313 0.09422304 -0.23017141
-0.1698401 -0.2302173 0.02821122 0.046849165 -0.094836555 0.09175161 0.03208367 0.09694068
0.20315476 -0.15355426 -0.17888889 0.22047561 -0.118492745 0.16266827 -0.077387184 -0.04894877
-0.10252396 0.06929577 -0.014653574 0.18435286 -0.22773309 -0.0050201365 0.033288356 0.07293867
0.17964439 0.07811387 -0.19988105 0.029151365 -0.09582342 0.141407 -0.09858071 -0.024482338
0.05650083 0.15057312 -0.10974063 0.1714819 -0.16263735 -0.0529677 -0.14440005 0.04600369
-0.187594 -0.003691152 -0.15890497 0.14831904 -0.20951273 -0.099276 -0.19594263 -0.1444448
0.01365721 0.10863244 0.11453015 -0.18192492 -0.037739985 -0.045191396 0.09605159 -0.020001816
-0.026920011 -0.14316908 -0.1598077 -0.007956687 0.10689251 -0.11360983 0.046121217 0.11126616
-0.08222314 0.2091217 0.21011667 0.13701393 0.09735127 -0.18279478 0.12244627 -0.02345133
0.17819622 -0.18942194 -0.0047351057 0.21068728 0.043293327 0.07291587 0.0017470098 -0.10829338
0.11230566 0.18209079 0.12506549 -0.15508874 -0.15528819 0.22382177 -0.028569689 0.09493918
0.064172156 -0.14600986 0.1986247 0.039687432 -0.11040971 0.21852279 0.07479172 0.0539605
-0.1575951 0.20322964 -0.1153066 -0.07854998 -0.22462463 0.062022995 -0.12951067 -0.2049812
0.16238101 -0.2108383 -0.04470474 -0.084680416 0.014077447 0.03138682 0.20491211 0.06830508
-0.07209725 -0.13664429 -0.059225272 0.12610884 -0.22391383 0.0855867 -0.012170882 -0.107072145
0.15107375 0.11524548 0.005138414 -0.113088064 -0.14015962 -0.060189266 -0.14270799 -0.037864093
0.075105585 -0.02266334 0.026578192 -0.08189795 -0.060593907 0.13406996 -0.024703074 0.05555194
-0.15851301 -0.13275896 0.17656441 -0.003455439 0.22503862 -0.076311596 0.12120224 0.09788073

conv_blocks_K.1.0.bias f4 [32]
00000000: fc87 20be 05cf 3dbe da6a 8a3d dec9 57be
00000010: f4e9 6a3e bce6 163e e87d 04be 04ba ed3d
00000020: ec8d 673e dba8 1dbe 97f3 183e 7aff 7f3d
00000030: f315 4dbe 8a18 54bd 6bb7 dcbc acd0 21be
00000040: f86e 55bd 2b45 0b3e b23b 353e 405d f93c
00000050: 403c a0bd dabe 62be b42e 20be 4037 42bc
00000060: 5384 943a 22dd a43d 35a1 aebc 8dc7 57be
00000070: 161e 11be 7b4d 57bd 6529 233e 7301 673d
-0.15676874 -0.18536003 0.067586616 -0.210731 0.22940809 0.14736456 -0.12938654 0.11607745
0.22612733 -0.15396444 0.14936672 0.0624995 -0.20027904 -0.051781215 -0.02694293 -0.15802258
-0.05210778 0.13600604 0.17698553 0.030439973 -0.07823992 -0.22143117 -0.15642816 -0.011853993
0.001133094 0.0804999 -0.021317104 -0.21072216 -0.14171633 -0.052564126 0.1593376 0.056397866

conv_blocks_K.1.2.weight f4 [32, 32, 3, 3]
00000000: 1d4d 57bb b230 4dbd 6deb 37bd 944d 5639
00000010: 11d5 19bd 6338 443d c236 63bd 796d e0bc
00000020: 5887 57bd d8b6 303d de95 3f3d 305e d13c
00000030: 35a0 02bd 2d34 40bd 8803 56bd 448c d13c
00000040: 3b40 ab3b ea89 e43c 0373 9d3c 5d8d 3f3d
00000050: 7063 623d a4f4 023d 6571 473c 7782 0fbd
00000060: ede6 59bd b1a8 4a3d 7c7c 613c baa4 503d
00000070: 1428 d2bc f051 aebb fce3 31bd b4d0 953c
00000080: 9fe0 2c3d 8d5f 523d 0988 f33a bb52 88bc
00000090: 5a85 253d fcbf ee3c 540a 043d 76c2 c2bc
000000a0: f520 143c bdf7 6dbc 29bb 0ebc 6c0a 90bc
000000b0: 4363 4a3c dac3 b13c 069d 473c 02df b3bb
000000c0: a5cf 31bd 07b4 85bc 6ddd 3b3d 029b 14bd
000000d0: 2fbf 53bd 3567 53bc 2f36 803c ccc8 25bd
000000e0: c611 6e3c 7564 ecbc cea7 aebc ce61 03bd
000000f0: 2cae 14bb 04bc 33bd e130 18bc 8cbc bfbc
00000100: 64b5 3f3d f5d9 d6bc c3fd 683c 6bcd febc
00000110: cf50 d73c daf5 44bd 76b4 b4bc 735f d23c
00000120: ef8d 3f3d 4505 c53c 7246 0bbd 8214 173c
00000130: 230b b03a f759 293d 19f8 54bc 700d 14bd
00000140: 40e4 0b3d 37d2 8d3c 0623 c7bc 73c1 333d
00000150: 47be ec3c 85d6 50bd 324f 103d eb58 c7bc
00000160: 95f0 38bc d535 063d 32b2 ef3b 1728 5e3d
00000170: 2883 44bd d936 d83c 025a 273c 8988 6fbc
00000180: 9717 7bbc 8b2f c23c 6e81 233d a967 59bd
00000190: 8499 b63c 13c3 1abd 478e 393b b9f0 f0bc
000001a0: f791 8a3b cf62 4bbd 9eac ca3c 1fb4 19bd
000001b0: d799 083d 0551 2abd c08f 233d e6e8 023d
000001c0: 9b2d 63bd dd30 41bd 4b47 c2bc e1e0 18bd
000001d0: d83c 62bd a791 a7ba 1bad 0dbd 7cc3 8d3c
000001e0: c9cf 48bd a14e ffbc 596c a93c 9da4 8c3c
000001f0: fdb7 273d 7b60 3cbd e9bb 2cbd 8b9b adbc
00000200: 8eca 853b 246a 8dbc 1e22 483c 1d02 253d
00000210: f38c 3c3c 279b 233d c47c 2a3c 3927 a73c
00000220: 49d3 36bd 3f16 f3bb cf14 343d 58cd a1bc
00000230: 1a83 91bc 68fe b7bc 5f8f 8b3c cba7 463d
00000240: 44d3 a33c 519a 463d 5631 193d 97f2 a6bb
00000250: 718d 8abc 2cd8 85bc 5d68 aa3c d7e2 0f3d
00000260: 39a4 59bd ecf0 c5bc 46c6 57bd f719 04bd
00000270: 04a9 363d 1c92 503d 1476 0fbd a361 d1bc
00000280: 201a aa3c a1b1 a13c 8bff 0d3c 05cc fabb
00000290: d32d e4bc 176a 4abd 1cb4 59bc 21cb 37bd
000002a0: 1a97 4e3d d696 4b3d 6527 21bd 2e0d b73c
000002b0: 9b97 233d 3d7e 3b3d cdde 363d 25e6 19bd
000002c0: e8d0 2f3d 2d81 573d 1e25 323b 6229 cf3c
000002d0: 6c8c a6bc 646f 5f3d 087f 4cbd 6af1 06bd
000002e0: c86e cc3b 806c b8bc 57c5 96bc eb23 8d3c
000002f0: cbb0 f23c 0505 0e3d 40ca 3d3d 5486 d13c
00000300: c769 b9bc d56d 893c aa15 04bd 728c f93c
00000310: a98e ab3c af5b 3d3d a725 f33c 55c6 4a3d
00000320: 4faa 1abc 077c 42bd 4b04 2f3d e784 4cbd
00000330: b1e2 853b 2b67 ab3b aade bc3b 084e 173d
00000340: 1bee 053c a84c 90bc 1284 92ba d8bf 60bd
00000350: b9ad 15bd dbd9 9eba 8bae 4b3d 2c76 35bc
00000360: 111d e73c 623f 0bbd 84dd 2dbd 69ff c63c
00000370: 5435 fc3c 94c1 f6b9 f193 283d d295 a03c
00000380: 24be d73c 78f7 513c 410b 653d 6481 2bbd
00000390: 4781 06bc e84a 0dbd 6278 04bd 1154 553c
000003a0: 483d 54bb 7b0b 9abb ed88 9b3c e69f 4a3d
000003b0: 7550 4ebd 2779 76bc fb4b 31bb af49 f13c
000003c0: 5d4a b0bc 8a1e 53bd 2a82 a3bc 85c4 ecbc
000003d0: f582 57bd 3397 1dbd 1133 a5bc 35d1 873c
000003e0: f8f2 efbc aacd 7abc e3c9 39bd a642 00bd
000003f0: dfc8 f2bb e259 c0bc 8c79 0ebb 5d17 563c
-0.003285236 -0.050095268 -0.044902254 0.0002043753 -0.03755671 0.047905337 -0.055472143 -0.02739595
-0.05261931 0.043143123 0.046773784 0.025557607 -0.031891067 -0.04692476 -0.05224946 0.02557958
0.0052261627 0.027897794 0.01921988 0.046765674 0.055270612 0.03197159 0.012173031 -0.03503653
-0.053198744 0.049477283 0.01376259 0.050938345 -0.025653876 -0.0053198263 -0.043430313 0.018287994
0.042206403 0.051360656 0.001857997 -0.016641011 0.040410377 0.02914428 0.032236412 -0.023774367
0.009041061 -0.014524397 -0.008711615 -0.017583095 0.012352767 0.021699835 0.012183433 -0.005489231
-0.043410916 -0.016321195 0.045865465 -0.03628064 -0.051696 -0.012903024 0.015650837 -0.040474698
0.014530605 -0.028856495 -0.02132025 -0.032075696 -0.0022686822 -0.043880478 -0.009288997 -0.023405336
0.046803847 -0.026226977 0.014220658 -0.03110381 0.02628365 -0.048086025 -0.022058707 0.02568028
0.046766218 0.024050364 -0.03400273 0.009221198 0.0013431053 0.041345563 -0.012998604 -0.036145627
0.034153223 0.017312152 -0.024308693 0.04388566 0.028899325 -0.05098583 0.035231777 -0.024334392
-0.011287828 0.032766182 0.0073149437 0.05423745 -0.047976643 0.02639334 0.010214331 -0.014619955
-0.0153254485 0.02370431 0.039918356 -0.053077374 0.022289999 -0.037783694 0.0028313564 -0.02941166
0.004228826 -0.049654778 0.024740513 -0.037525292 0.033349838 -0.041581172 0.039932013 0.03196039
-0.055463415 -0.04716574 -0.023715636 -0.037323836 -0.055233806 -0.0012784497 -0.034588914 0.017305128
-0.049026284 -0.031165423 0.020681547 0.017168337 0.04094695 -0.04599045 -0.042171393 -0.021192333
0.0040829843 -0.017262526 0.012215165 0.04028522 0.011508214 0.039942887 0.010405723 0.020404445
-0.04463509 -0.0074184234 0.043965157 -0.019751236 -0.01776271 -0.022460178 0.017036138 0.048499864
0.0199982 0.04848701 0.037400566 -0.005094837 -0.016913148 -0.01633843 0.020801717 0.03512844
-0.05313513 -0.024162732 -0.052679323 -0.032251325 0.04459478 0.05092059 -0.035024717 -0.025559252
0.02076441 0.01973802 0.008666883 -0.0076537156 -0.027853882 -0.04941758 -0.01328757 -0.044871453
0.05043707 0.049704395 -0.03934421 0.022345152 0.039939504 0.045774687 0.044646073 -0.037573
0.042923838 0.052613426 0.0027182768 0.025288288 -0.02033063 0.05454959 -0.049925834 -0.032945074
0.006238792 -0.022512674 -0.018404646 0.017229041 0.029625317 0.034672756 0.04633546 0.025576748
-0.022633446 0.016776005 -0.032247223 0.030462477 0.02094205 0.046230014 0.02968104 0.04950555
-0.009440019 -0.047481563 0.042728703 -0.049931433 0.0040858616 0.0052308044 0.0057638483 0.03693965
0.008174445 -0.017614678 -0.0011178276 -0.054870456 -0.036542628 -0.0012119369 0.049727004 -0.011075538
0.028212102 -0.033995993 -0.042447582 0.02429171 0.030787148 -0.00047065003 0.041156713 0.01960269
0.026335783 0.012815349 0.055918936 -0.041871443 -0.008209533 -0.034495264 -0.03234137 0.013020531
-0.003238516 -0.0047010756 0.01898619 0.049468897 -0.0503697 -0.015043533 -0.0027053345 0.02945408
-0.021519834 -0.051542796 -0.019959528 -0.028902302 -0.052615125 -0.038474273 -0.020165952 0.01657925
-0.029290661 -0.015307823 -0.04535855 -0.03131356 -0.0074091996 -0.02348036 -0.0021739928 0.013067094

conv_blocks_K.1.2.bias f4 [32]
00000000: 13a7 13bd e9db 0fbd 2bb2 1a3d 4349 183c
00000010: 889d 223d 88ec a03b b1d6 f5bc c8d7 b2bc
00000020: c02c 5cbc 0584 073d 1e79 49bd d4a2 da3c
00000030: 086d 8dbc 6c56 693d 605a 5d3b 7b40 e83b
00000040: 9d67 69bc 93be 893c 781a ca3b ba3b d8bb
00000050: 5fad 743d 159f 6fbd 1efc 503d 976b 4b3d
00000060: c6ed d93c e3f5 a3bc 2ed8 d8bc db4c 32bd
00000070: d473 0f3d 5cbc e63b fe4f 933c 4c38 b23c
-0.036048006 -0.035121832 0.03776757 0.009294811 0.039701015 0.004911009 -0.0300096 -0.021831408
-0.013438404 0.033084888 -0.049187772 0.02668897 -0.017263904 0.056967184 0.0033775792 0.007087765
-0.014245895 0.016814506 0.006167706 -0.006598917 0.059735652 -0.05850132 0.051021688 0.049663153
0.026602637 -0.020014709 -0.02647027 -0.043530326 0.03502257 0.007041497 0.01798248 0.02175536

conv_blocks_K.1.4.weight f4 [2, 32, 3, 3]
00000000: 5e3d e83c 147d afbb 04bb 0a3d ad6f 573c
00000010: fc68 953c a51f e63b 1009 fc3a 1c9c 86bc
00000020: c9b5 56bd d83d 463c b6cf bc3c bc75 4f3d
00000030: 30a0 3f3d bc72 59bd 4d07 643c 009b 503c
00000040: 0ce1 2dbd 5f54 1abc 3007 b5bc 16dd 05bd
00000050: 007e 423d 73b3 67bd 6cb2 40bd 6181 883b
00000060: 993a 6e3d 2aa7 823c 13b9 fa3c 9efd fd3c
00000070: 798e aa3c 50f1 b7bc 3a54 203d f231 febc
00000080: 6f2b 493d 9c24 d9bc 4c14 ae3c 9c76 a93c
00000090: 467a 83bb da81 27bb d812 763c 32d6 61bc
000000a0: 5682 8dbc f1ed 52bd 0835 d53c 0695 273d
000000b0: cfc9 843b 7e6b 60bd d1de 64bd 996d 113d
000000c0: 6460 c83c 2ac2 41bd 3e89 56bd 03fd 393d
000000d0: 4a9a 90bc 0b02 3c3c 9be2 8c3c 3486 813b
000000e0: 9ab7 603d 9fd4 b63b 2271 2f3d 9b60 353d
000000f0: b359 2d3d b275 63bd 29bc 0a39 e96f 6f3d
00000100: 7a2b be3c 8253 b9bb bb24 3e3c 7bc0 3dbc
00000110: e44a 373d ea88 0bbd fcd0 40bd f576 213d
00000120: b257 543d 5b98 e1bc d8f9 1f3d 8db7 233d
00000130: 40ef 15bc 5824 443d 3a5c b0bc ff84 ffbc
00000140: eccf f13c c0e9 26bd 598e 143d 0362 3bbd
00000150: c335 c33a 6fda 4f3b c6a0 44bd 66a8 d93c
00000160: 5242 1abd a4fc 3e3d b515 3bbc 8c14 4a3d
00000170: 654b 1cbd 7499 3437 0e5d 39bd 794b a13a
00000180: 33a8 bfbc b8aa a1bc 47dc 143d c426 063c
00000190: 5b0a 823c cc36 623d 4828 97bc 3daf bfba
000001a0: 282e 74bc 4c43 873c 5376 11bd a3f5 e5bc
000001b0: 5ee9 1d3d 7a4c 4b3d 7e9f abbc 6600 98b9
000001c0: d93b 023d 323a 9b3c 96a5 1d3d c3aa 20bc
000001d0: 8f28 6a3d 0365 5bbd 7c49 0dbd 514d dbbb
000001e0: 1de6 6a3c 9f91 8cbb 2bf0 94bc 2fd5 3e3d
000001f0: 4871 61bd 0f4c a1bc 417e a5bb 7312 87bc
00000200: ed4a c43a 323c bc3c 5a62 2b3d ddec c93c
00000210: 51ef 413d 65c4 96bc d676 623d 7dd2 02bd
00000220: b505 6cbb 0aed 673d 84cd e53c 35b8 50bd
00000230: 7b41 dcbc 4388 e4bc 4ba1 b53c 333b 30bd
00000240: cc76 01bd 633a 403d 85a1 41bd 3789 50bd
00000250: bd65 313d 7607 b4bc 47ed 2d39 2a62 f73c
00000260: 546b 143c dd97 283c e690 66bd 2b94 463d
00000270: 528f 333d bc3a 61bd 8187 663d 3158 3dbb
00000280: 8251 2fbd f85d 43bc 30db f4bc 94cd c23c
00000290: f105 59bd c55c 423d 4bd7 98bc 7b55 56bd
000002a0: 7165 3abc 692b 5e3d 2bbc 243d 1ade 56bd
000002b0: df1b 88bc 9aab 35bd 4b6c 98bc 98cf 75bc
000002c0: dd89 dfbc 8a3d c53b 29c6 2e3d 4474 5cbd
000002d0: b4b8 1fbd 2917 3a3a e26a b6b9 8365 623d
000002e0: 3d73 33bd fecd cebc 564e 3ebd 6b8e 623c
000002f0: dda7 0cbc 13f3 5abd 053e aa3a 0740 56bd
00000300: ec69 cf3c 36ed 69bc 5395 36bc 09c8 63ba
00000310: bc40 3ebc cd96 483d e99b 24bd 0e6f 80bc
00000320: 436e 663d c78e ecbc 5982 5e3b 5962 85bc
00000330: 3f48 e9bc 1da3 97bc d821 08bd e24d 123d
00000340: e1f9 f9bb d414 613d a7e4 d1bc d028 82bc
00000350: 5658 25bd 00ca 163d af10 3dbc 4fe1 103c
00000360: 1612 92bc 12b4 323c 37c6 093c 576d 57bd
00000370: 417a 353d c4b2 423d 944d fb3b f582 1c3d
00000380: 33ac 093d 7b30 46bd 9ed7 17bc 3c01 3abd
00000390: 5d2d da3c 458e ad3c 96f2 d8bc 487a 993b
000003a0: bacc 253d 6362 c5bb f5fa 59bd 289b 433c
000003b0: 595d d73c 4023 6abc 8c23 c8bc c9ee a43c
000003c0: 6db3 5ebd 644b 273b 5113 4dbd 5f95 42bd
000003d0: de07 56bd a519 e5bc 540c 6abd 0379 e0bc
000003e0: c47b 0abd cfe5 afbc 177c 10bd cd9e a23c
000003f0: 5a63 60bd 3388 d93c ce00 ccbc 761c f6bc
0.028349575 -0.0053554866 0.03386976 0.013149184 0.018238537 0.0070228153 0.0019228775 -0.01643186
-0.052419458 0.012099706 0.023048263 0.05064939 0.046783626 -0.053087935 0.013917756 0.012732267
-0.04245095 -0.00941953 -0.022098154 -0.032681547 0.047483444 -0.05656762 -0.047045156 0.004165814
0.05816135 0.01594885 0.030605828 0.031004723 0.02081989 -0.022453934 0.039142825 -0.031029675
0.049113687 -0.026506715 0.021249913 0.02068644 -0.004012379 -0.0025559575 0.015019141 -0.013783978
-0.017274063 -0.05149645 0.026026264 0.040913604 0.004052378 -0.054790013 -0.055876557 0.03550491
0.024460025 -0.04730431 -0.052376978 0.045407306 -0.017651696 0.011475096 0.017197898 0.003952766
0.054862596 0.0055795456 0.0428325 0.044281583 0.042321872 -0.055532165 0.000132308 0.058456335
0.02321409 -0.005655707 0.011605437 -0.011581535 0.044749156 -0.03406612 -0.047074303 0.039420087
0.051841445 -0.027538469 0.03905663 0.03996997 -0.00915128 0.047886223 -0.021528352 -0.031191347
0.02951809 -0.040750265 0.036268566 -0.045747768 0.0014893342 0.003171589 -0.048004888 0.026569556
-0.037660904 0.046627656 -0.01141875 0.049336 -0.03815784 1.0764565e-05 -0.04525476 0.0012305818
-0.023395633 -0.019734725 0.036342885 0.008187953 0.015874078 0.05522804 -0.018451825 -0.0014624369
-0.014903583 0.016511582 -0.035513233 -0.02807123 0.038552634 0.04963348 -0.020950075 -0.00028991996
0.031795356 0.018948648 0.038487993 -0.009806338 0.057167586 -0.05356313 -0.03449391 -0.0066925664
0.01433709 -0.0042898203 -0.018180927 0.046590026 -0.055039674 -0.019689588 -0.005050451 -0.01648829
0.0014975943 0.022977922 0.041841842 0.024649078 0.04734737 -0.018404195 0.055289112 -0.03193902
-0.0036014144 0.056622542 0.028052099 -0.050956924 -0.026886692 -0.027897006 0.022171637 -0.043025207
-0.031607434 0.046930682 -0.047273178 -0.05091211 0.043309916 -0.021976214 0.00016586958 0.030198175
0.009058792 0.010290113 -0.05629053 0.048481148 0.043837853 -0.054987654 0.05628157 -0.0028891678
-0.04280234 -0.011924259 -0.029889673 0.023779668 -0.05298418 0.047451753 -0.018657347 -0.052327614
-0.011376725 0.054240618 0.040218513 -0.052457906 -0.016614852 -0.044353105 -0.018606326 -0.0150031075
-0.027287418 0.006019299 0.04266945 -0.053821817 -0.038994506 0.0007098788 -0.0003479338 0.05527259
-0.04381107 -0.02524471 -0.046461426 0.0138279 -0.008584944 -0.05345447 0.0012988454 -0.052307155
0.025319062 -0.014277747 -0.011144 -0.00086891704 -0.011612114 0.04897194 -0.04018775 -0.015677955
0.056257498 -0.028876675 0.0033952205 -0.016282247 -0.028476832 -0.018510396 -0.0332354 0.035718806
-0.007628665 0.054951504 -0.025621725 -0.015888602 -0.040367447 0.036813736 -0.011539622 0.00884278
-0.01783089 0.01090719 0.0084090745 -0.05259451 0.044306044 0.047533765 0.00766916 0.038210828
0.033611488 -0.04838608 -0.009267716 -0.045411333 0.026632959 0.021186003 -0.026482861 0.0046837665
0.040478446 -0.0060236915 -0.053217847 0.011938848 0.026289629 -0.014290631 -0.024431013 0.020133393
-0.054370333 0.0025527114 -0.05006725 -0.047505733 -0.052253596 -0.02796633 -0.057140663 -0.027401453
-0.03380944 -0.021471886 -0.03527459 0.019851113 -0.05478225 0.026554203 -0.024902727 -0.030042868

conv_blocks_K.1.4.bias f4 [2]
00000000: 25b9 093d ee83 283d
0.033623833 0.041141443

conv_blocks_I.0.0.weight f4 [32, 2, 3, 3]
00000000: 9ea7 7a3c 2f49 143e 757b c83d 3fb5 c33d
00000010: 93be 43be e67d 57be 2265 fe3b f023 c6bd
00000020: 00a2 2d3d 1589 133e 3b9f 45bc 182f 65be
00000030: a9f2 adbd 6d1d 603e 080e 25be 4023 af3d
00000040: 8d71 853d 9eee b63d c9ad 1cbe 077c 353e
00000050: 5f9a 0bbc 275b 0a3d 2bd5 4a3d 5079 9db9
00000060: 23ab 7ebd 479f 53be 697b 2f3e 6f0f 863d
00000070: f8d8 cdbd 0b98 43be 9fbc a3bd 4f46 91bd
00000080: 3690 383e f070 bb3d adb6 49be 5608 81ba
00000090: 12fd c4bd 8eae fb3d 0654 2eb9 fc73 bf3d
000000a0: 70ca e73c e75b 34be 547e c8bd 7356 24be
000000b0: f1f6 d23c 8871 80bd 9503 a9bd 7484 653e
000000c0: 2925 0b3e a357 463c 036a 1f3e 4d20 54be
000000d0: 9a7d 853d ef7b 1dbe 46c0 a6bd 1db5 55be
000000e0: 7975 863d 1fa2 5ebe 33a1 113e d385 c03d
000000f0: cdde ee3c 7eb5 0d3e 3a9e 25ba b310 f9bd
00000100: 4cea 6c3b 1537 9abd 5a05 cd3c f6d4 203e
00000110: 4474 58be f413 3dbe b1d6 003e 212b edbd
00000120: e81e 483e 1036 423e 23eb 8abb f362 163e
00000130: c383 133e d1c8 0bbe cbac 413e 9023 873c
00000140: 270e d63b ceb3 203e d8e6 40be 224a 5cbe
00000150: 1c32 c4bd cee9 f4bd cbfc e3bd 15d7 503d
00000160: ee30 6d3d a029 bb3d 65eb 0a3e 86e1 6c3d
00000170: 8458 ae3d cf04 b33b 0964 393e 396b 6dbd
00000180: cd9e 0e3d 7c77 a33d d379 a03b 3109 f7bd
00000190: 3d47 53bd 9d02 c6bc 63de 21be 2f88 fabd
000001a0: 009c 5d3e 16d4 5f3d dd8d ac3c 8177 d93c
000001b0: e93f 60be 6c22 033e b463 de3d d614 433e
000001c0: 5caf dd3d cf0d 2a3d dc93 383e 1c2d 563d
000001d0: e13d 453e dc37 39be ca55 5ebe beb9 c73d
000001e0: d0c2 bb3c 35e4 e33d d350 d7bd ccb8 3cbd
000001f0: a976 943d c6a1 8f3d b17f 3ebe 6b3b 363d
00000200: fbe1 983c 635f bdbd bc19 08be b751 203d
00000210: ef32 693e 1bd6 5c3e cbf5 2dbc 2995 843d
00000220: 80b4 533e 680d 8c3d fd2f 9fbd 5481 193c
00000230: df55 263e 4fab a83d 7c2b 0dbe b478 2ebd
00000240: 0573 5abe 0262 19b9 35e7 04bd d8e6 89bd
00000250: 1ef8 e93d e7d5 473e a1fb c83d e9a6 103e
00000260: 55d7 643d 7c56 703d c9ff 1ebe 35e3 b83d
00000270: 94f4 cf3c cf5c 51be 80d6 50b8 5412 de3c
00000280: 2a49 673e a9c9 633e 5a74 b23d f112 d13c
00000290: c3dc ddbd 888e 01bc 09cb 733c 73f2 50be
000002a0: 6051 2ebe 9b92 abbd 7894 5dbd f749 04bd
000002b0: 54a5 82bd 9d7c 5dbe b33b 9a3d 2666 153e
000002c0: 2b2d 363e 00dc 2cbe f0ec bcbc 3654 4c3d
000002d0: 15df 4dbd 1ad1 5ebe d9ad cbbd 24e0 64be
000002e0: fc5b 4abe d8b6 5bbe eac8 e5bd a9d1 84b9
000002f0: 369b 003e bd37 f13d f842 4f3e 82b7 52ba
00000300: 2f14 223e c1aa 67bd e919 5b3e cf1f 283e
00000310: c17a ddbd 40e4 1cbc d368 07be 9d3a 6d3e
00000320: 8191 1c3e 9771 43be 40f9 0b3e 56c1 c53d
00000330: 9b4b cc3d 63b2 c0bd c747 39be acdb 103e
00000340: 3708 113d aa91 2dbe a732 6b3e d4f3 413e
00000350: 541c 85bd 2749 0dbe 4fb9 873c 8951 5d3e
00000360: b424 4f3e d2d0 073e a0e7 5dbe d87a 153e
00000370: 0dbd 3c3e 1c5a 40be 48f6 06be 3888 5f3e
00000380: dd4b 13be 2767 f9bd af0e fa3d 283e 45be
00000390: 4ae7 41be 7608 ea3c cefd 0d3c ea74 afbd
000003a0: 010d 033d 727c 073e cbd2 123d 7333 3c3e
000003b0: 3777 24be 28df 883d 0eca 22be 3b90 313e
000003c0: 796a 413e 47a4 65bc ce42 c1bd 2d02 a8bd
000003d0: 196b 0cbe 745b 6bbe da06 eabb 4a50 fcbd
000003e0: 4b1a 913c 23fe 3f3d 71ce 71bd 6a12 a7bd
000003f0: fdb4 203e 2124 85bd f223 53be b6ab a23c
0.015298752 0.14481042 0.097891726 0.09556054 -0.19115667 -0.2104412 0.007763521 -0.09674823
0.042390823 0.14407761 -0.012061889 -0.22381246 -0.084935494 0.21886225 -0.16118634 0.08551645
0.06515799 0.08932231 -0.15300669 0.17723094 -0.008520692 0.033778336 0.0495197 -0.00030035758
-0.062174927 -0.20666228 0.17136921 0.065459125 -0.10051149 -0.19100969 -0.07994961 -0.070934884
0.18023762 0.091524005 -0.19698592 -0.0009844403 -0.09618582 0.12289153 -0.00016625234 0.09348294
0.028294772 -0.17613183 -0.0978972 -0.16048603 0.025752516 -0.06271654 -0.08252636 0.22413808
0.13588394 0.012105855 0.15567784 -0.20715447 0.06518097 -0.15379308 -0.08142142 -0.2086987
0.06565375 -0.21741532 0.14221649 0.09400525 0.029158974 0.13838765 -0.0006317828 -0.12161388
0.0036150394 -0.07530037 0.025026966 0.15706238 -0.21138102 -0.18464643 0.12581898 -0.11580492
0.1954304 0.18965936 -0.0042394563 0.14686184 0.14405732 -0.13650824 0.18913572 0.01649645
0.006532449 0.1569359 -0.1883806 -0.21512654 -0.0957987 -0.11958657 -0.11132201 0.05098637
0.05790799 0.09138799 0.13566358 0.057832263 0.08512977 0.0054632197 0.18104567 -0.057963584
0.034819413 0.07981774 0.004897335 -0.120623 -0.05158161 -0.024171168 -0.1580749 -0.12233006
0.2164154 0.05464562 0.02106374 0.026546242 -0.2189938 0.128061 0.108588606 0.19050917
0.10824463 0.041517075 0.18025154 0.052289113 0.19261886 -0.18087715 -0.21712413 0.097522244
0.022920042 0.111275114 -0.10513463 -0.046074674 0.07249195 0.07013278 -0.18603398 0.04449026
0.018662443 -0.09246709 -0.13291067 0.03914043 0.22773336 0.2156605 -0.010617684 0.064737625
0.20674324 0.068384945 -0.07772825 0.009369213 0.16243695 0.082357995 -0.13786119 -0.04259558
-0.21332939 -0.00014627728 -0.03244706 -0.06733483 0.11424278 0.19515191 0.098136194 0.14126171
0.05586942 0.058676228 -0.15527262 0.09027711 0.025385179 -0.2044556 -4.9790833e-05 0.027108349
0.22586504 0.22244896 0.087135985 0.025521727 -0.108331226 -0.007907517 0.01487995 -0.20404987
-0.1702323 -0.08377572 -0.05409667 -0.0322971 -0.0637919 -0.21629567 0.07530918 0.14589748
0.17790668 -0.16880798 -0.0230622 0.049884997 -0.050261576 -0.21759453 -0.09945268 -0.22351128
-0.19761652 -0.21456468 -0.11219962 -0.0002533321 0.12559208 0.11778209 0.2024039 -0.0008038209
0.15828012 -0.056559328 0.21396603 0.16418384 -0.10814429 -0.009575903 -0.13223581 0.2316689
0.1528988 -0.190863 0.136693 0.096560165 0.09975358 -0.094090246 -0.18093787 0.14146298
0.035408225 -0.16950098 0.22968541 0.1894067 -0.06499544 -0.13797437 0.016567854 0.21613134
0.20228845 0.13263252 -0.21670389 0.14597642 0.18431492 -0.18784374 -0.13179886 0.21829307
-0.14384408 -0.12177878 0.12209832 -0.19261992 -0.18935886 0.028568488 0.008666469 -0.085672215
0.031994823 0.13231066 0.03584556 0.18379001 -0.16061102 0.06683189 -0.1589739 0.17340176
0.18888272 -0.014016218 -0.0943657 -0.0820354 -0.1371273 -0.22984105 -0.00714193 -0.123200014
0.017712733 0.046873223 -0.05903477 -0.08157809 0.15694042 -0.06501032 -0.20619181 0.019857269

conv_blocks_I.0.0.bias f4 [32]
00000000: 0763 663e 095f 16bd 50b1 fbbd afe3 033e
00000010: 2258 be3d 3e7c 0d3e 28db 4fbe c812 613e
00000020: 0658 1f3c 0edd 80bb fb20 463e 4803 523e
00000030: bc46 433e 034c 143e 608e e7bd 9ed0 a23d
00000040: 0e00 a3bb 20b7 5bbe 614d 48bb cc53 1dbc
00000050: b982 aabd 03be 5abe 750d 083e f55c b8bd
00000060: 37a4 443d 7067 cf3d 3bfb 383d 5239 6dbe
00000070: 1701 27be 0a58 b23d c6d0 26bd ad37 6cbe
0.22498713 -0.036711726 -0.12289679 0.12879823 0.09294154 0.13816926 -0.20298445 0.2197982
0.009725576 -0.003932602 0.19348519 0.20509064 0.19069952 0.14482121 -0.11306453 0.07949947
-0.0049743718 -0.21456575 -0.00305637 -0.009602498 -0.083257146 -0.21361546 0.13286383 -0.09002105
0.04800817 0.10127151 0.045161467 -0.23166397 -0.1630901 0.08708198 -0.040726446 -0.23068114
