kiki_checkpoints/kiki_epoch_20.pth (torch, 531239 bytes, 72 tensors)

conv_blocks_K.0.0.weight f4 [32, 2, 3, 3]
00000000: 0197 4f3e 5921 bc3c e481 203e e42d 583e
00000010: 3c3c 693c a387 13be 2c06 673e 16a0 73bd
00000020: 0d8f d8bb ebea 2d3e d382 5b3e 6740 3639
00000030: 54ec 16be 757a 64bd 503c abbd 9aed d5bd
00000040: 1d88 cbbd 3077 cfbd f195 343e c880 223d
00000050: 0ad3 aabd ef45 46be 47df 3f3e d5a6 05be
00000060: 50c8 91bd 2699 91bd 6e62 c53c f75c 003d
00000070: b019 633d 4c0f 833d 96d5 5dbe b45b 4abd
00000080: 6ab4 abbd 911c 16be cb06 c7bd e269 a9bd
00000090: 2b0d 413e 3671 2d3d 46a3 1f3d 1cf2 0c3e
000000a0: 3eee d8bc 7340 943b 6c9b 973d 8406 20be
000000b0: 6bfc c43b 5984 c53d fc88 32be 59e5 6abd
000000c0: 9d8d a23d a332 4f3e 9b15 39be 6989 24be
000000d0: 439d 38be ba2b 28be 4508 15bd b0d7 52be
000000e0: c46a 3b3d 48fc 79bd 5d60 d63d 512e 36bd
000000f0: 2125 7abd ff75 613e 82b1 9b3d 5618 4abd
00000100: a34c 5dbe 7b88 13bd 8802 073e 1cf8 ed3d
00000110: b72c 3e3e 3e80 a7bd 05a6 54be 9f8e 59be
00000120: ed9e d0b7 e104 15be 9d53 d93d 1f7f dbbd
00000130: 837b 8d3d 7266 59bb c704 0f3d 3d0f 17be
00000140: 5629 4f3c 4a5b 5d3d 3544 473e 6210 ea3c
00000150: e4a4 483e f943 07be 2289 febd 5142 cbbb
00000160: 9ccb 34be 2440 38be 0919 5a3e 4a2d 5d3e
00000170: f3c3 46bd e8bd 073e 0c63 80bc 028e 3ebc
00000180: 704b 343e ecb8 3d3e 9994 e13d f98a 8dbc
00000190: d4d3 b9bd 7329 69be 43ef 5a3e 3699 da3d
000001a0: d41d 9839 fab9 1c3e e06e 653e a408 a7bd
000001b0: bfdb 2abe c3e2 fd3d e0c1 6dbe 4d36 523d
000001c0: a375 a43d eea6 f43c e414 c13d 3bb1 09bd
000001d0: e01c 0d3e 7921 ccbd 9d8f 24be 18f2 1cbe
000001e0: f1c8 b63d 7d66 633e 587a 58be 7279 dc3d
000001f0: 685b e23d 2451 073e cfaa c13c a81f 6a3e
00000200: c807 1cbd a321 6fbe cfb9 b33b 588a de3d
00000210: 2b30 62bc d7cc 503e a0e8 e9bd b101 ea3d
00000220: dea0 6b3e 005b a13d 887e 38be 3791 3cbe
00000230: 27f3 36be f83c aebd f798 6fba 6659 1ebd
00000240: 9f56 463d 3480 06be b3bf 533e 8a40 423d
00000250: 2d18 c1bc bd8f 9abd e21e 3fbe a3dc 2dbe
00000260: 8e09 90bd 1333 423e 1491 333e 4bb7 e63d
00000270: 18ec 033e cc3f 3c3e 6469 073e 38f4 07be
00000280: fb9f 95bd 9cb0 303e 9bd3 e63d 464f 52bd
00000290: 4d8e 103e 78a2 5ebe 7de9 ab3d ad5e d53d
000002a0: 2838 373e 20ab 29be da1c 303e 8ad8 ab3d
000002b0: 5b15 283d a7f6 6dbe fdd5 bb3c c163 043b
000002c0: 7fcd 0cbe 8496 3b3e 93d8 6e3e d03c 9fbd
000002d0: fe8a 6a3e 1093 03be 5a4f 56be 48be 28be
000002e0: 0c17 2a3e 73a0 b2bd df8d 68be 9eba 3c3e
000002f0: 888b 2a3d e403 053e b9c8 0e3e 0131 5f3e
00000300: 58ed c9bb 8d21 5dbe 5804 e1bd 7fc3 2a3e
00000310: 0a72 27be ee59 473d 65a4 703d 84c0 2ebd
00000320: 7b9e dc3d 036d bfbd 4163 1eb9 a5a3 2fbe
00000330: cfc1 98bd c2cb 613e 8881 b63d 96df 7d3d
00000340: 6e55 2fbe 4556 55bd 784c 243e aa28 263e
00000350: c327 25be 9f45 9f3c 3b2d 483e 1e29 fbbd
00000360: e641 f9bb 61d1 23be 627b 423e 0975 a83d
00000370: 5734 4d3e 5b0e 263e 6882 54be 8745 28be
00000380: 6c18 8cbd ef8a aabd adef c93d d636 d9bd
00000390: c64f 05be 258c 3abd fe3f ef3c 3ae8 18be
000003a0: eec8 6cbe 0b24 49be edb0 753d 354c dc3d
000003b0: dd12 66be e348 16bd 9363 0d3d 57e3 44be
000003c0: 43b9 1f38 da2b 1e3d 1c7f 17be 0bb8 61be
000003d0: fa27 21be 24d7 85bd f276 3bbb 1a57 813d
000003e0: 47c1 8f3d 65a3 613e a11b 34bd 3484 d13d
000003f0: 15b4 e33d 4443 2a3e a496 373e 570e bf3c
0.20272447 0.02296512 0.1567455 0.21111256 0.014235552 -0.1440721 0.22560948 -0.05947884
-0.00660885 0.16984145 0.21436624 0.00017380864 -0.1473859 -0.055780847 -0.08361113 -0.104457095
-0.09938071 -0.10130155 0.17635323 0.039673597 -0.08341034 -0.19362615 0.18737517 -0.13051923
-0.07118285 -0.07109289 0.024094786 0.03133866 0.05544442 0.06399402 -0.21663508 -0.04940386
-0.083840206 -0.14659335 -0.097180925 -0.08272149 0.1885268 0.042344294 0.03897407 0.13764232
-0.02648079 0.0045242845 0.07402691 -0.15627486 0.006011536 0.09644384 -0.17435068 -0.05734763
0.07937167 0.2023416 -0.18074648 -0.16068043 -0.1802874 -0.1642293 -0.03638484 -0.20590091
0.045756117 -0.06103161 0.104675986 -0.044477765 -0.061070565 0.22017668 0.07602216 -0.049339615
-0.21611266 -0.03601883 0.1318456 0.11619589 0.18571745 -0.08178757 -0.20766456 -0.21245812
-2.4869538e-05 -0.14552642 0.10611651 -0.10717606 0.069083236 -0.0033172634 0.034916665 -0.14751907
0.012644133 0.05404214 0.19459613 0.028572265 0.19594151 -0.13209523 -0.124285 -0.006202974
-0.17655796 -0.17993218 0.21298613 0.21599308 -0.048526715 0.13256037 -0.01567223 -0.011630537
0.17606902 0.18527573 0.11014671 -0.017278181 -0.09073606 -0.22769718 0.21380334 0.10673754
0.00029013923 0.1530532 0.22405577 -0.08155945 -0.16685389 0.12396767 -0.23218489 0.051321317
0.0803025 0.029864755 0.09427813 -0.033616286 0.13780546 -0.09967322 -0.16070409 -0.15326726
0.08925045 0.22207065 -0.2114042 0.10765351 0.110525906 0.13214546 0.023641018 0.22863638
-0.03809336 -0.23352675 0.0054847966 0.10866231 -0.013805429 0.2039064 -0.11421323 0.11426104
0.23010585 0.07878685 -0.18017018 -0.1841477 -0.17866193 -0.085077226 -0.000913992 -0.038659476
0.048422452 -0.13134843 0.20678596 0.04742483 -0.023571098 -0.07546947 -0.18664125 -0.16978697
-0.070330724 0.18964796 0.17535812 0.11265429 0.12883031 0.18383712 0.13223797 -0.13276756
-0.073059045 0.17254871 0.11270829 -0.051345132 0.14116783 -0.21741664 0.08394144 0.104184486
0.17892516 -0.16569185 0.17198506 0.08390911 0.04103599 -0.23238622 0.022929186 0.002020106
-0.13750266 0.18319136 0.23324804 -0.07775271 0.22904584 -0.12849069 -0.20928708 -0.16478837
0.16610354 -0.087220095 -0.2271037 0.18430564 0.041636974 0.12989765 0.13943757 0.21796037
-0.006162327 -0.2159483 -0.10987157 0.16676138 -0.16352096 0.048669748 0.05875053 -0.042664066
0.10772415 -0.09346964 -0.00015105029 -0.17152269 -0.07458841 0.22050384 0.08911425 0.061980806
-0.17122433 -0.052084226 0.16044796 0.1622645 -0.16128449 0.019442378 0.19548504 -0.12263702
-0.0076067327 -0.1599784 0.1899238 0.08225448 0.20039497 0.16216414 -0.20752871 -0.16432773
-0.068405956 -0.08327281 0.09860168 -0.10606162 -0.13018712 -0.04554381 0.029205319 -0.14932337
-0.23123524 -0.19642656 0.059983183 0.10756723 -0.22468133 -0.036690604 0.03451879 -0.19227348
3.8081092e-05 0.03861604 -0.14794582 -0.22042863 -0.15737906 -0.065351754 -0.0028604832 0.063154414
0.070192866 0.22034986 -0.04397166 0.10230294 0.11118332 0.16627222 0.17928559 0.023322267

conv_blocks_K.0.0.bias f4 [32]
00000000: 4ca2 e73c f35f db3d c1ac 953d 7338 61be
00000010: 5a0a 46bd 6a39 a2bd 3c94 713d 0f13 283e
00000020: e05b 2abe 1ff2 efbd c52a 363e 5196 0c3d
00000030: 5fee 863d b27c d63c d8e4 58be 7107 32be
00000040: c6a5 253e 16bc ac3d 5770 493e 22c9 22be
00000050: b6de 433e 8257 303e 5a15 9ebc e1d7 923d
00000060: 4a2a 38bc e481 683e f6e1 613e 33a7 ae3d
00000070: d2dd 0e3e 25c9 353e 9ca1 583e e838 a4bd
0.028275631 0.1071166 0.07308341 -0.2199419 -0.048349716 -0.07921107 0.058979258 0.1641352
-0.1663661 -0.11716103 0.17789753 0.03432304 0.065884344 0.026182506 -0.21181047 -0.17385651
0.16176519 0.08434312 0.1967176 -0.15897039 0.19127926 0.17220882 -0.01929729 0.07170082
-0.011240551 0.227058 0.22058854 0.085279845 0.13951805 0.17752512 0.21155399 -0.080186665

conv_blocks_K.0.2.weight f4 [32, 32, 3, 3]
00000000: eea5 bc3c 5737 123d 679c 523d 8bd7 2f3d
00000010: af95 683d 8ed9 da3c afa6 d2bc 33b7 5fbc
00000020: d565 313d c0b1 45ba 15e3 0f3d efb1 563d
00000030: 83ea af3c 6fb6 4f3d 4456 13bb a397 8c3c
00000040: 0c59 3dbd ca12 98bb 34d8 0bbd 9284 99bb
00000050: 92f4 373b 982f b9bc edb1 ecbc de8c 38bd
00000060: 4f51 00bd bff1 d6bc a077 0c3d e1cf 5e3d
00000070: e983 0cbc 1113 3b3c e840 5c3d 7db8 65bd
00000080: ae35 173d 3531 7e3c ab3e 0cbd a92b 613d
00000090: 0ad0 45bc 9618 a83c 669f a43c 8176 a93c
000000a0: 6075 543d a340 ef3b dfc6 453d 92ca e53b
000000b0: 59d9 f23c 3250 b5bc e4a3 2839 acec 4abd
000000c0: c3b1 58bd 5790 0a3d 3563 533d edc5 45bd
000000d0: 1e27 6dbc 5799 c03b ad0d 1d3d d2cd 74bc
000000e0: 193a cf3b 3224 09bd 4d00 10bd a451 1cbd
000000f0: f600 e3bc 949e 55bc 6a05 88bc d3e3 f7bb
00000100: 8fb4 08bd 71ac 66bd 0c06 37bc db0f 5f3d
00000110: f1a9 8e3c 398b 553c e72a e93b dbb7 1ebd
00000120: fd47 bdbb 6eaf 3a3d 0726 0cbd 62f2 1c3d
00000130: cdde 9abc 488b bdbc c490 a33b 7ffb 433d
00000140: 9adb d9bc baf8 213d e059 30bd ea3c b8bc
00000150: 12b9 b9bc dcd9 3c3c 694a 9e3c e563 adbb
00000160: ec57 643d 8b53 733a 7f76 4b3d 826c 983b
00000170: 9c95 bb3c d797 bf3c 1349 7f3c 7a07 3ebd
00000180: fddf febb 8268 27bd bfd4 17bd 6e09 01bd
00000190: e75f 0fbd c780 9fbc 8879 413d 5efc 433c
000001a0: 3717 333d f9cb 09bc 262b 10bd da7c b1bb
000001b0: df07 c1bc 736a f33b 8918 b63c c50f d6bc
000001c0: 34b3 983a e1b6 c23c 6cbb c8ba c4c3 cd3b
000001d0: 12ff 373a 5bd1 9ab8 9e39 193d f1f5 a839
000001e0: c648 babc 0895 84bc 2468 4dbd b069 043d
000001f0: 0428 38bd 8816 52bc fbd3 a03b b6c6 15bd
00000200: a2d3 62bd 4263 14bd bcf6 9cbc 7685 233d
00000210: 0fe2 36bd 5977 0abd e3a2 51bd 8ef3 463d
00000220: b1a7 753c 5714 103d 9388 843b 88a3 613d
00000230: 4216 8abc 6c16 08bd 12bc b53c 8b20 e93a
00000240: 131a 0d3c 869d 1ebd f974 29bd 40bb ebbc
00000250: d3d7 4ebc 3a3b 043c e0f1 fcbc 59b4 80bc
00000260: 8503 37bd c599 9c3c 4a55 503d 14e3 2dbd
00000270: e355 343d 9894 f8bc bfcd 66bc f634 ed39
00000280: 60c4 863c 63bc 3ebd 2609 363d c0c5 833c
00000290: f77f 4cbd 14c6 4fbd d786 c63c b181 41bd
000002a0: 057d a238 7b88 3c3d 18d5 283d 15c0 663d
000002b0: e531 e93c 2c99 2cbd 8752 5b3d 2109 46bd
000002c0: ec12 37bd 6072 233d abd4 17bd 1b71 58bd
000002d0: 7463 40bc 9a48 02bd 4154 923c 9787 0abd
000002e0: 3b0d 233d f64c 353d f7c6 c93c 60aa 1c3d
000002f0: 8a3a 413d b64b a03c 546f 4e3c 61d0 62bd
00000300: f53b 4cbd d7ba 883c 090f d1bc 7bf4 d13c
00000310: 0768 013d 92c8 153b 8043 cb3c f4cc d23c
00000320: ebef 0bbd 9d6f ba3c baad b2bb 3608 07bd
00000330: ada6 65bd 10ea 6d3c b120 d0bc a010 683c
00000340: 92dd 153d 7a67 0dbc ab87 efbc eb42 f7bb
00000350: 5fb8 f5bc 7c28 b7bb 3cf1 47bc 5c8b 5dbd
00000360: 7e9d f13c 460d 003d 6a55 37bd 3484 433d
00000370: ba4f 4dbd e371 01bd 3d3c 7b3c 8ee7 013c
00000380: 9b86 0a3d 98e8 5abc 4cec 2d3d 1d2f 3fbd
00000390: bbd6 fa3c 0717 a53c d7ef 983c 8d4e 04bd
000003a0: 32b4 773c 9542 e0bc 6490 ddbc be68 ec3c
000003b0: b08b 3e3c d686 3f3d 1279 623d 8633 643d
000003c0: 3f6e 58bd 1280 b93c 51db c83a b543 f7bc
000003d0: e15d 303d 68c1 32bd 000b 3ebb 2b58 a8b8
000003e0: 7ee1 f4b7 02e6 62bd eede 113c 145f 71bc
000003f0: 285f 0bbd db97 97bc 115f 1b3d 3cea 5e3d
0.02302834 0.035697307 0.05141869 0.042930167 0.056783374 0.026715066 -0.025714247 -0.013654518
0.043310005 -0.00075414404 0.03512867 0.052415784 0.021474129 0.05071109 -0.0022481838 0.01716215
-0.0462275 -0.0046409117 -0.034141734 -0.004684993 0.002806936 -0.022605702 -0.028893435 -0.045056216
-0.031327542 -0.02623832 0.03429377 0.054397468 -0.008576372 0.01141812 0.053772837 -0.056084145
0.036916427 0.015514662 -0.034239452 0.05497328 -0.012073526 0.020519536 0.020095538 0.02068639
0.05186975 0.0073014065 0.04828536 0.0070126737 0.029644655 -0.022132967 0.00016082783 -0.049542114
-0.0529039 0.03382906 0.051608283 -0.04828446 -0.014474658 0.0058776545 0.03834312 -0.0149416495
0.0063240645 -0.033481784 -0.035156537 -0.038163796 -0.02771042 -0.013038296 -0.016604144 -0.0075650006
-0.03337532 -0.056316797 -0.011170875 0.05445848 0.017415019 0.013033682 0.00711571 -0.038749557
-0.005776404 0.04557746 -0.034215953 0.03831709 -0.018905068 -0.023137704 0.0049916226 0.047847267
-0.026593972 0.039543845 -0.04305446 -0.022489984 -0.022671256 0.011526551 0.01932259 -0.0052914494
0.05574791 0.0009282163 0.049673554 0.004651607 0.022898488 0.023387833 0.015581387 -0.04639385
-0.0077781663 -0.04087115 -0.037068125 -0.031503133 -0.03500357 -0.019470586 0.04723504 0.0119620245
0.04372331 -0.008410447 -0.0351974 -0.005416495 -0.023563324 0.007428461 0.022228496 -0.026130566
0.0011650086 0.023768844 -0.0015314645 0.0062794406 0.00070189044 -7.382288e-05 0.037408464 0.00032226698
-0.02273978 -0.016184345 -0.050148144 0.032327354 -0.044960037 -0.012822755 0.0049080825 -0.03656646
-0.05537761 -0.036227472 -0.01916062 0.0399222 -0.04464918 -0.033805225 -0.05118073 0.048572116
0.014993594 0.035175648 0.004044601 0.055087596 -0.016856316 -0.03322451 0.022184405 0.0017786188
0.008612174 -0.038724445 -0.04137132 -0.028775811 -0.012624699 0.008070761 -0.030877054 -0.015710996
-0.04468109 0.019116292 0.050862588 -0.042452887 0.04402722 -0.030344293 -0.01408714 0.00045243622
0.01645106 -0.04656638 0.04444232 0.016085505 -0.049926724 -0.05072601 0.024234219 -0.047242824
7.748049e-05 0.046028595 0.041218847 0.056335527 0.028466174 -0.042138264 0.0535455 -0.04834855
-0.04469578 0.039904 -0.03706805 -0.05284224 -0.0117424615 -0.03180752 0.017862441 -0.033820715
0.03980754 0.04426285 0.024631007 0.03824842 0.047174968 0.019567352 0.012599785 -0.055374507
-0.049861867 0.016690655 -0.025519865 0.025629273 0.03159335 0.0022855145 0.02481246 0.025732495
-0.03416435 0.0227583 -0.0054528387 -0.032966815 -0.056067158 0.014521137 -0.025406213 0.01416412
0.03658826 -0.008630628 -0.029239496 -0.007545819 -0.029995142 -0.005589543 -0.012203511 -0.05408798
0.029494043 0.03126266 -0.04475919 0.0477335 -0.05012486 -0.03160275 0.015334186 0.007928742
0.033819776 -0.013361119 0.04246168 -0.04667579 0.03061997 0.020152582 0.018669052 -0.032301474
0.0151186455 -0.027375499 -0.02704639 0.028858539 0.011629984 0.04675945 0.055291243 0.0557132
-0.052839514 0.022644076 0.001532415 -0.030183652 0.04305828 -0.043641478 -0.0028998256 -8.027287e-05
-2.919207e-05 -0.055395134 0.008903248 -0.014732141 -0.034026295 -0.018505028 0.03793246 0.054422602

conv_blocks_K.0.2.bias f4 [32]
00000000: 4d70 54bd 8268 d0bc 8b55 bebb 144a 363d
00000010: 4d60 e239 0e43 74bc dd4a 043d 9793 5abc
00000020: 788c 2a3d 7c74 543d dd34 bc3c 5a1a 7e3b
00000030: b7bc 2c3d b888 5cbd c7ed 65bd 5c4c 603c
00000040: 4b8a 18bd 5579 45bd be29 75bc 660c 11bd
00000050: ab32 033c 8170 07bd 1d37 143b dfca ea3c
00000060: 6ff4 efbc a76e 3d3d 8f1d aebc da90 353d
00000070: 44df 11bd 8f1c 19bd 73d8 d23c 69a7 693d
-0.05186491 -0.025440458 -0.0058085374 0.04450424 0.0004317783 -0.014908565 0.032297958 -0.013340852
0.041637868 0.0518689 0.022974426 0.003877303 0.04217216 -0.053841323 -0.056134965 0.0136900805
-0.03724126 -0.048211414 -0.014963565 -0.035412215 0.008007686 -0.033066276 0.0022615858 0.02866119
-0.02929136 0.046248104 -0.021254329 0.044327594 -0.035613313 -0.03738075 0.025737977 0.05704442

conv_blocks_K.0.4.weight f4 [2, 32, 3, 3]
00000000: 9a18 ecbc 184b 50bd 01c2 e3bc 717a 053d
00000010: 15bd 36bd 4a63 72bc 0bfc 46bd 20c2 a7ba
00000020: 43d2 233d 1cba 073b 05d8 c6b7 eddd c7bb
00000030: bf5b 593d 3ae1 1b3c f390 503b fafc 193c
00000040: 8899 903b 892a 2e3d ca48 333d 9520 693c
00000050: 4864 f13c deaa 39bd 5052 3cbd 4647 373b
00000060: 5c02 8b3c af6b 223c 801b e73c b05a 543d
00000070: 1916 59bd 1553 66bd 04b5 cc3a 808e 10bd
00000080: ad56 a03c 32d2 4b3c 7b0c e03a 002f a83b
00000090: 4f19 383b 9c8b 55bd 7ef8 db3c 6148 9c3c
000000a0: b57b 5f3d 7cd8 203c 690f 593b 8860 193b
000000b0: 67d8 ddbb 57ee 903c c237 d83b b9f5 5e3d
000000c0: c540 e7bc b12e 04bd afce 443d 72bf e93c
000000d0: fc11 ac3b 3892 433d 6dbe 6abb 0fcc 893c
000000e0: e084 223c b743 4cba 9611 0b3d 7e7f fdbc
000000f0: 1058 93bc 6d5f 2b3d a9ae 013d 8414 a23c
00000100: 1d81 c83c 07eb 103d b065 10bb c860 653d
00000110: ed67 4e3c ba3d 38bc d7f3 cd3c 8af1 943c
00000120: f170 2fbd 6701 7039 a6a8 393c 4a95 233d
00000130: 4779 3fbd 8ab3 2abd afc4 31bd 1650 fa3c
00000140: d822 9abb 9455 5bbd c0cc 18bd 5db1 433d
00000150: 65e7 db3c 035b 2a3d 1fe8 68bd 1d6f c0bc
00000160: 723a 5c3c 4511 ca3c 2a54 453d 55a9 57bd
00000170: ceec f83c d55b 083c 33c0 693d e753 45bd
00000180: fe40 f43a 77b1 5dbd 8bd5 64bc 5c48 eb3c
00000190: b401 173d 001d 57bd 9c3d 463b f3d5 3e3d
000001a0: 546c 23bc ab6e 09bc 6c32 b03b 4045 13bb
000001b0: 18c8 8dbb b224 4f3d d212 9fbc 9001 55bd
000001c0: a800 3d3d 6bea a8bc a24b c9bc 7937 9dbc
000001d0: bf43 0a3d f4f8 0a3b dbe2 003d d563 13bd
000001e0: 4651 aabc ccad 1cbd a77e 2b3d 6326 52bd
000001f0: 612f 58bd 7a82 073d b57a 00bd d899 453d
00000200: 2a03 37bd aa2c 003a 0dd7 c93c 80ee 0d3d
00000210: 172f a8bc 4f1e 4abc ea21 a23c 5ce1 e1bc
00000220: 3e54 01bd 970d f83c 8b81 563c 9453 4cbd
00000230: fd9e a3b9 5eff a93c 48b2 5ebd a5da ccbc
00000240: 36c3 4dbd 73a0 64bd 1104 c0bc 1319 503d
00000250: 7ed5 f03a 2261 aaba 5b3a 1f3c 6f66 263c
00000260: 4388 7d3a 140c bc3c 0c93 7abc 1279 693d
00000270: d714 3f3b fbba 9abc e68a 17bb ec05 0a3d
00000280: ad3d 18bd e4c5 563d 4274 03bc 7a5a cdbb
00000290: c5e6 c3bc 2423 033d 7a6c 8e3c 56b9 9b3c
000002a0: 1171 abbc 979f 0ebd 2f1c b7bc 8461 763c
000002b0: 1c8c 27bd 343f 5c3c 8505 27bd 46ac 31bc
000002c0: 95fc 363b 676e d8bc 535d 53bd 5bb1 f73c
000002d0: 490e 2abc d77b 013c 14cc 513d 1810 debb
000002e0: a328 1fbd a726 acbc 57b0 4a3d 15da 123d
000002f0: 020e 39bd 27b7 edbc 21b7 c8bc e82b df3c
00000300: 803a 3e3d c4f7 ef3c 69c0 5d3c 3f67 f03a
00000310: 97ab e6bc ba77 033d 1f90 5fbd fd5e 34bd
00000320: 4533 3c3d 41f2 59bc c709 dcbc edcf bf3c
00000330: 3730 9a3c 3376 95bb c6b2 ccbb 1e13 383d
00000340: 7ba2 083d 6173 523d 2ef9 7d3c a721 a43c
00000350: f103 013d 8085 24bd fb20 3d3c 8269 903b
00000360: ff59 f53c 67df 983c 1a98 983a 05c2 4d3d
00000370: 5934 6bbb b4b1 5f3d 2f0d 5dbd 63b6 603d
00000380: b66c 1abd 2df2 3a3c 83a7 3d3d c65b 043d
00000390: fcd7 60bd 84eb a73c 1b43 1cbd 34be 4b3d
000003a0: 2f12 5b3d 100c 1b3d 1ff5 2e3d d390 10bd
000003b0: fd02 05bb ae8c 4abc 05cb 053d 258e 67bc
000003c0: 0302 2a3d 12c9 17bd e698 733c cd5a c5bc
000003d0: e2cc 003d 7fa8 b53c cd46 adbc 2b26 acbc
000003e0: 40f5 383d b27d 783c f789 91bc 412b 31bd
000003f0: 01ef f23c e50b 1c3d 438c c83c 5800 3abd
-0.028820325 -0.050852865 -0.02780247 0.032587472 -0.044613916 -0.01479418 -0.04858021 -0.0012798943
0.039995443 0.0020710295 -2.3704031e-05 -0.0060994537 0.05306601 0.009514147 0.0031824678 0.009398693
0.0044128336 0.042521033 0.04377059 0.01422896 0.029466763 -0.045328967 -0.045976937 0.0027966066
0.016968898 0.009913369 0.028211355 0.0518443 -0.05299959 -0.056231577 0.0015617912 -0.03529215
0.01957258 0.012440251 0.0017093563 0.005132556 0.0028091257 -0.052135095 0.026851889 0.019077482
0.054561336 0.009817239 0.0033120757 0.0023403484 -0.006770182 0.017691774 0.0065984437 0.054433558
-0.028229127 -0.03227109 0.04804867 0.028533671 0.0052511673 0.047746867 -0.003581907 0.016820936
0.009919375 -0.0007792073 0.033952318 -0.030944582 -0.017986327 0.041839052 0.03166071 0.019785173
0.024475629 0.03538039 -0.0022033267 0.0560005 0.01259802 -0.0112451855 0.025140686 0.018181581
-0.04283232 0.00022888706 0.011331713 0.039937295 -0.04674652 -0.041675128 -0.043400463 0.030555766
-0.0047038607 -0.05354841 -0.03730464 0.04777657 0.026843736 0.0415907 -0.056861993 -0.023490483
0.013441669 0.024666438 0.04817597 -0.052651722 0.030386355 0.008322676 0.05706806 -0.04817572
0.0018635092 -0.05412432 -0.013966928 0.028721027 0.03686686 -0.05251789 0.0030249124 0.046590757
-0.009974558 -0.008388202 0.0053771045 -0.0022471696 -0.0043268315 0.050572105 -0.019418154 -0.052003443
0.046143204 -0.020619592 -0.024572197 -0.01919149 0.033756014 0.0021205517 0.031466346 -0.03598388
-0.020790707 -0.038251683 0.041868832 -0.05130614 -0.05277956 0.033083417 -0.031367023 0.04824242
-0.04468075 0.0004889468 0.024638677 0.03465128 -0.020530267 -0.012336328 0.019791562 -0.02757328
-0.03157448 0.030279918 0.013092409 -0.049884394 -0.00031208238 0.020751651 -0.05436924 -0.025006602
-0.050234996 -0.05581708 -0.023439439 0.050805163 0.0018374173 -0.0012998919 0.009718503 0.010156258
0.00096714887 0.022954978 -0.015293848 0.057000227 0.0029156709 -0.018887987 -0.0023123561 0.033697054
-0.037168194 0.052434817 -0.0080233235 -0.006266889 -0.02391375 0.032015935 0.01738571 0.019009273
-0.020927938 -0.034820165 -0.022352306 0.015037898 -0.040905103 0.013442803 -0.04077675 -0.010844296
0.0027921547 -0.026419831 -0.051602673 0.030235937 -0.010379382 0.007903061 0.051220015 -0.006776821
-0.038857114 -0.021014525 0.049484577 0.03585251 -0.045179375 -0.029017998 -0.024501385 0.027242616
0.04644251 0.029292949 0.013534644 0.0018341317 -0.028157992 0.032096602 -0.054580804 -0.0440359
0.045947332 -0.013302387 -0.026860131 0.023414576 0.018821819 -0.0045612096 -0.0062468974 0.044940107
0.03335808 0.051379565 0.015501304 0.020035578 0.0314979 -0.040166378 0.011543508 0.0044071088
0.02995014 0.018661214 0.001164201 0.05023386 -0.0035889356 0.05461283 -0.05396765 0.054861438
-0.03770133 0.011410278 0.04630233 0.032314084 -0.05489348 0.020498045 -0.038149934 0.04974194
0.053484138 0.0378533 0.042714234 -0.035294365 -0.002029597 -0.012362642 0.032664318 -0.014133011
0.041505825 -0.03705699 0.014867997 -0.024091149 0.03144539 0.022175072 -0.021151925 -0.021014294
0.045155764 0.015166687 -0.017765982 -0.04325414 0.029654982 0.03809728 0.024480944 -0.045410484

conv_blocks_K.0.4.bias f4 [2]
00000000: cec5 8d3c 634a f43c
0.017306235 0.029820627

conv_blocks_K.1.0.weight f4 [32, 2, 3, 3]
00000000: 863f 3c3d e93f 343e c820 473d 28cd 3dbe
00000010: 2298 dc3d ab01 4b3e 8be4 20be c478 5ebe
00000020: 1a5f 033c 7c02 283e ecd6 df3d 7a0e 1bbe
00000030: d617 da3d f979 86bd 4ed6 15bd 1b88 72bc
00000040: 38a6 3cbe 88bc c5bd 153e ef3b 5b02 123e
00000050: 57f4 0cbe 871c c53d 47d2 353d 58b7 95bc
00000060: 6f98 6bbd c8be 45be 4915 9c3d 7c10 02be
00000070: 8db6 623e 79d3 b03d e2a2 ad3d fe74 653e
00000080: fc63 9fbc 1be7 babd f53a 993b 8fb5 92bd
00000090: 4adc 9c3d 0ed6 6dbe 01e5 173d dfd8 0bbd
000000a0: c263 6bbd 97a9 083e 656d 38be 9865 5cbd
000000b0: 899f 363e 7ad4 133d 04a0 1bbe 2f09 0d3e
000000c0: ac9b 47be 497c 1a3e 8957 c0bd e890 a33d
000000d0: 75e2 323e 4809 543e 385a 923d a56a d03d
000000e0: cb4f 67bd 20fd 68bd 20b5 5abe ad9d dd3d
000000f0: 0fe6 3d3d 3bd0 8c3d c35b 18be 8d9b 6cbe
00000100: 81a4 fa3d 3c7e e1bd 7b02 99bd ada6 8c3d
00000110: 24ab b83d ee16 65be c3b5 69bd fd66 4e3e
00000120: ab60 293d a33e 0abe 3f14 3e3e 633a 5ebe
00000130: 1147 ba3c 4348 553d 3b67 b63c 7ce1 5a3e
00000140: f5b5 2e3d 6179 19be 5ced 08bd 3e58 c4bd
00000150: a821 463e 6822 e93c 63ee 58be 2c3d b73a
00000160: 0345 f539 73f6 3e3c d383 623d 028c 003e
00000170: 70c4 3dbe 73ac 923d 3a59 eebd 027e 1c3e
00000180: 69eb 01be c4fc 29be 3892 08be 5fa5 083e
00000190: 1a45 30bd c51e 503e c874 47be 6e28 973d
000001a0: c88f a8bd 932b 033d 56ef 163e d7df f13d
000001b0: 9da1 5fbe f4c0 05bd 5486 c43d ca7a 6dbe
000001c0: 5fb2 2fbe bf86 6dbe 30dc f43c 2eed 463d
000001d0: 85c3 c5bd 6576 bf3d 8d6a 0a3d 5417 ca3d
000001e0: bbd0 513e b905 1fbe 73f7 38be 968d 633e
000001f0: 623c f6bd 395b 283e af4e a1bd 8c67 4dbd
00000200: df0d d5bd fa9d 903d 3bc7 77bc a27c 3e3e
00000210: 72eb 6abe 1263 b4bb 110a 0b3d a2e7 983d
00000220: 95bd 393e e483 a33d 6476 4ebe af70 fc3c
00000230: ddcd c7bd 9693 123e ec72 cdbd cf3b d6bc
00000240: e43d 6e3d 35f5 1b3e e042 e4bd ac5d 313e
00000250: e052 28be ecb0 5fbd 81a9 15be 9a52 433d
00000260: a1e0 41be 7919 30bb b27f 24be 8da9 193e
00000270: 6054 58be 5ddb cebd 726e 4abe 93af 15be
00000280: b7d5 7b3c 460c e23d e01c ee3d 4613 3cbe
00000290: 7595 21bd d822 40bd 9643 c83d 527b b1bc
000002a0: 7d70 eabc 5a63 14be 726d 25be a9b0 1cbc
000002b0: f679 de3d 163c ecbd fcf6 433d 8d6f e73d
000002c0: 91f1 abbd 20ed 573e eaf1 583e 6c15 0e3e
000002d0: cee0 ca3d d6fa 3cbe 8a4d fe3d dc9f cdbc
000002e0: 4240 383e c0c3 43be f5d7 d0bb 9985 593e
000002f0: e632 383d a1e0 983d 72e7 6f39 b559 e1bd
00000300: d88d e93d a63f 3c3e 6fd9 013e 4097 20be
00000310: 65ce 20be 3dfb 663e 0239 f0bc 8097 c53d
00000320: c426 863d 042b 17be f221 4d3e 2ef6 263d
00000330: a54b e5bd 9d84 613e 9b1d 9c3d c1fa 633d
00000340: 9428 23be 7be4 513e 0cb4 efbd 205c a4bd
00000350: 87cd 67be a281 823d d865 06be 7faf 53be
00000360: 2b0f 283e 6baf 59be 2327 3ebd 1ffa b0bd
00000370: 4045 803c f977 073d 0d9d 533e 136a 8f3d
00000380: 6a34 97bd c4b4 0dbe 96aa 79bd c2ea 023e
00000390: ce12 67be f1d5 b23d 0d8a 62bc ced7 debd
000003a0: 777b 1c3e 8f95 ef3d a5d1 d33b 8d28 ebbd
000003b0: af4d 11be 769a 7dbd f0e9 13be 1410 22bd
000003c0: 785b 9d3d a444 c7bc 5a85 e73c c947 abbd
000003d0: 2346 7fbd c711 0b3e eb4d d8bc cc9c 6a3d
000003e0: b619 24be 53ba 09be 0796 363e e5bf a2bb
000003f0: f039 683e c3d5 9fbd 3cc9 fb3d f104 cc3d
0.04595902 0.17602505 0.048615247 -0.18535292 0.107712045 0.19824855 -0.15712182 -0.21725756
0.008018279 0.16407198 0.10929665 -0.15142241 0.106490776 -0.06566233 -0.03658133 -0.014802958
-0.18422782 -0.096551 0.007301102 0.14258711 -0.13765083 0.09624582 0.04438999 -0.018275902
-0.05751842 -0.19311059 0.07621247 -0.12701601 0.2213995 0.08634085 0.08478333 0.2240791
-0.019456856 -0.09126111 0.0046762177 -0.07163536 0.07659204 -0.23226187 0.03708363 -0.03414237
-0.057468183 0.13345943 -0.1801048 -0.053807825 0.17834295 0.036091305 -0.1519776 0.13773035
-0.19492978 0.15086474 -0.09391696 0.07986623 0.17469199 0.20706666 0.07146114 0.10176591
-0.05647258 -0.056882024 -0.21358156 0.1082109 0.04636198 0.06875654 -0.14878754 -0.23106213
0.12238408 -0.110104054 -0.07471176 0.068677284 0.090170175 -0.22372028 -0.057058107 0.20156474
0.041351955 -0.13500457 0.18562411 -0.2170196 0.022738965 0.052070867 0.022266021 0.21375078
0.042653996 -0.14987709 -0.03342949 -0.09587143 0.19348776 0.028458789 -0.21184687 0.0013980023
0.0004678146 0.011655438 0.0553015 0.12553409 -0.18531966 0.07161798 -0.11638112 0.15282443
-0.12687458 -0.16600329 -0.13337028 0.13344334 -0.04303465 0.20324238 -0.19478142 0.07380758
-0.08230549 0.032023977 0.14739737 0.11810272 -0.21838994 -0.032654718 0.095959336 -0.23191372
-0.17157887 -0.23195933 0.02989015 0.048566036 -0.09656433 0.09348754 0.03379302 0.09867731
0.2048978 -0.15529527 -0.18063144 0.2222198 -0.12023236 0.16441049 -0.07876336 -0.050147578
-0.10403036 0.07061382 -0.015123184 0.18602231 -0.22941378 -0.005504974 0.033945147 0.074660555
0.18138726 0.079841405 -0.2016235 0.03081545 -0.09756062 0.14314112 -0.10031685 -0.026151566
0.058164492 0.15230258 -0.11145568 0.17320889 -0.16437864 -0.054612085 -0.14615442 0.047686197
-0.18933345 -0.0026870652 -0.16064337 0.15006085 -0.21125937 -0.10100434 -0.19768694 -0.14617757
0.015370778 0.11037497 0.11626601 -0.18366727 -0.039449174 -0.04690823 0.09778516 -0.021665249
-0.028618092 -0.14491025 -0.16155031 -0.009563603 0.10863106 -0.11534898 0.047842965 0.113005735
-0.083956845 0.2108655 0.21186033 0.1387536 0.09906159 -0.18455061 0.12417133 -0.025100641
0.17993262 -0.19117641 -0.0063734003 0.2124237 0.044970416 0.074647196 0.00022879036 -0.110034384
0.11404008 0.18383655 0.126806 -0.15682697 -0.15703733 0.22556777 -0.029324058 0.09648037
0.06550363 -0.14762503 0.2003248 0.04076212 -0.11196069 0.22023244 0.07622834 0.05565906
-0.15933448 0.20497315 -0.11704263 -0.08025384 -0.22636996 0.06372382 -0.13124788 -0.20672415
0.16412036 -0.21258323 -0.046424042 -0.08641457 0.015658021 0.0330734 0.20665379 0.07002654
-0.07383044 -0.13838488 -0.0609537 0.12784865 -0.22565767 0.08732212 -0.013826859 -0.10881005
0.15281473 0.11698448 0.0064642006 -0.11482344 -0.1418979 -0.061914884 -0.14444709 -0.039566115
0.07683462 -0.024324723 0.02826183 -0.08363301 -0.062322747 0.13581 -0.026404342 0.05727844
-0.16025433 -0.13449983 0.17830668 -0.0049667233 0.22678351 -0.07804444 0.12294242 0.0996188

conv_blocks_K.1.0.bias f4 [32]
00000000: bd4e 22be c98f 3fbe a648 8d3d 9557 59be
00000010: 3c78 6c3e db3b 173e b8d8 05be bd4e ed3d
00000020: 5c2f 693e 5f35 1fbe 9f3c 1a3e 53db 803d
00000030: 81b4 4ebe e503 58bd 38c0 e7bc 5e60 23be
00000040: 0d6c 5cbd 913a 0b3e e97c 353e 64a9 f13c
00000050: 4910 a3bd 5a50 64be bdc1 21be 0673 4dbc
00000060: 230f f03a d534 a43d 0df6 aebc 6b83 59be
00000070: 5dbb 12be a8ec 5dbd 0f05 243e 3a31 653d
-0.15850349 -0.18707193 0.06898622 -0.21224816 0.23092741 0.14768927 -0.13070953 0.11587284
0.22771972 -0.15547703 0.15062188 0.06291833 -0.20186044 -0.05273809 -0.0282899 -0.1595473
-0.053813983 0.1359656 0.1772343 0.029499717 -0.079620905 -0.22296277 -0.15796562 -0.012539631
0.0018315058 0.080178894 -0.02135756 -0.21241538 -0.14329286 -0.05418077 0.16017555 0.05595515

conv_blocks_K.1.2.weight f4 [32, 32, 3, 3]
00000000: 3311 50bb 493b 54bd 0907 3fbd 56bb c83a
00000010: 3bd5 20bd 4633 4b3d b23d 6abd 5d23 eebc
00000020: c29d 5ebd e7c1 373d 4da4 463d 17f2 de3c
00000030: 2f97 09bd f13c 47bd 8124 5dbd 4c98 df3c
00000040: 0b4b e03b ad50 f23c 768e a53c 4e52 463d
00000050: b99c 693d 4844 093d 7f1e 503c d9c9 15bd
00000060: 6205 61bd 1249 513d db3a 7b3c 83b4 573d
00000070: 21d2 dfbc a06a e2bb 0ee9 38bd c48f a33c
00000080: b2ca 333d 3979 593d e7a6 5e3b 6e20 96bc
00000090: 7778 243d 2cab e83c 39db 093d 96bb cebc
000000a0: 7fb0 023c d5ef 69bc 9ce1 26bc bed1 9cbc
000000b0: 09b6 5a3c f9f1 ac3c a0ef 343c d132 afbb
000000c0: 9f99 38bd 2e85 92bc 36fc 423d aa96 1bbd
000000d0: 5fd1 5abd 33fe 5abc 59e7 8d3c 90cb 2cbd
000000e0: a82b 843c 0355 fabc 0367 bcbc d077 0abd
000000f0: 1309 baba 52ba 3abd d0e6 32bc bd18 cdbc
00000100: 7d7a 453d fdea e0bc a1e5 623c 4e29 06bd
00000110: 2922 e53c a908 4cbd ae79 c2bc 9986 df3c
00000120: f815 403d e426 bd3c 130c 0fbd d1fc 043c
00000130: 6100 2238 7312 303d 4b7a 6ebc d7de 1abd
00000140: 61e7 113d 5692 9b3c a9e4 d4bc 2cba 3a3d
00000150: 3baf fa3c 98e4 57bd d035 173d 50fc d4bc
00000160: 4f11 52bc 5628 0d3d 8e6a c73b 0083 623d
00000170: df15 4abd 1e65 d73c 902a 183c 23be 70bc
00000180: f470 8abc 011e bd3c 0ef9 293d a753 60bd
00000190: 6509 c03c 390c 21bd 66a4 f63a 8954 febc
000001a0: 343c b13b e964 52bd 2a89 d43c 1e2a 20bd
000001b0: b49d 0f3d 434e 31bd ea7c 2a3d 5ae5 093d
000001c0: e73b 6abd 5d53 48bd 28c9 cfbc 39cb 1fbd
000001d0: cb55 69bd b356 97ba 0eb0 14bd bf61 9b3c
000001e0: 44e0 4fbd d7a8 06bd 3121 b73c 8178 9a3c
000001f0: 02c6 2e3d 6e71 43bd f3c7 33bd 857c bbbc
00000200: fce1 b63b ff2f 9bbc 2f3c 633c eb07 2c3d
00000210: 04b5 573c 8fa6 2a3d 394e 453c ed07 b53c
00000220: 57d9 3dbd 72a2 14bc 8220 3b3d 727a afbc
00000230: 6593 9fbc 649b c5bc 5881 993c e8ac 4d3d
00000240: 17ab b13c b0aa 4d3d 8832 203d 720f d9bb
00000250: b14a 98bc ceb7 93bc d350 b83c bded 163d
00000260: 52b7 60bd 8d36 d3bc 41bc 5ebd b147 09bd
00000270: f5d6 3b3d b4f5 553d 2b84 14bd 1a27 dfbc
00000280: e86d a33c 65a3 ad3c 16ce f43b 9f30 15bc
00000290: fea9 ebbc ca15 51bd 6d87 71bc f282 3cbd
000002a0: 24d5 513d daab 4e3d f63a 26bd a88c c43c
000002b0: ff90 2a3d 14ac 423d a6d8 3d3d 2ef4 20bd
000002c0: e5f7 363d b475 5e3d e67c 4c3b 014c dd3c
000002d0: 4e50 b4bc 1a83 663d dd95 53bd 6ff3 0dbd
000002e0: b35c 003c ea76 c6bc b266 a4bc 4e05 9b3c
000002f0: 1d4f 003d 560b 153d 42da 443d 960a df3c
00000300: 440c c7bc bb29 973c c833 0bbd 17d6 033d
00000310: 029a b93c b959 443d 6894 003d f0d7 513d
00000320: bd0c 36bc 5887 49bd ba0f 363d 50a4 53bd
00000330: 3d6e ba3b 43bd e03b 57fc eb3b f155 1e3d
00000340: 978e 203c 271e 9ebc 7a58 18bb ded2 67bd
00000350: 11b6 1cbd b945 1cbb f4be 523d 907f 50bc
00000360: 8f16 f53c c138 12bd 87de 34bd abc4 d43c
00000370: 011a 053d b4f9 c5ba 1795 2f3d 5169 ae3c
00000380: cda7 e53c e7b3 483c 0096 6b3d d5db 31bd
00000390: ed3d 1ebc 7713 14bd 3337 0abd 4b15 4c3c
000003a0: af1d 9cbb 13db 9cbb 7359 a93c b8b1 513d
000003b0: 1562 55bd 85ec 88bc d2d0 87bb b943 ff3c
000003c0: 4828 bebc fd2c 5abd c15e b1bc 578c fabc
000003d0: 228b 5ebd e9b2 24bd d9bc b2bc 3e7b 953c
000003e0: bb28 febc b219 8abc 66bf 40bd d54a 07bd
000003f0: 2291 11bc 4418 cebc 245d 6ebb 862e 713c
-0.0031748533 -0.05181435 -0.04663757 0.001531462 -0.039265852 0.049609445 -0.057187743 -0.029069597
-0.05434967 0.044862654 0.048496533 0.027215047 -0.033591446 -0.048642103 -0.05398989 0.0272943
0.0068448833 0.029579485 0.020209532 0.048418336 0.057034228 0.033512384 0.012702583 -0.03656945
-0.054936774 0.051095076 0.015333856 0.052662384 -0.027321877 -0.0069096833 -0.045144133 0.019966014
0.043894477 0.053094123 0.0033973993 -0.01832601 0.040153947 0.028401934 0.033656333 -0.025235932
0.00797665 -0.014278372 -0.010185625 -0.019142982 0.013349065 0.021111475 0.011043459 -0.005346634
-0.04506838 -0.01788577 0.04760381 -0.03798548 -0.053422328 -0.01336627 0.01732223 -0.04218632
0.016134098 -0.030558115 -0.022998339 -0.03380567 -0.0014193378 -0.045587845 -0.010919288 -0.02503621
0.048212517 -0.027455801 0.013848693 -0.032754235 0.02797039 -0.049812946 -0.023739662 0.02728586
0.04689595 0.023089834 -0.034923624 0.008116917 3.8624163e-05 0.042986345 -0.014555524 -0.037810173
0.03562105 0.018990677 -0.02598794 0.045587704 0.030601135 -0.05270824 0.036916554 -0.025999218
-0.0128215095 0.034462295 0.0060857004 0.055300713 -0.049337264 0.026293334 0.009287491 -0.01469377
-0.016899563 0.023085596 0.041497283 -0.054767277 0.02344198 -0.039318297 0.0018817305 -0.031046169
0.005408788 -0.051365767 0.025944311 -0.039102666 0.035062507 -0.043287527 0.041623034 0.033665992
-0.057186034 -0.048907626 -0.025364473 -0.039012168 -0.056966584 -0.0011546224 -0.03630071 0.018967507
-0.050750986 -0.032875862 0.022354694 0.018856289 0.042669304 -0.047715597 -0.04389186 -0.022886524
0.0055811387 -0.018943785 0.013869329 0.04199974 0.013165716 0.04166275 0.0120425755 0.022098506
-0.04634985 -0.009071933 0.0456853 -0.021420691 -0.019479463 -0.024121948 0.018738434 0.050213724
0.021688027 0.05021161 0.03911069 -0.0066241557 -0.018590303 -0.01803198 0.022499477 0.03684782
-0.054862328 -0.025782848 -0.05437875 -0.033515636 0.045859296 0.052236274 -0.036258858 -0.027240325
0.019949868 0.021196077 0.0074708564 -0.00910583 -0.028767582 -0.05104617 -0.014741761 -0.046023317
0.051228657 0.05045686 -0.040583573 0.023992851 0.041642185 0.047527388 0.04634919 -0.039295368
0.044670004 0.05431147 0.0031202375 0.02701378 -0.022010949 0.056277372 -0.051656593 -0.034655984
0.007834601 -0.024226625 -0.0200685 0.018923428 0.03132545 0.036387764 0.04805971 0.027226727
-0.02429784 0.018452516 -0.03398493 0.032186594 0.022656444 0.04793713 0.03139153 0.051231325
-0.0111114355 -0.04920134 0.04444859 -0.051670372 0.005689411 0.0068584993 0.007201712 0.03865618
0.009799621 -0.019301487 -0.0023246096 -0.056597583 -0.03825957 -0.002384527 0.05145164 -0.012725726
0.029917983 -0.035698656 -0.04415753 0.025972685 0.032495502 -0.0015104325 0.042866793 0.021290453
0.028034115 0.012249923 0.057516098 -0.04342254 -0.009658319 -0.036151376 -0.03374405 0.0124562485
-0.0047642807 -0.004786858 0.020672536 0.051194876 -0.05209549 -0.016714344 -0.0041447664 0.031160222
-0.023212567 -0.05326556 -0.021651627 -0.030584497 -0.054331906 -0.040209685 -0.021818565 0.018247243
-0.031025281 -0.016857956 -0.04705753 -0.03303035 -0.0088847 -0.025158055 -0.0036371434 0.014720565

conv_blocks_K.1.2.bias f4 [32]
00000000: 834d 19bd b32b 11bd 3824 1b3d ae91 1a3c
00000010: 908c 1e3d df16 9e3b b2e1 f0bc bff3 b5bc
00000020: eb86 58bc 3472 083d e757 49bd 11f6 cd3c
00000030: 2d0e 8dbc be8e 693d 8684 623b eb24 eb3b
00000040: 5f59 6bbc 5a98 893c 73e6 c73b 5ba2 eebb
00000050: e909 713d 5098 6fbd c75a 513d 616c 4b3d
00000060: d136 db3c a3fe b0bc 162b d6bc cb23 34bd
00000070: 8123 113d 4ff3 dc3b c624 8f3c 2219 a93c
-0.037427437 -0.035442065 0.037876338 0.009434147 0.03870827 0.004824504 -0.029404495 -0.022210954
-0.013215761 0.033312038 -0.049156096 0.025141748 -0.017218674 0.057020895 0.0034563853 0.007176032
-0.014364569 0.01679628 0.0061004697 -0.007282538 0.05884734 -0.058494866 0.051111963 0.049663905
0.026759537 -0.021605795 -0.026143592 -0.043979447 0.03543425 0.006742872 0.01747359 0.020641867

conv_blocks_K.1.4.weight f4 [2, 32, 3, 3]
00000000: 53e8 f23c 6b06 d2bb 2a65 113d 5ba7 623c
00000010: 974b 983c f945 023c 07fd 123b fe07 91bc
00000020: 9661 5cbd 85ea 4a3c 0af7 bf3c e6e6 513d
00000030: 4b40 423d 62fa 5cbd 90cb 623c b4be 543c
00000040: 1c86 30bd f65c 20bc bcf7 b5bc 33fe 05bd
00000050: df5a 433d 9af1 67bd e467 40bd e877 903b
00000060: 7e5a 6e3d c689 833c cdc6 fc3c 7cbc fd3c
00000070: b28e aa3c 003f b7bc 88cb 203d 48a2 fdbc
00000080: 2abb 4a3d 4cf1 d9bc d07b ae3c 9432 ab3c
00000090: fafe 86bb 80e2 25bb 24b0 783c 3a86 61bc
000000a0: 152d 8cbc d720 52bd ff4f d53c b941 283d
000000b0: 9626 8b3b 3cb5 65bd 8083 6abd 5873 153d
000000c0: 5d62 ce3c aa34 47bd eff7 5bbd 69d4 3e3d
000000d0: cf7e 97bc 50c2 3f3c 8283 903c 846a 803b
000000e0: 2862 643d ae84 bb3b d8ef 313d 1906 383d
000000f0: 0794 303d 1de7 67bd d6eb 9fb8 e567 6f3d
00000100: 3bf5 be3c 01fe b6bb 47d5 3d3c 8e09 3bbc
00000110: e848 383d 3b02 0cbd e49f 40bd 2296 223d
00000120: 63ba 5a3d 8652 d3bc 8d10 263d 4fdc 293d
00000130: d895 f2bb f952 4a3d fbc2 abbc b84f f1bc
00000140: 7706 fd3c 53d5 27bd 8f8d 143d db3c 3bbd
00000150: 299a c03a ffd3 553b b4f6 43bd 5880 d93c
00000160: 1d2c 1abd 8217 403d a398 40bc b526 4d3d
00000170: 399c 1fbd a784 84b9 80b6 3dbd b937 883a
00000180: b202 c4bc 6fc7 a6bc d86c 173d c511 0e3c
00000190: 5810 813c dac6 693d d34b 9abc c3f2 d4ba
000001a0: f8c1 62bc 42eb 8e3c 0664 17bd 2251 e5bc
000001b0: fbbe 1f3d 7739 4e3d 92dc aebc 3d5d a3b8
000001c0: 5d16 053d e033 9f3c 4bc4 1f3d 1ed0 1cbc
000001d0: 72b8 6c3d bb5e 5cbd 2377 0dbd b080 dabb
000001e0: 1077 6a3c 5869 89bb d4d2 93bc c5fc 3e3d
000001f0: d322 61bd 20fe 9fbc 19ee a3bb baca 89bc
00000200: fd2f c13a 4f81 c03c b04a 2e3d 8fff cc3c
00000210: 119d 453d a98a 9abc c010 663d 9364 03bd
00000220: 6e7f 63bb 67d9 683d 4d59 e63c 9d17 50bd
00000230: d3f4 dabc ea6f e5bc 0c51 b73c 78e9 2fbd
00000240: 6ddf 02bd c086 423d aa67 44bd 4f5e 53bd
00000250: 9617 333d 5e1d b8bc 53b8 3639 ff70 f93c
00000260: 484d 143c a5e6 263c 3e65 68bd 0b13 483d
00000270: d29f 333d 5ba4 62bd 7d3c 683d 1602 42bb
00000280: b4ae 30bd dcac 3fbc 87ea f6bc 730c c43c
00000290: b571 59bd 444d 423d 831e 98bc d8bd 56bd
000002a0: f6e8 3abc 58af 5f3d 4eb6 253d 5d0b 5ebd
000002b0: 99e8 7bbc 5cee 3bbd e6d7 a5bc b759 5cbc
000002c0: 6d96 eabc 1857 f13b f70e 363d c1f7 62bd
000002d0: c54b 23bd fd26 fc3a afcd 333a 05bc 683d
000002e0: 58b6 2dbd 54c6 c5bc e9a8 43bd 7138 783c
000002f0: 6c94 03bc 5b1d 5dbd ca4a ae3a 3c57 59bd
00000300: 547f d13c f4d5 6ebc c212 3ebc 0a23 5aba
00000310: 2842 41bc e1f3 493d dc29 25bd 07dc 7fbc
00000320: ae2a 673d 8c89 ecbc ab33 6c3b e16c 83bc
00000330: d8b4 e9bc 4ba0 96bc 297a 07bd 4b34 123d
00000340: 4592 f7bb 2def 613d 3092 d1bc 206b 80bc
00000350: 1445 24bd 8502 173d ccb4 3abc bca2 143c
00000360: 656e 95bc b84e 3b3c 17de 0e3c 8918 59bd
00000370: 1ae2 3b3d 8c17 493d 688f 063c 3461 213d
00000380: 9c0b 0e3d 766c 4cbd 57f5 22bc a443 40bd
00000390: 2c48 e33c a5af b43c 15a2 e4bc aad0 a13b
000003a0: afc3 2b3d b01c debb 3329 5cbd 038d 433c
000003b0: f2f4 d83c 6f2a 6cbc 0c11 c9bc ffb2 a63c
000003c0: c377 60bd cca9 283b d327 4ebd af91 45bd
000003d0: 5bbf 59bd a022 eabc 8c20 6ebd ac09 e7bc
000003e0: 9303 0ebd e8fc b2bc 4e7d 13bd e6f4 a33c
000003f0: 5a16 61bd e7f4 d93c 75c9 cabc 9e6f f6bc
0.029651796 -0.0064094565 0.03549687 0.013833846 0.018590732 0.007951253 0.0022428648 -0.017704006
-0.053804003 0.012385015 0.023433227 0.051245593 0.047424596 -0.05394972 0.013842478 0.01298492
-0.043096647 -0.009787789 -0.022212856 -0.032713126 0.047694083 -0.056626894 -0.046974078 0.004408825
0.05819177 0.016056906 0.030856514 0.030973665 0.020819996 -0.022368908 0.039256603 -0.03096117
0.0494949 -0.026604317 0.021299273 0.020898141 -0.004119751 -0.0025312006 0.015178714 -0.013764912
-0.01711134 -0.05130085 0.026039122 0.041078303 0.004246543 -0.05608104 -0.057254314 0.036486953
0.025193388 -0.04863421 -0.053703245 0.04658929 -0.018493084 0.011704043 0.017640833 0.0039189477
0.05575767 0.0057226038 0.043441623 0.04492769 0.04310992 -0.05661689 -7.625639e-05 0.05844869
0.023310294 -0.005584479 0.011586494 -0.011415852 0.044991404 -0.034181815 -0.047027484 0.03969396
0.05340041 -0.025796186 0.040543128 0.04146987 -0.0074031167 0.049395535 -0.020966997 -0.029456958
0.030886872 -0.040974926 0.036267813 -0.045712333 0.0014694381 0.003262758 -0.047842696 0.026550457
-0.037639726 0.04689742 -0.011755141 0.050085742 -0.038967345 -0.00025275836 -0.046316624 0.0010392583
-0.023927066 -0.02035877 0.036969036 0.008671229 0.015754864 0.057074405 -0.018834984 -0.0016246665
-0.013840191 0.017446164 -0.036960624 -0.027992789 0.039000493 0.05034777 -0.02134541 -7.789813e-05
0.03249203 0.019433916 0.03900556 -0.009571103 0.05779309 -0.05380128 -0.034537446 -0.006668173
0.014310613 -0.004193466 -0.018044867 0.04662778 -0.05496485 -0.019530356 -0.0050027487 -0.0168203
0.0014739033 0.02349916 0.042551696 0.025024204 0.048245493 -0.018864946 0.056168318 -0.032078337
-0.0034713405 0.056847956 0.028118754 -0.05080377 -0.02672807 -0.028007466 0.022377513 -0.042947263
-0.031951357 0.04749179 -0.047950424 -0.05160361 0.043723665 -0.02247494 0.00017425539 0.030449389
0.009051628 0.010186826 -0.056737177 0.048846286 0.04385359 -0.055332523 0.05669831 -0.0029603294
-0.04313536 -0.011698928 -0.030141128 0.023931718 -0.053086955 0.047436967 -0.018569237 -0.052427143
-0.011408081 0.05461058 0.040457062 -0.054210056 -0.01537528 -0.045881614 -0.02024455 -0.013449124
-0.028636182 0.0073651187 0.044447865 -0.055412058 -0.03986718 0.0019237694 0.00068589573 0.056819934
-0.042410225 -0.024142422 -0.047768507 0.015150175 -0.008030992 -0.053983074 0.0013297435 -0.05306171
0.02557341 -0.014577378 -0.011601152 -0.0008321261 -0.011795558 0.049304847 -0.040323123 -0.015616423
0.056437187 -0.028874181 0.0036041539 -0.016043128 -0.028528616 -0.01838698 -0.033075485 0.0356944
-0.0075552785 0.055159736 -0.025582403 -0.015676081 -0.04010494 0.036867637 -0.011395644 0.009072002
-0.018241117 0.011432342 0.0087199425 -0.053001914 0.045869924 0.04909472 0.008212902 0.03939934
0.03467904 -0.049908124 -0.009946189 -0.046939507 0.027744375 0.02205641 -0.027909318 0.004938205
0.041934665 -0.006778322 -0.053750228 0.011935475 0.026483987 -0.014414414 -0.024544261 0.020349024
-0.054801714 0.0025735972 -0.050330948 -0.048234638 -0.053161006 -0.028580964 -0.058136508 -0.028202854
-0.034671377 -0.02184911 -0.03600817 0.020014238 -0.054952957 0.026606036 -0.024754265 -0.03008252

conv_blocks_K.1.4.bias f4 [2]
00000000: 66d1 0a3d 38f7 2a3d
0.033891104 0.041739672

conv_blocks_I.0.0.weight f4 [32, 2, 3, 3]
00000000: 0917 8b3c 9711 163e 160a cc3d a643 c73d
00000010: 7c87 45be 0447 59be 78da 193c 04b2 c9bd
00000020: a4af 343d 8351 153e ccaa 60bc 3af8 66be
00000030: 6780 b1bd 9be6 613e 9dd6 26be 96b0 b23d
00000040: d9fc 883d df7c ba3d 4276 1ebe c744 373e
00000050: 2736 26bc 0f5b 113d 64e5 513d 4ca8 b0ba
00000060: 0de0 82bd 5b68 55be 4444 313e 9f9a 893d
00000070: aa67 d1bd fd60 45be be49 a7bd 37d2 94bd
00000080: 1059 3a3e f6fe be3d ae7f 4bbe b53b 14bb
00000090: 788b c8bd 503e ff3d 570b 99b9 5d02 c33d
000000a0: a8c0 f53c ab24 36be e30c ccbd 0a1f 26be
000000b0: 4ee3 e03c 4ffc 83bd ea90 acbd a94d 673e
000000c0: 62ed 0c3e 8277 613c 8f32 213e 63e9 55be
000000d0: b908 893d 7544 1fbe 684d aabd 1c7e 57be
000000e0: c800 8a3d 446b 60be b269 133e 8214 c43d
000000f0: 96db fc3c 9f7d 0f3e 7917 f2ba e1a0 fcbd
00000100: aba4 a73b 43c3 9dbd 99e6 da3c 639d 223e
00000110: 5a3d 5abe f4dc 3ebe ac9e 023e 93ba f0bd
00000120: 03e8 493e 07ff 433e 942b bdbb ad2b 183e
00000130: 3c4c 153e f990 0dbe b775 433e 6ee4 943c
00000140: f255 053c 5f7c 223e b5af 42be 4613 5ebe
00000150: 73c0 c7bd 8e79 f8bd 2d8c e7bd 8be7 573d
00000160: 5d45 743d c9b7 be3d 9db3 0c3e a4f6 733d
00000170: dfe5 b13d 70c9 e63b 002d 3b3e 867d 74bd
00000180: faa5 153d d304 a73d 85ec d33b dd98 fabd
00000190: 5857 5abd 77eb d3bc faa6 23be 0718 febd
000001a0: 3165 5f3e e1e5 663d 8d6b ba3c 186d e73c
000001b0: 1609 62be 7cea 043e d7f2 e13d e2dd 443e
000001c0: d03e e13d d518 313d 955c 3a3e d43d 5d3d
000001d0: d406 473e b700 3bbe f31e 60be 3b48 cb3d
000001e0: 9ca9 c93c 8773 e73d d5df dabd ffc6 43bd
000001f0: d602 983d 9e2d 933d 9a48 40be b147 3d3d
00000200: 27b7 a63c b0ed c0bd 03e2 09be db59 273d
00000210: 30fc 6a3e 339f 5e3e 18e5 48bc 5620 883d
00000220: 957d 553e 2a99 8f3d c8bc a2bd b142 343c
00000230: 801e 283e aa38 ac3d cef3 0ebe 6e85 35bd
00000240: 2c3c 5cbe b417 203a d8e8 0bbd 9172 8dbd
00000250: a487 ed3d d39e 493e 468a cc3d 026f 123e
00000260: cfe9 6b3d 826a 773d 5cc8 20be 1771 bc3d
00000270: cfe6 dd3c e725 53be cc28 673a 5509 ec3c
00000280: 5712 693e db92 653e e501 b63d 7609 df3c
00000290: e76b e1bd e0fa 1bbc ae8e 873c 81bb 52be
000002a0: 1b1a 30be fa1f afbd 80a6 64bd 2e4d 0bbd
000002b0: 3430 86bd c845 5fbe 1bc8 9d3d 8a2e 173e
000002c0: f9f5 373e b7a4 2ebe fcd3 cabc 3664 533d
000002d0: 9ef1 54bd 3f9a 60be 763c cfbd 49a9 66be
000002e0: f924 4cbe fb7f 5dbe 6e58 e9bd fa92 9139
000002f0: 2b63 023e 31c7 f43d 160c 513e a720 f5ba
00000300: c7dc 233e e8bc 6ebd 26e3 5c3e 85e8 293e
00000310: d509 e1bd b7ae 37bc eb30 09be d303 6f3e
00000320: fb59 1e3e 8e3a 45be 78c1 0d3e 964f c93d
00000330: 30da cf3d c040 c4bd a010 3bbe f2a3 123e
00000340: 7f0e 183d 4c5a 2fbe ebfb 6c3e cabc 433e
00000350: 2ba7 88bd 5911 0fbe 0d7d 953c ad1a 5f3e
00000360: cfed 503e ca98 093e c8b0 5fbe 1e43 173e
00000370: ee85 3e3e fd22 42be 5ebe 08be 5551 613e
00000380: 4014 15be 2ef7 fcbd 489e fd3d 2407 47be
00000390: 59b0 43be 8b00 f83c 7fad 283c 9e02 b3bd
000003a0: c20f 0a3d bf44 093e bed9 193d 4cfc 3d3e
000003b0: de3f 26be bd6a 8c3d ab92 24be 0059 333e
000003c0: 6433 433e 787d 80bc 18d1 c4bd 3f8f abbd
000003d0: 6333 0ebe cf24 6dbe 793e 0fbc 56e0 ffbd
000003e0: ecd8 9e3c 1d0d 473d 3be2 78bd 939f aabd
000003f0: 967d 223e 48af 88bd 05ed 54be f786 b03c
0.016978757 0.14655147 0.09962861 0.097297 -0.19289964 -0.21218497 0.009390466 -0.09848407
0.044112816 0.14581876 -0.013712596 -0.22555628 -0.08667069 0.22060625 -0.16292806 0.08725087
0.06688852 0.091058485 -0.154748 0.1789733 -0.010144747 0.03548723 0.051244155 -0.0013477891
-0.063903905 -0.2084059 0.17311198 0.06718945 -0.102248505 -0.1927528 -0.08168362 -0.07266658
0.18198037 0.09325974 -0.19872925 -0.0022618596 -0.097922266 0.12463057 -0.00029190883 0.09521935
0.029999092 -0.17787425 -0.099633954 -0.16222778 0.027452137 -0.064446084 -0.08426078 0.22588219
0.1376243 0.013761403 0.15741943 -0.20889811 0.06691117 -0.15553458 -0.08315545 -0.210442
0.0673843 -0.21915919 0.14395788 0.09574224 0.030866425 0.14012764 -0.001847013 -0.12335373
0.0051160655 -0.07703259 0.026721286 0.15880351 -0.21312466 -0.18638974 0.12755841 -0.11754336
0.19717412 0.19140254 -0.005773017 0.14860411 0.14579862 -0.13824834 0.19087873 0.01817533
0.008138167 0.15867756 -0.1901234 -0.2168704 -0.09753504 -0.1213256 -0.11306033 0.05271105
0.059636462 0.09312398 0.13740392 0.059561387 0.086864226 0.007043056 0.18278885 -0.05969002
0.03653524 0.08155217 0.0064674043 -0.122361876 -0.053305954 -0.025869114 -0.15981665 -0.124069266
0.21815945 0.056371573 0.022756362 0.028250262 -0.22073779 0.12980074 0.11032646 0.19225267
0.10998309 0.043236572 0.1819938 0.054014042 0.19436198 -0.18261991 -0.21886806 0.09925886
0.024617009 0.11301332 -0.10687224 -0.0477972 0.07422416 0.07186435 -0.18777695 0.04621095
0.020351006 -0.09420335 -0.13465123 0.040857177 0.22947764 0.21740417 -0.012261651 0.066467926
0.20848687 0.070116356 -0.079461634 0.011002229 0.16417885 0.08409245 -0.13960192 -0.0443167
-0.21507329 0.00061070477 -0.034157604 -0.069066174 0.11598137 0.19689493 0.09987311 0.14300159
0.057596024 0.06040431 -0.15701431 0.09201258 0.027087597 -0.20619927 0.000881803 0.028813044
0.22760902 0.22419302 0.0888708 0.027226191 -0.11006909 -0.0095202625 0.016547527 -0.2057934
-0.17197458 -0.08551021 -0.05582285 -0.03400915 -0.06552163 -0.21803963 0.07704183 0.14763847
0.17964925 -0.17055021 -0.024759285 0.05160924 -0.051988237 -0.2193384 -0.10118954 -0.22525515
-0.19935979 -0.21630852 -0.1139382 0.0002776606 0.12733142 0.11952055 0.20414767 -0.0018701748
0.16002189 -0.058285624 0.21571025 0.16592605 -0.109882034 -0.011211089 -0.13397567 0.23341303
0.15464012 -0.19260618 0.13843334 0.09829633 0.10149038 -0.095826626 -0.1826806 0.14320353
0.0371232 -0.1712429 0.23142974 0.19114986 -0.0667251 -0.13971461 0.018248105 0.2178752
0.20403217 0.1343719 -0.2184478 0.14771697 0.18605778 -0.1895866 -0.1335387 0.22003682
-0.14558506 -0.12351833 0.123837054 -0.19436318 -0.1911024 0.030273696 0.010295271 -0.087407336
0.033706434 0.13405131 0.03756117 0.18553275 -0.16235301 0.06856296 -0.16071574 0.1751442
0.19062573 -0.015684828 -0.09610194 -0.083769314 -0.1388679 -0.23158573 -0.008742922 -0.124939606
0.019390546 0.04859649 -0.060762625 -0.083312176 0.1586822 -0.06674057 -0.20793541 0.021548731

conv_blocks_I.0.0.bias f4 [32]
00000000: 3628 683e 2968 1dbd fb3f ffbd 9ca8 053e
00000010: 95b9 c13d e833 0f3e bca3 51be 2fdd 623e
00000020: 815f 333c e1bf 95bb b8de 473e 5dc8 533e
00000030: 1711 453e b22a 163e 831e ebbd 5045 a63d
00000040: 65f6 d4bb db7e 5dbe 7c7c 8ebb 8688 37bc
00000050: 9f0e aebd 1c88 5cbe 88e1 093e 69e9 bbbd
00000060: 9010 4c3d fb11 d33d a963 403d 2403 6fbe
00000070: 31c8 28be 29f0 b53d 8bc5 2dbd 5302 6ebe
0.2267159 -0.038429413 -0.12463375 0.130526 0.09459225 0.13984644 -0.20472616 0.22154687
0.010948063 -0.004569993 0.19518554 0.20681901 0.192448 0.14664724 -0.11480429 0.08118689
-0.006499099 -0.21630423 -0.004348336 -0.011201983 -0.084988825 -0.21536297 0.1346494 -0.09175379
0.049820483 0.10306164 0.046970043 -0.23341042 -0.16482617 0.088836975 -0.04242472 -0.23243074
