kiki_checkpoints/kiki_best.pth (torch, 530831 bytes, 72 tensors)

conv_blocks_K.0.0.weight f4 [32, 2, 3, 3]
00000000: ea16 4c3e 3c5f a13c 4803 1d3e a3ad 543e
00000010: 9c72 353c 9e09 10be a185 633e 9bd0 65bd
00000020: 27b9 76bb d96b 2a3e 7a02 583e 3bb4 4fb6
00000030: 2c6e 13be 93af 56bd 954a a4bd fbf6 cebd
00000040: 7f92 c4bd 3081 c8bd 9d16 313e e5d3 143d
00000050: 61e1 a3bd 20c6 42be 9f5f 3c3e 8c29 02be
00000060: e0da 8abd c1ab 8abd 698f aa3c 8697 e53c
00000070: 424f 553d 3b4a 783d 2f55 5abe 589a 3cbd
00000080: a3c2 a4bd 6f9e 12be a011 c0bd 7178 a2bd
00000090: 798d 3d3e c8bd 1f3d 42f8 113d 7074 093e
000000a0: 45fc bdbc b737 fe3a e3ac 903d ef87 1cbe
000000b0: 0b55 533b 5e8f be3d ba09 2fbe 6e18 5dbd
000000c0: 349d 9b3d 8eb2 4b3e 2696 35be a90a 21be
000000d0: d11d 35be d9ac 24be cb64 07bd 8957 4fbe
000000e0: 0fb0 2d3d 0a2b 6cbd b169 cf3d 3976 28bd
000000f0: da53 6cbd 89f5 5d3e 44c2 943d 1657 3cbd
00000100: 3fcc 59be 29e6 05bd 2c85 033e 7bff e63d
00000110: 1bad 3a3e 148f a0bd d625 51be 510e 56be
00000120: 8794 b335 ca86 11be b25c d23d ff87 d4bd
00000130: f88e 863d 3702 84ba 1066 013d 1391 13be
00000140: 33f2 1b3c c992 4f3d 5fc4 433e 8807 cf3c
00000150: 0525 453e 99c6 03be 638f f7bd c599 5ebb
00000160: 474c 31be b4c0 34be b898 563e e7ac 593e
00000170: 1604 39bd 8040 043e b891 4cbc e8c8 0bbc
00000180: 1dcc 303e 5739 3a3e f99c da3d 467f 66bc
00000190: 29e0 b2bd d7a8 65be f06e 573e 2ea2 d33d
000001a0: da49 84b7 913b 193e 59ee 613e 8817 a0bd
000001b0: c65c 27be 0ee9 f63d 2441 6abe d671 443d
000001c0: f184 9d3d 8f91 d93c 6120 ba3d 332e f8bc
000001d0: 339f 093e cd2b c5bd dd10 21be ac73 19be
000001e0: add5 af3d ffe5 5f3e 13fa 54be 3b82 d53d
000001f0: b963 db3d c4d3 033e 5ede a63c 009f 663e
00000200: 395f 0ebd e0a0 6bbe 82c0 343b f692 d73d
00000210: d08a 2ebc b94c 4d3e 53f0 e2bd 6209 e33d
00000220: 2d20 683e c86a 9a3d 17ff 34be a811 39be
00000230: be73 33be d94a a7bd b7e2 2738 3caf 10bd
00000240: f796 383d e202 03be 863f 503e ab82 343d
00000250: c74c a6bc ada0 93bd 419f 3bbe 915d 2abe
00000260: 7a1c 89bd 59b3 3e3e c811 303e 3dbf df3d
00000270: e86e 003e 42c0 383e 01ec 033e cf76 04be
00000280: d2b1 8ebd 7331 2d3e 8cdb df3d c78a 44bd
00000290: 6f10 0d3e 0d22 5bbe adf7 a43d 1a68 ce3d
000002a0: beb8 333e 2f2c 26be b29d 2c3e bbe6 a43d
000002b0: 0465 1a3d e975 6abe 7114 a13c 77cc 7c39
000002c0: d34f 09be fb16 383e d257 6b3e f14c 98bd
000002d0: 540a 673e e315 00be 21cf 52be 5f3f 25be
000002e0: 1898 263e b9ad abbd 490d 65be 0f3b 393e
000002f0: c0d9 1c3d a386 013e f54a 0b3e 92b0 5b3e
00000300: 9d33 5cbb 2aa1 59be c00c dabd 8644 273e
00000310: 30f3 23be d299 393d c6d5 623d 580c 21bd
00000320: 40a7 d53d b478 b8bd dac5 3036 8324 2cbe
00000330: 12d3 91bd 4a4b 5e3e 4a8e af3d 4f0d 703d
00000340: 4dd6 2bbe a090 47bd bacd 203e daa9 223e
00000350: ffa8 21be dec4 843c 5fad 443e 952f f4bd
00000360: 788d 99bb a752 20be a7fb 3e3e bc83 a13d
00000370: 4db4 493e 8c8f 223e 3902 51be a4c6 24be
00000380: 2f2c 85bd 4d99 a3bd 3dfa c23d ec3f d2bd
00000390: 80d2 01be dad1 2cbd de30 d43c f569 15be
000003a0: 3648 69be 2aa4 45be e2e0 673d 0355 d53d
000003b0: 5492 62be 7ba4 08bd 768c ff3c 8e63 41be
000003c0: b284 a636 ce81 103d ec00 14be 9337 5ebe
000003d0: 59a9 1dbe 93d8 7dbd 4471 37ba b2da 743d
000003e0: 43d4 883d ed22 5e3e 9564 26bd fe8d ca3d
000003f0: 46bc dc3d 4fc4 263e 3917 343e b546 a43c
0.19930616 0.019698732 0.15333283 0.20769362 0.011074688 -0.14066169 0.22218944 -0.056107145
-0.003764698 0.16642703 0.21094695 -3.0950312e-06 -0.14397496 -0.052413534 -0.08022038 -0.101057015
-0.095982544 -0.097902656 0.17293783 0.03633489 -0.08001972 -0.19020891 0.18395852 -0.12711161
-0.06780028 -0.06771041 0.020820336 0.028026354 0.05207754 0.060617667 -0.21321557 -0.04604563
-0.080449365 -0.1431825 -0.09378362 -0.079331286 0.18510999 0.03899935 0.035637148 0.13423324
-0.02319158 0.0019395266 0.070642255 -0.1528623 0.0032246734 0.09304689 -0.17093554 -0.053978376
0.075983435 0.19892332 -0.17733058 -0.15726723 -0.17687155 -0.16081561 -0.033055108 -0.20248236
0.04240423 -0.057658233 0.10127581 -0.04112837 -0.057697155 0.21675695 0.07263616 -0.04598149
-0.2126932 -0.0326902 0.1284377 0.11279198 0.18230097 -0.0783979 -0.2042459 -0.20903899
1.3379766e-06 -0.14211574 0.102715865 -0.10377502 0.06570238 -0.0010071461 0.031591475 -0.1441081
0.009518194 0.050677095 0.19117878 0.025272146 0.19252403 -0.12868728 -0.12087896 -0.0033966166
-0.17314254 -0.17651635 0.20956695 0.21257363 -0.045169912 0.1291523 -0.012485914 -0.0085317865
0.17265363 0.18185936 0.106744714 -0.01406843 -0.087341614 -0.22427689 0.21038413 0.10333668
-1.5770016e-05 0.14964129 0.22063579 -0.07816988 -0.16343984 0.120561704 -0.22876412 0.047960125
0.07691372 0.026558666 0.09088207 -0.030295467 0.13439636 -0.09627495 -0.15729089 -0.14985532
0.08585677 0.2186508 -0.2079852 0.1042523 0.1071238 0.12873751 0.020369705 0.22521591
-0.03475878 -0.23010588 0.0027580564 0.105260774 -0.010653213 0.20048799 -0.110809945 0.11085774
0.22668524 0.07539898 -0.17675434 -0.18073142 -0.17524621 -0.08168573 4.0027047e-05 -0.035323367
0.045065846 -0.12794068 0.20336732 0.044069927 -0.020300282 -0.07208381 -0.1832247 -0.16637255
-0.066948846 0.18623103 0.17194283 0.10925148 0.12542307 0.1804209 0.12882997 -0.12935947
-0.0696751 0.16913395 0.10930547 -0.04798391 0.137758 -0.21399708 0.08055053 0.100784495
0.17550942 -0.16227792 0.16857031 0.08051821 0.037693992 -0.22896542 0.019663068 0.00024108762
-0.13409357 0.17977516 0.2298272 -0.074365504 0.22562534 -0.12508349 -0.20586826 -0.16137455
0.16268957 -0.08382744 -0.22368349 0.18088935 0.0382936 0.12649016 0.13602813 0.21454075
-0.00336001 -0.21252885 -0.10646963 0.16334733 -0.16010737 0.04531271 0.05537965 -0.039318413
0.10432291 -0.09007397 2.6341208e-06 -0.16810803 -0.071203366 0.21708408 0.08572061 0.058606442
-0.16780968 -0.04872191 0.15703478 0.15885106 -0.15787123 0.016207155 0.19206761 -0.11923138
-0.004686054 -0.1565653 0.18650685 0.078864545 0.19697686 0.15875071 -0.20411004 -0.160914
-0.06502568 -0.07988224 0.095203854 -0.102660984 -0.12677956 -0.042192318 0.025902208 -0.145912
-0.22781453 -0.19300905 0.05661095 0.10416605 -0.22126132 -0.033359986 0.031194907 -0.18885633
4.9626333e-06 0.03528004 -0.14453477 -0.21700887 -0.15396632 -0.06197412 -0.0006997774 0.059778877
0.06681111 0.2169301 -0.040623266 0.09890364 0.10778098 0.16285823 0.17586984 0.020053247

conv_blocks_K.0.0.bias f4 [32]
00000000: f8e2 da3c 20a6 d43d 691f 8f3d f2b7 5dbe
00000010: 038c 38bd 7548 9bbd 4d9c 6b3d a796 243e
00000020: e8da 26be 8efd e8bd c59d 323e 6af0 ff3c
00000030: a3d0 803d 846e bb3c 7566 55be b686 2ebe
00000040: ed28 223e 7318 a63d 551e 463e aa49 1fbe
00000050: 7e6e 403e 12dd 2c3e ebec 84bc 418c 8e3d
00000060: 1ad6 03bc f715 653e 06c8 5e3e 31df a73d
00000070: 1f66 0b3e 5545 323e 0b2c 553e 2a46 9dbd
0.026719555 0.10383248 0.06988413 -0.21652201 -0.0450554 -0.075821795 0.057522107 0.16073094
-0.16294444 -0.11376487 0.17442997 0.031242568 0.06289794 0.022879846 -0.20839866 -0.17043576
0.15835924 0.08110132 0.19347508 -0.15555444 0.1879215 0.16881207 -0.016226253 0.06960345
-0.008046651 0.2237166 0.2175599 0.08196867 0.13613175 0.1740926 0.20817582 -0.07679398

conv_blocks_K.0.2.weight f4 [32, 32, 3, 3]
00000000: 79f5 a13c 719b 043d 21db 443d b226 223d
00000010: 4bcc 5a3d 9bf1 bf3c 62b0 b7bc ebe5 2bbc
00000020: f5b3 233d 5952 613a 895b 023d d9f9 483d
00000030: fc91 953c 6f00 423d 24d3 14b7 bb81 653c
00000040: a790 2fbd 9bdc f6ba 175d fcbc 920b feba
00000050: 6438 903a 1c4e 9ebc e489 d1bc 5bcb 2abd
00000060: 0e65 e5bc 32e2 bbbc 03d2 fd3c 2904 513d
00000070: d54a b8bb 0a28 083c 5b76 4e3d 90ef 57bd
00000080: 298d 093d 3cde 493c 2c4d fdbc 8f5f 533d
00000090: 9ce4 12bc 0b7e 8d3c 700d 8a3c 21d9 8e3c
000000a0: 8aaf 463d b912 903b de06 383d 504d 873b
000000b0: 23c4 d73c 15a1 9abc 52e7 b2b8 102c 3dbd
000000c0: c4eb 4abd 0ee8 f93c 779d 453d 8007 38bd
000000d0: f55a 39bc 1bb0 4a3b bf6f 0f3d 2c5b 40bc
000000e0: b68c 6d3b df00 f7bc 5757 02bd b6a0 0ebd
000000f0: 27e7 c7bc d6c6 21bc bd43 5bbc 143b 94bb
00000100: e5fd f5bc c6d0 58bd 3161 03bc ec5a 513d
00000110: 5818 6a3c f174 243c eafe 953b 68f8 10bd
00000120: 93ce 47bb a3f2 2c3d 2c1a fdbc 8a46 0f3d
00000130: ac76 80bc cecf a2bc 4db1 163b bc3a 363d
00000140: 8bf0 bebc 284a 143d b0a6 22bd 158a 9dbc
00000150: a602 9fbc 0c03 0a3c 97c4 833c 4f3c 2bbb
00000160: d28b 563d de50 0fb9 1fd1 3d3d aca4 393b
00000170: 8c6b a13c b755 a53c 7ff8 4c3c 8f39 30bd
00000180: bb4b 9bbb efa1 19bd bc17 0abd 5ee1 e6bc
00000190: efba 01bd f8e8 84bc 22c0 333d d469 113c
000001a0: db64 253d 8b53 b1bb 0e86 02bd f57d 2dbb
000001b0: 7817 a6bc 21a1 973b 5a91 9b3c 2205 bbbc
000001c0: acef 013a 480e a83c 7f44 9939 ac31 6b3b
000001d0: 0ddc 0a3a f75b 6239 5a97 0b3d 18a7 7139
000001e0: 467d 9fbc 0bae 54bc 24a3 3fbd 95b2 ed3c
000001f0: dd6b 2abd 0d9a 1ebc f31b 113b db26 08bd
00000200: c10b 55bd 09c4 06bd 258c 82bc e7d4 153d
00000210: af2c 29bd 73c1 f9bc 1fe1 43bd 3631 393d
00000220: c27d 413c 8171 023d 0c03 c63a bcd7 533d
00000230: 04cb 5fbc 8702 f5bc 13fc 9a3c 7353 2738
00000240: 3bd8 c13b f9da 10bd 55ae 1bbd 9977 d0bc
00000250: cfac 1abc 8793 b03b bb9b e1bc 5c5f 4cbc
00000260: dd38 29bd 9c70 823c 2b9d 423d d323 20bd
00000270: 23ab 263d 865c ddbc e68a 32bc 9940 403a
00000280: 0ed4 593c 8af6 30bd ed75 283d a290 553c
00000290: 93a8 3ebd 00ef 41bd 0742 ac3c f4b0 33bd
000002a0: 39b7 b73a 1ced 2e3d 9b47 1b3d 94f2 583d
000002b0: 2f22 ce3c b6e8 1ebd f688 4d3d 934b 38bd
000002c0: 655c 29bd 62c2 153d e531 0abd 1dac 4abd
000002d0: 7c32 0cbc db27 e9bc 7fd1 713c f3a1 f9bc
000002e0: b383 153d 2fb3 273d f47a af3c 6128 0f3d
000002f0: d399 333d a284 863c f60c 1e3c f8f4 54bd
00000300: 1968 3ebd ee9d 5e3c 40eb b5bc f382 b73c
00000310: b603 e83c 3842 cf3a 9465 b03c 29e3 b73c
00000320: 40a8 fcbc cdaf 9f3c 5d1d 33bb 94e1 f2bc
00000330: 97db 57bd 2206 3a3c be3c b5bc c116 353c
00000340: 0e48 083d 5a23 b7bb 2b5c d4bc daa6 95bb
00000350: 6a88 dabc 0484 34bb 7b4f 14bc b2bb 4fbd
00000360: 3a8b d63c 78f8 e43c d09c 29bd afc5 353d
00000370: 438d 3fbd 71bf e7bc 9e1d 473c 1a65 a33b
00000380: 2cd7 f93c 461d 26bc 5066 203d 5259 31bd
00000390: 6339 e03c cb6a 8b3c 23f3 7e3c 0f2e edbc
000003a0: 157f 463c cbfc c4bc e93f c2bc 94f1 d13c
000003b0: b746 103c 47ed 313d d5ca 543d 3883 563d
000003c0: ca91 4abd c782 9f3c 4b41 e03a 6807 dcbc
000003d0: 29b7 223d beff 24bd db95 03ba 7296 423a
000003e0: 03cc 453a f012 55bd a9f5 c43b 33e7 3cbc
000003f0: 9955 fbbc 24a5 79bc 4ed3 0d3d 3c32 513d
0.01977037 0.032374803 0.04806054 0.039587684 0.053417485 0.023430636 -0.022422973 -0.010491828
0.039966542 0.00085953396 0.031825576 0.0490664 0.018258087 0.047363695 -8.870647e-06 0.014007981
-0.04286256 -0.0018834056 -0.030806107 -0.001938211 0.0011003134 -0.019324355 -0.025578447 -0.04169784
-0.028002288 -0.022935007 0.03098393 0.051029358 -0.005624155 0.008310327 0.05040584 -0.0527187
0.033581886 0.012321051 -0.030920587 0.051604804 -0.008965638 0.017272016 0.01685211 0.01743752
0.04850725 0.004396763 0.044928424 0.0041290894 0.026338642 -0.018875638 -8.530788e-05 -0.0461846
-0.04954125 0.03050616 0.048245873 -0.044929028 -0.01131319 0.003092772 0.03501868 -0.011740487
0.00362472 -0.030151783 -0.031821575 -0.034821235 -0.024402214 -0.009874066 -0.013382849 -0.004523644
-0.030028293 -0.052933477 -0.008018778 0.0511121 0.014288031 0.010037647 0.0045775073 -0.03539315
-0.0030488118 0.042223584 -0.030896269 0.03497938 -0.015681587 -0.01987448 0.0022993863 0.044489607
-0.02330806 0.036203533 -0.039709747 -0.019230882 -0.019410443 0.008423578 0.016084952 -0.0026128476
0.052379437 -0.00013667668 0.04634201 0.0028326912 0.019704603 0.020182474 0.012510418 -0.043023642
-0.0047392524 -0.037507948 -0.03371404 -0.028183635 -0.031672414 -0.01622437 0.043884404 0.008875329
0.040379386 -0.0054115704 -0.031866126 -0.0026472781 -0.020274863 0.0046273624 0.018990207 -0.022829596
0.00049566734 0.020514622 0.00029233468 0.003588776 0.00052970723 0.00021587299 0.034079887 0.00023045798
-0.019468915 -0.012980948 -0.046786442 0.029015819 -0.041606773 -0.009680283 0.0022141903 -0.03324018
-0.052013163 -0.032901797 -0.015935967 0.036579993 -0.04130238 -0.030487752 -0.047822114 0.045212947
0.011809768 0.031846527 0.0015107109 0.051719412 -0.013659243 -0.029908432 0.018919026 3.989362e-05
0.0059156693 -0.03536508 -0.038008053 -0.025447654 -0.009440615 0.0053886804 -0.027540078 -0.012473907
-0.041313995 0.015922837 0.04751317 -0.039096665 0.040690552 -0.027021658 -0.010897374 0.00073338446
0.013295187 -0.043203868 0.041128088 0.013034971 -0.046547484 -0.04734707 0.021027578 -0.043869928
0.0014016397 0.042706594 0.037910085 0.052965716 0.025162784 -0.03879615 0.050179444 -0.04499395
-0.04134788 0.03656233 -0.03373899 -0.049480546 -0.008556958 -0.028461387 0.01475942 -0.030472731
0.03650255 0.040942367 0.021420933 0.034950618 0.04384787 0.016420666 0.009646645 -0.051991433
-0.046485994 0.013587458 -0.022206903 0.022401309 0.028322082 0.0015812581 0.021532811 0.022447186
-0.030841947 0.019493008 -0.0027330734 -0.02964858 -0.05269965 0.011354001 -0.02212369 0.011052788
0.03327184 -0.005588931 -0.025922855 -0.0045670094 -0.026676375 -0.0027544508 -0.009052153 -0.05071611
0.026189435 0.02795051 -0.041409314 0.04437798 -0.046765577 -0.028289529 0.012153057 0.0049864175
0.03049811 -0.010138815 0.039160073 -0.043298073 0.027371114 0.017018696 0.015560898 -0.028952627
0.01211526 -0.024046322 -0.023712115 0.025627889 0.008805922 0.043439176 0.05195125 0.052371234
-0.04945544 0.01947154 0.0017109303 -0.026859 0.039725456 -0.040282957 -0.00050195836 0.0007422931
0.0007545354 -0.052020013 0.0060107303 -0.011529732 -0.030680465 -0.0152371265 0.034625344 0.051073298

conv_blocks_K.0.2.bias f4 [32]
00000000: 7f86 46bd 441e bbbc ec9a 4ebb dd21 2b3d
00000010: b96f c7ba 1d56 8dbc 9762 f03c fae5 69bc
00000020: 886a 2f3d 3a6a 473d 751e ab3c 42da 2e3a
00000030: 0f75 1f3d ca94 4ebd cb58 58bd ac42 4d3c
00000040: 91bb 0abd 7c8c 37bd a114 45bc df33 03bd
00000050: 5c72 a43b 8d14 0bbd 7109 923b d9c0 d53c
00000060: 21a5 d7bc 970c 323d c80d a1bc fd00 2e3d
00000070: 649f 17bd 1f55 0bbd c5b4 e23c 4ddb 703d
-0.04846811 -0.02284158 -0.0031525446 0.04178034 -0.0015215791 -0.017252976 0.029343886 -0.014276022
0.042826205 0.04868529 0.020888546 0.0006670096 0.038929995 -0.050434865 -0.052819055 0.012528103
-0.033870284 -0.04481171 -0.012028844 -0.03203189 0.0050185155 -0.033955146 0.004456692 0.026092933
-0.026323857 0.043469038 -0.019659892 0.04248141 -0.03701724 -0.034016725 0.027674088 0.05880289

conv_blocks_K.0.4.weight f4 [2, 32, 3, 3]
00000000: 4bae d0bc 2c6c 42bd 424c c8bc 0177 f03c
00000010: a1e7 28bd 56f1 3cbc e31b 39bd 2812 633a
00000020: 0773 163d 7b76 513b fbca fd3a 1305 51bb
00000030: 6a0a 4c3d a240 053c 2fec 843b 5278 033c
00000040: fb89 9a3b 5728 213d 14f7 253d c457 3f3c
00000050: d4b0 d83c 68cf 2bbd 2c62 2ebd 7876 9b3b
00000060: 065c 693c ce01 033c babf ce3c afe2 463d
00000070: c2bd 4bbd cb82 58bd 34f4 c53a 46cb 03bd
00000080: f2a5 853c 0ba9 1f3c 815a e7ba c299 333b
00000090: 45de 363b 8196 47bd dcb6 c23c 45dc 833c
000000a0: 52ee 513d 2d5d f83b cbef 5c3b 0b90 473b
000000b0: 7db0 75bb 5ed0 783c 307d 8c3b b509 523d
000000c0: 599d e2bc 53a8 01bd fd15 383d b803 d33c
000000d0: 10e9 3d3b 7ade 363d 17bd 81bb 8ae3 5d3c
000000e0: 00fb e73b 4a50 1abb 1a25 fa3c de7b e5bc
000000f0: e0bc 7abc 225c 1d3d f979 e83c ef8c 883c
00000100: 18e1 ae3c 58ad 033d b13e d8ba a0d6 573d
00000110: 7a63 203c 70bd 04bc c5ad b43c 56dd 793c
00000120: 44e1 2dbd 4d09 0cbb 797e 0b3c b77e 163d
00000130: 509e 3ebd 111e 2cbd 1f7d 31bd 3680 e03c
00000140: bdc8 efbb 506a 55bd d65c 17bd a7b1 363d
00000150: c7af c43c 77a0 1d3d a19f 63bd 0c35 c6bc
00000160: 9f55 2f3c 86df b13c 2be4 373d faef 49bd
00000170: 7d83 de3c a4c7 ce3b fbf6 5b3d 1778 37bd
00000180: 6784 313b f4ed 4fbd ddbf 2fbc eb8f d03c
00000190: fc4d 093d 4a52 49bd 9562 9e3a 0406 313d
000001a0: 98aa e3bb 0101 a8bb f2cc 373b b436 9c39
000001b0: 45e2 c4bb 752b 413d 4bfd a1bc d141 4bbd
000001c0: 8003 2f3d ac4e acbc 236d c3bc a82c a2bc
000001d0: 7592 f93c c8b2 243b 5cc7 e73c 3a8c 05bd
000001e0: 124a 8fbc b4d1 0ebd 2933 1e3d 8a3f 44bd
000001f0: 953d 4abd 5b04 f53c b5a4 e5bc 0c9a 383d
00000200: c516 29bd 2b3d 293b e63c b43c 28d2 013d
00000210: e558 8dbc b928 16bc 6c38 8f3c 6693 c6bc
00000220: 1d1c e7bc a324 df3c da0f 333c 2c67 3ebd
00000230: d757 eb3a 1e73 933c 84ba 50bd 0b66 b1bc
00000240: eae8 3fbd 6bb2 56bd f9d6 a4bc cfa6 423d
00000250: 9508 633b 2af3 873a b25b 003c 3eb2 093c
00000260: 8a42 313b 9056 a23c ea78 48bc aeb8 5b3d
00000270: 6634 0c3b 6204 81bc efa4 98b9 bb84 f93c
00000280: 63c7 0abd 410a 493d 6c06 22bc 7c72 04bc
00000290: 63a3 cdbc bb42 ed3c 2121 6f3c bf9e 823c
000002a0: 931b b5bc 298b 0ebd c8ce c5bc 633b 4c3c
000002b0: a0b1 19bd e7ad 363c 4d2e 19bd 12a6 fbbb
000002c0: 1302 853b f91e bdbc e268 45bd dfa1 de3c
000002d0: 6155 eebb 498b a63b de11 443d a8c2 7abb
000002e0: 7f6d 11bd 1650 91bc 87f6 3c3d 7d46 053d
000002f0: ac4c 2bbd d43c d5bc 0100 b6bc f031 c63c
00000300: 0a55 313d d3d5 d53c b8a4 313c b4a4 9439
00000310: c560 d2bc 4d89 ed3c 0ea4 54bd 0a98 2abd
00000320: 0845 2e3d 0fa4 6cbc 3d75 d6bc dd14 a43c
00000330: 23be 7e3c 3253 dbbb 1ac1 01bc c10a 2c3d
00000340: 5eb7 f93c be1b 463d c896 533c 4882 8d3c
00000350: eaa9 ea3c 7fd1 24bd 224e 113c 6c12 033b
00000360: 4d20 db3c 2c51 803c f495 073b d33b 403d
00000370: 1897 5cba 1d21 523d 1127 4fbd c220 533d
00000380: d999 0cbd abfe 133c 7c68 313d a969 f13c
00000390: 2ef9 5dbd babe 913c 656d 1dbd e759 3f3d
000003a0: e25e 4e3d b0d0 0e3d d322 223d 5ee1 0bbd
000003b0: bcd4 8dbb e46d 5ebc 439c f23c 7f53 81bc
000003c0: ba11 1d3d 0faa 13bd 4473 433c c01a b8bc
000003d0: 33ef e53c ac80 9a3c 59d4 a5bc 51f8 a6bc
000003e0: c9ac 2a3d d3cc 443c bd3a 8ebc 6b45 27bd
000003f0: b726 dc3c dfc1 0f3d 7566 b13c 28f6 34bd
-0.025473734 -0.047466442 -0.024450425 0.02935362 -0.041236524 -0.011532148 -0.04519261 0.0008662068
0.036730792 0.003196149 0.0019362861 -0.0031893894 0.04981462 0.008133085 0.0040564756 0.008024292
0.0047161556 0.03934511 0.040518835 0.01167864 0.026451506 -0.041945845 -0.042574093 0.004744347
0.0142431315 0.007996036 0.025237907 0.048556026 -0.049741514 -0.05285911 0.0015102685 -0.03217628
0.01631448 0.009744893 -0.0017650874 0.002740488 0.002790348 -0.048727516 0.023768835 0.016096244
0.05125267 0.007579467 0.0033712264 0.0030450847 -0.0037489228 0.015186397 0.0042873845 0.05127879
-0.02766292 -0.031654667 0.044942845 0.02575861 0.0028978027 0.044645764 -0.003959309 0.013543019
0.007079482 -0.0023546391 0.03053527 -0.028013166 -0.01530382 0.038417943 0.028378474 0.016668765
0.021347567 0.032147735 -0.0016498176 0.052694917 0.009789342 -0.008101806 0.022055516 0.0152505245
-0.04245116 -0.0021367848 0.00851404 0.03674194 -0.046537697 -0.04202086 -0.043332215 0.027404886
-0.007317631 -0.05210334 -0.03695377 0.044603016 0.024009598 0.03848311 -0.055572156 -0.024195217
0.010701566 0.02171303 0.044895332 -0.049301125 0.027162308 0.00631042 0.053702336 -0.04479226
0.0027086975 -0.05076404 -0.010726896 0.02545925 0.033521637 -0.049150743 0.0012083823 0.043218628
-0.0069478266 -0.005127073 0.002804574 0.00029795396 -0.0060084187 0.047160584 -0.0197741 -0.049623314
0.042727947 -0.021033607 -0.023855751 -0.019796684 0.030465344 0.0025130976 0.028293304 -0.032604434
-0.017491374 -0.034867957 0.03862301 -0.047912158 -0.049375135 0.029909303 -0.02803264 0.045068786
-0.04128148 0.0025823812 0.022001695 0.03169456 -0.017254302 -0.0091649825 0.017482959 -0.024240207
-0.028211648 0.02723915 0.010929072 -0.04648511 0.0017955255 0.017999228 -0.050959125 -0.021655103
-0.046852984 -0.052416246 -0.020122038 0.047522362 0.0034642566 0.0010372151 0.007834362 0.008404313
0.0027047717 0.019816667 -0.012235859 0.05364292 0.0021393537 -0.01574916 -0.00029114584 0.030458799
-0.033881556 0.049082045 -0.009889226 -0.008083936 -0.025102323 0.028962484 0.014595301 0.015944837
-0.022107875 -0.034800682 -0.024146453 0.012465331 -0.037522912 0.01114986 -0.03739767 -0.0076797092
0.004059085 -0.023086058 -0.048195727 0.027176796 -0.0072733616 0.005082522 0.047868602 -0.0038262997
-0.035504814 -0.017738383 0.046133544 0.032537926 -0.041821167 -0.026029982 -0.022216799 0.024193734
0.04329399 0.026102936 0.010842495 0.00028351473 -0.025680909 0.028996134 -0.051914267 -0.041648902
0.042546302 -0.0144434115 -0.02617895 0.02002948 0.015548262 -0.0066932673 -0.007919574 0.042002443
0.030482944 0.0483663 0.012914367 0.017274037 0.028645474 -0.040238854 0.008868726 0.0019999994
0.0267488 0.015663706 0.0020688744 0.046932053 -0.00084148487 0.05130111 -0.050574366 0.051544912
-0.034326408 0.009032886 0.043312535 0.029469328 -0.054192714 0.01779114 -0.038434405 0.046716597
0.050383456 0.03486699 0.039583992 -0.034150474 -0.0043283384 -0.013576005 0.029615527 -0.015786884
0.038346983 -0.036050852 0.011929337 -0.022473693 0.02806816 0.018860184 -0.020242857 -0.020382078
0.041668687 0.0120117245 -0.017361993 -0.040837687 0.02687393 0.035097 0.0216553 -0.044180065

conv_blocks_K.0.4.bias f4 [2]
00000000: cd05 703c 4775 e13c
0.0146498205 0.027521743

conv_blocks_K.1.0.weight f4 [32, 2, 3, 3]
00000000: 8e89 2e3d 34c1 303e 1264 393d c64d 3abe
00000010: 03a4 d53d c681 473e f965 1dbe 30f8 5abe
00000020: f458 a73b 8a83 243e c1df d83d 0090 17be
00000030: 6920 d33d 771d 7fbd 6c32 08bd fa89 3ebc
00000040: 8826 39be 9bc6 bebd f67f 913b 7c84 0e3e
00000050: 7d76 09be a529 be3d 4c1e 283d 9777 76bc
00000060: 55c4 5dbd a53e 42be 242a 953d 0b27 fdbd
00000070: ec35 5f3e 74e0 a93d ffb0 a63d 99f4 613e
00000080: 22d6 84bc f9f2 b3bd fa38 093b a4c7 8bbd
00000090: c63e 963d 8348 6abe 7282 0b3d c3f7 fabc
000000a0: 95d6 5cbd 0c49 053e 34db 34be 71e6 4dbd
000000b0: 0936 333e b32a 063d 641f 18be 018e 093e
000000c0: 1f19 44be 8400 173e 8b61 b9bd c39c 9c3d
000000d0: 8d63 2f3e 4c8a 503e d072 8b3d be76 c93d
000000e0: d595 59bd db38 5bbd 0535 57be 60a9 d63d
000000f0: a046 303d b8e9 853d bcdd 14be ab1a 69be
00000100: 1fab f33d 0d86 dabd c713 92bd 66b9 853d
00000110: 94b7 b13d 5196 61be 1ae8 5bbd e3e6 4a3e
00000120: baad 1c3d f5b3 06be e19e 3a3e d5ae 5abe
00000130: 8f7c a23c ee24 483d 8a60 9f3c dd6b 573e
00000140: fef2 213d 3ef9 15be 7a96 f6bc df60 bdbd
00000150: 48a3 423e 3340 ce3c fe6b 55be 603e 13ba
00000160: f392 acba 86ca 0a3c fd13 583d ffa8 fa3d
00000170: b757 3abe d9f3 8c3d dbc3 e7bd 442e 193e
00000180: 4f2f fdbd fa98 26be 9137 05be 4328 053e
00000190: f398 22bd e99d 4c3e 34f4 43be ec3e 903d
000001a0: 27a0 a1bd be06 ec3c f372 133e 9cee ea3d
000001b0: de21 5cbe 6fb4 f0bc df90 bd3d 55fa 69be
000001c0: 7934 2cbe 8106 6abe c420 da3c 203d 393d
000001d0: 49d4 bebd 5982 b83d 9da3 f93c 2b22 c33d
000001e0: c450 4e3e 4387 1bbe 0178 35be 130d 603e
000001f0: 3942 efbd 46dc 243e 5b99 9bbd 017c 43bd
00000200: 8aee cebd e1eb 8a3d 1ab7 68bc 5514 3b3e
00000210: 708b 67be 9b4c 9bbb f523 043d 0801 923d
00000220: d23e 363e b699 9c3d 8cf7 4abe aab5 e13c
00000230: fcda c0bd 6d16 0f3e d480 c6bd 47d4 bbbc
00000240: ac4a 613d b388 183e 3037 ddbd f2f6 2d3e
00000250: a9c4 24be 856f 51bd ae10 12be 36a2 363d
00000260: ce50 3ebe f917 26bb 1e01 21be c82c 163e
00000270: e6d0 54be bae4 c7bd f2eb 46be 2d33 12be
00000280: 21f5 473c 6f11 db3d 3227 e73d 9c93 38be
00000290: 7bef 13bd 096b 32bd e750 c13d 1619 97bc
000002a0: dda5 cfbc a5e5 10be 47ef 21be 5ee1 d6bb
000002b0: c781 d73d 7443 e5bd 2838 363d d676 e03d
000002c0: 9a00 a5bd cd6c 543e 9f71 553e c997 0a3e
000002d0: 6cea c33d ee77 39be c950 f73d 692c b3bc
000002e0: c6be 343e 983f 40be 7ba2 71bb 0708 563e
000002f0: b8a8 2a3d 0bf8 913d 66e2 b83a 875e dabd
00000300: 1b96 e23d afbe 383e cdb6 fc3d 7619 1dbe
00000310: 064d 1dbe fe79 633e c0f0 e1bc a651 bf3d
00000320: 2b88 803d bcd8 13be 4eb7 493e e5ec 1d3d
00000330: 7ed2 debd 1217 5e3e 233d 963d e65f 563d
00000340: 8eaa 1fbe 1d64 4e3e 83ba e8bd 1381 9dbd
00000350: 044c 64be 0b6f 773d 76e7 02be 8a2e 50be
00000360: f091 243e 1c2e 56be c265 30bd 3805 aabd
00000370: 3fc6 4e3c 1d33 f43c c11d 503e 4d87 883d
00000380: ee43 90bd f236 0abe 86da 6bbd 21db fe3d
00000390: 5492 63be 41e3 ab3d f3f1 2ebc 10e0 d7bd
000003a0: 04fd 183e b29c e83d de08 823b 9031 e4bd
000003b0: 69d0 0dbe 26cf 6fbd 7c6c 10be 387a 14bd
000003c0: 2d6e 963d 32ef acbc 57b6 cc3c 5455 a4bd
000003d0: c871 71bd 4694 073e b856 bdbc 1dd2 5c3d
000003e0: 0d9b 20be 973c 06be b516 333e 43ef 17bb
000003f0: d7b8 643e 8be8 98bd 3cce f43d 990c c53d
0.04261165 0.17261201 0.04526145 -0.1819373 0.104316734 0.19483098 -0.1537093 -0.21383739
0.0051070396 0.16065803 0.10589553 -0.14801025 0.10308916 -0.06228396 -0.03325121 -0.011629576
-0.18081105 -0.09315225 0.004440303 0.13917726 -0.13424106 0.09285287 0.04104452 -0.015043161
-0.054142315 -0.1896921 0.07283428 -0.123609625 0.21797913 0.08294764 0.08139228 0.22065963
-0.016215388 -0.08786578 0.0020938502 -0.06825188 0.07336192 -0.22879224 0.03405995 -0.03063572
-0.05391558 0.13016146 -0.17661744 -0.050268594 0.17501082 0.032755565 -0.14855725 0.13433076
-0.19150208 0.1474629 -0.09051808 0.076470874 0.1712782 0.20365256 0.06809008 0.098371014
-0.053121407 -0.05352102 -0.21016319 0.104815245 0.043036103 0.06538719 -0.1453771 -0.2276408
0.11897873 -0.106700994 -0.071326785 0.065295026 0.08677593 -0.22029997 -0.053688146 0.19814639
0.038251616 -0.13154586 0.1822467 -0.21355756 0.019834785 0.048863344 0.019455213 0.2103724
0.039538376 -0.1464586 -0.03010105 -0.09246992 0.190076 0.025177097 -0.20841977 -0.00056168996
-0.0013166353 0.008471137 0.052753437 0.12239265 -0.18197523 0.06882448 -0.11316653 0.14959055
-0.12362539 -0.16269293 -0.13009478 0.1300364 -0.039696645 0.19982113 -0.19136125 0.070432514
-0.07891875 0.028811809 0.14399318 0.114712924 -0.21497294 -0.029382912 0.092561476 -0.228494
-0.16816892 -0.22854044 0.026626952 0.04522431 -0.09317834 0.09009237 0.030473525 0.095280014
0.20147997 -0.15188317 -0.17721559 0.21879987 -0.11682553 0.16099653 -0.075976096 -0.04772568
-0.101040915 0.067832716 -0.014203811 0.18269475 -0.22611785 -0.0047393567 0.032260854 0.07129103
0.17797402 0.076465055 -0.19820994 0.027552444 -0.09416768 0.13973399 -0.09692541 -0.02292837
0.055002853 0.14895897 -0.10801542 0.16988733 -0.16090645 -0.051131744 -0.14264175 0.04458829
-0.18585512 -0.0025343879 -0.15723082 0.1466552 -0.20782813 -0.09760423 -0.19425943 -0.14277335
0.012204439 0.106966846 0.11286773 -0.18025059 -0.03611706 -0.043559108 0.09439259 -0.01844458
-0.025347644 -0.14150102 -0.15813933 -0.0065576276 0.105228 -0.11194506 0.04448715 0.10960166
-0.08056755 0.20744629 0.20844124 0.13534464 0.09566197 -0.18112156 0.120759554 -0.021871762
0.176509 -0.18774259 -0.0036870528 0.209015 0.04166481 0.071273886 0.0014105558 -0.10662561
0.110637866 0.1804149 0.12339554 -0.15341744 -0.15361413 0.22214505 -0.027580619 0.09341745
0.06275972 -0.14438146 0.19698831 0.038556 -0.10879992 0.21688488 0.0733588 0.05233755
-0.15592405 0.20155378 -0.11363699 -0.076906346 -0.22294623 0.060408633 -0.12783608 -0.20330253
0.16071296 -0.20916027 -0.043065794 -0.08301777 0.012620508 0.029809529 0.2032385 0.066664316
-0.070442066 -0.13497522 -0.057581447 0.12444139 -0.22223788 0.083929546 -0.010677802 -0.105407834
0.14940268 0.11358012 0.003968342 -0.11142266 -0.13849033 -0.05854716 -0.14103884 -0.03624937
0.07345233 -0.021110151 0.02498929 -0.080240875 -0.0589464 0.13240156 -0.02311264 0.053911317
-0.15684147 -0.1310905 0.17489131 -0.0023183383 0.22336136 -0.07466229 0.119533986 0.096215434

conv_blocks_K.1.0.bias f4 [32]
00000000: 0cd1 1ebe 4e1e 3cbe e262 883d 3637 56be
00000010: db62 693e 91a9 163e 9b08 03be 6dff ed3d
00000020: e63e 663e a91c 1cbe bbac 173e b363 7e3d
00000030: ca77 4bbe d062 4fbd 84f6 d0bc 2c40 20be
00000040: d2e5 4ebd 1e1c 0b3e 9606 353e b23f 003d
00000050: 954f 9dbd 502b 61be 8094 1ebe 4bc5 30bc
00000060: 1553 4639 4015 a63d d8eb abbc 331b 56be
00000070: b67d 0fbe 5a0e 51bd 37b5 223e 0c01 683d
-0.15509433 -0.18370935 0.066594854 -0.20919499 0.22791617 0.14713122 -0.12796251 0.11620984
0.22484931 -0.15245308 0.14811985 0.0621068 -0.19869915 -0.050631344 -0.025508173 -0.1564948
-0.050512142 0.13584945 0.17678294 0.031310745 -0.07681195 -0.21989179 -0.15486336 -0.010789226
0.00018913702 0.08109522 -0.020986483 -0.20908813 -0.14012799 -0.051039077 0.1588944 0.056641623

conv_blocks_K.1.2.weight f4 [32, 32, 3, 3]
00000000: ea14 17bb a25c 46bd 6c14 31bd c8af 65b9
00000010: d009 13bd 0eb3 3d3d d571 5cbd 0b3b d3bc
00000020: 88be 50bd 4534 2a3d 0a09 393d 902c c53c
00000030: f0a5 f7bc 0061 39bd 8824 4fbd f2b8 c43c
00000040: de8b 803b d2dd d73c c254 903c 138a 383d
00000050: c631 5b3d 5cdf f73c 3672 333c 306f 0abd
00000060: 015c 53bd 4310 443d d8ea 463c 3a18 4a3d
00000070: b7a4 c4bc 3e44 74bb 0009 2bbd 51d2 893c
00000080: 1f7c 263d aebb 4b3d 168a 443a 3455 76bc
00000090: ae68 213d ecc8 eb3c b392 f93c 300f bbbc
000000a0: efe9 163c 98b7 81bc 6587 f8bb 5756 85bc
000000b0: c800 333c 14cd ab3c 5c81 493c beb6 dfbb
000000c0: d441 2cbd 0c01 79bc 3a6a 343d 1f73 0ebd
000000d0: e16d 4dbd 32b6 57bc ec8a 683c a001 1fbd
000000e0: 893c 573c 77d7 debc 844c a1bc b735 f9bc
000000f0: e3c8 0cbb b601 2dbd cffe febb d944 b5bc
00000100: 24b0 383d 7fa5 d2bc 09b6 5a3c de9e f3bc
00000110: 897a c83c d792 3ebd 0ac4 a8bc 8ab0 c43c
00000120: 742b 3a3d 4468 c33c 4994 0bbd 39da 183c
00000130: cdf9 f73a 54d9 213d d259 40bc d337 0ebd
00000140: d023 053d adbf 813c 5ac5 b9bc fb40 2d3d
00000150: 6610 e03c a204 4abd 63ef 093d 3634 babc
00000160: c1d9 20bc 1c7e ff3c 1358 fd3b a65c 573d
00000170: e99b 40bd 9bba ce3c f437 253c c558 80bc
00000180: 3c6c 66bc c103 c23c 2ca5 1c3d 8e3c 53bd
00000190: 7c6b a93c 2764 15bd fdeb 3a3b ab7c e5bc
000001a0: 0b38 2f3b c908 45bd bdc2 be3c 29e4 13bd
000001b0: e132 023d 1582 23bd a52a 1d3d 131d f93c
000001c0: 6b54 5cbd de4e 3abd 1032 b5bc 3534 12bd
000001d0: 8f6e 5bbd 1f45 19ba 9200 07bd fb62 813c
000001e0: c90c 42bd c9fd f1bc fada 9c3c 711b 803c
000001f0: 9814 213d bda8 35bd 220a 26bd 0ea5 a0bc
00000200: ae04 433b 09a1 80bc 80e1 2f3c a762 1e3d
00000210: a038 243c f3f3 1c3d aeb4 123c 36b8 9a3c
00000220: b80c 30bd 5443 bfbb 6d85 2d3d e7a0 94bc
00000230: 630a 84bc 1509 abbc 60ea 7d3c ee0a 403d
00000240: c936 973c 95f1 3f3d 489f 123d 4039 75bb
00000250: 7346 7bbc 8dc8 71bc caa3 9d3c 2148 093d
00000260: 63e6 52bd b9e8 bbbc cddf 51bd 2fb2 01bd
00000270: 6f9b 2f3d fd63 493d f115 0dbd c1a1 c5bc
00000280: b1a8 aa3c 0e56 943c f76e 133c 0e24 ddbb
00000290: ca26 e4bc 8106 45bd f374 4abc 4ecd 35bd
000002a0: d024 493d a052 463d 006d 1dbd 45b3 a93c
000002b0: 79e3 1c3d 087c 343d 0523 303d 555b 13bd
000002c0: 8fdd 283d fdd3 503d 7002 333b df91 c13c
000002d0: 6d71 99bc 89c3 583d d3b9 45bd b93b 00bd
000002e0: 00d8 a23b 6d25 abbc b3e9 89bc ac8e 803c
000002f0: a7b1 e53c d49d 073d 5642 373d 167f c53c
00000300: 8adb abbc ff18 7b3c 6462 fabc 4293 ec3c
00000310: 78da 9e3c 52cf 363d 2f5a e63c 232e 443d
00000320: a073 00bc deaa 3bbd b979 283d a7ab 45bd
00000330: fefe 393b b87f 803b 6ae6 9a3b 55b2 103d
00000340: 674a de3b c884 83bc fbf6 e8b9 e9ff 59bd
00000350: 0708 0fbd f022 19ba eefe 443d 9b18 1dbc
00000360: fa7f d93c 93e3 04bd cb42 27bd 3ba2 b93c
00000370: 7180 ee3c dd33 1bb8 ffc4 213d 8df1 923c
00000380: f894 ca3c f04e 463c edd4 5d3d 1b2d 26bd
00000390: 4262 f0bb 66a4 07bd 9546 00bd 8a8a 513c
000003a0: f2c7 08bb 5045 acbb 15d2 8e3c 1cec 433d
000003b0: ad95 47bd 623f 5dbc 254e d8ba c239 e43c
000003c0: 9d62 a3bc 4a69 4cbd ac9e 96bc 9c20 dfbc
000003d0: 7fa7 50bd a4b8 16bd 64a2 97bc a315 783c
000003e0: 6335 e2bc 0c9a 61bc 3d0c 33bd 4712 f3bc
000003f0: 26ad c2bb 920c b3bc e43a 4bba 0fe4 3e3c
-0.0023053237 -0.048428185 -0.043232366 -0.00021904625 -0.03589803 0.046313338 -0.053819496 -0.02578499
-0.050962955 0.041553754 0.045174636 0.0240691 -0.030230492 -0.045258522 -0.05057195 0.02401397
0.0039229235 0.02635089 0.01761854 0.045053553 0.053514265 0.030257873 0.010952523 -0.033797443
-0.051601414 0.04786707 0.012140952 0.04933951 -0.024004323 -0.003727212 -0.04175663 0.01682392
0.040645715 0.049739532 0.0007497383 -0.015034962 0.03940647 0.02878233 0.03046546 -0.02283439
0.009211048 -0.015834615 -0.0075844997 -0.016276522 0.010925479 0.020971812 0.012298908 -0.0068272045
-0.042054966 -0.0151980035 0.044046618 -0.034777757 -0.050153617 -0.013165997 0.014193278 -0.03881991
0.013136991 -0.027202351 -0.019689806 -0.030421121 -0.0021482043 -0.04223796 -0.0077818404 -0.022127556
0.045089856 -0.02571368 0.013349065 -0.02973884 0.024472492 -0.046526756 -0.020601291 0.024009962
0.045451596 0.023853429 -0.034076963 0.009329372 0.0018919051 0.0395139 -0.011740165 -0.034721207
0.032504857 0.015838468 -0.022677112 0.0422983 0.02735157 -0.049320824 0.033675563 -0.022729974
-0.009817542 0.031188063 0.0077314465 0.05257859 -0.047023688 0.025235465 0.010084141 -0.015667329
-0.014063891 0.02368343 0.038243458 -0.05157142 0.020681135 -0.036472466 0.0028522008 -0.028013548
0.0026736285 -0.04810408 0.023286218 -0.036106262 0.031786803 -0.039918978 0.038370747 0.030409371
-0.053791445 -0.04548537 -0.022118598 -0.03569432 -0.053572234 -0.00058467867 -0.03295953 0.015794268
-0.047375474 -0.02953996 0.019147385 0.015638085 0.03932628 -0.044350374 -0.040537007 -0.019609954
0.0029757428 -0.015701788 0.010734916 0.0386683 0.010023266 0.038318586 0.00895421 0.018886667
-0.04298088 -0.0058368836 0.042363573 -0.01814313 -0.016118234 -0.020878354 0.015497774 0.046885423
0.01845874 0.04686125 0.035796434 -0.0037418157 -0.015336621 -0.014757288 0.01924314 0.033516053
-0.051489245 -0.02293812 -0.051238824 -0.03166407 0.042872842 0.049167622 -0.034444753 -0.024124982
0.020832391 0.01810744 0.008998624 -0.006748683 -0.027850527 -0.048101906 -0.012356984 -0.044385247
0.049107373 0.04841864 -0.03843403 0.020715365 0.038302872 0.044063598 0.043002147 -0.035975773
0.04122692 0.050983418 0.0027314685 0.023629127 -0.018730843 0.05292085 -0.04827292 -0.031306956
0.004969597 -0.02089187 -0.01683507 0.015693031 0.028038813 0.0331095 0.044740997 0.02410845
-0.020978708 0.015325784 -0.030564494 0.028878812 0.019391283 0.04463131 0.028119175 0.047895562
-0.007840067 -0.04581725 0.04113171 -0.048259404 0.0028380747 0.0039214753 0.0047271745 0.03532632
0.006783772 -0.016054526 -0.00044434503 -0.05322257 -0.034919765 -0.0005841693 0.048094682 -0.009588386
0.026550282 -0.032443594 -0.040835183 0.022660365 0.02911398 -3.700318e-05 0.03949451 0.017937446
0.024729237 0.012103781 0.05415814 -0.04057036 -0.007335932 -0.033115767 -0.031317312 0.012789378
-0.002087113 -0.005257286 0.01743416 0.047832593 -0.048726726 -0.013503881 -0.0016502781 0.027859572
-0.019944483 -0.0499051 -0.018386208 -0.027237229 -0.050940987 -0.03679718 -0.018510051 0.015141877
-0.027613347 -0.013769638 -0.043712843 -0.029671801 -0.005941051 -0.02185658 -0.0007752611 0.011651053

conv_blocks_K.1.2.bias f4 [32]
00000000: 787b 10bd 9525 0ebd 7a6d 1a3d be89 153c
00000010: b251 273d 9a48 a33b 4f60 fabc 067f aebc
00000020: 0f80 5fbc 4e4c 063d 3931 48bd 7a45 de3c
00000030: 544e 8dbc 6ee2 683d 6cd2 523b e222 e63b
00000040: 516a 6cbc 162a 8a3c 01e1 c73b 8c3c bbbb
00000050: ec8b 783d 9ba4 6fbd e310 503d 4079 4b3d
00000060: 1266 da3c db20 99bc dc52 d9bc 964c 30bd
00000070: 5e7a 0d3d ded1 f33b 8b56 9a3c 1821 be3c
-0.035274 -0.03470381 0.03770206 0.009127079 0.040849395 0.00498302 -0.030563502 -0.021300804
-0.013641371 0.032787614 -0.048875067 0.027132738 -0.017249264 0.056856565 0.0032168878 0.0070232013
-0.014429645 0.016865771 0.0060998206 -0.005714005 0.060680315 -0.05850659 0.050797354 0.04967618
0.026659999 -0.018692425 -0.026528768 -0.043041788 0.034540527 0.0074407896 0.018840095 0.02320914

conv_blocks_K.1.4.weight f4 [2, 32, 3, 3]
00000000: e49b dc3c 54c8 91bb f652 033d e9ed 493c
00000010: 7fa9 8d3c 2d9e b03b 6af9 e33a ff6c 7bbc
00000020: 944a 51bd 8a37 403c bfba b83c 153b 4c3d
00000030: f49a 3c3d 414d 55bd b5b2 643c 8712 4c3c
00000040: f6ad 2abd b8e0 13bc 9bd7 b3bc b47b 05bd
00000050: 91c6 413d f480 67bd e508 41bd 54e4 803b
00000060: 57eb 6d3d ff78 813c 2ab7 f83c 516c fe3c
00000070: 56fc aa3c 46eb b7bc 6898 1f3d faa3 febc
00000080: 4896 473d 2743 d8bc bf90 ad3c c10f a83c
00000090: 9ebc 7cbb 7693 25bb 0f78 743c 0e22 63bc
000000a0: 6e5b 8fbc 13c8 53bd 4fee d43c b9be 263d
000000b0: e668 7d3b 47f7 5abd de27 5fbd efab 0c3d
000000c0: 3a4e c13c 8023 3cbd bfea 50bd efbd 343d
000000d0: e31f 89bc 029e 363c 784f 883c e558 813b
000000e0: 7173 5c3d 2379 b13b ef83 2c3d ac2b 323d
000000f0: 21d5 293d b6a9 5ebd ada2 c139 15bc 6f3d
00000100: ee9e bd3c ae2f b8bb fe78 3e3c 00a3 40bc
00000110: e952 363d 9d06 0bbd c013 41bd 3a4d 203d
00000120: 52ab 4e3d e7f4 edbc 9424 1a3d ea86 1e3d
00000130: cd5b 2ebc 8804 3e3d 3272 a8bc eb94 05bd
00000140: 00b0 e63c 6ec2 25bd 54a9 143d 572c 3bbd
00000150: 2a57 c33a 9cf6 493b 5b25 45bd 0f74 d93c
00000160: 5159 1abd a7da 3d3d 7d54 35bc eb26 463d
00000170: 4066 18bd 0a96 8c39 af69 34bd 4d03 c13a
00000180: af9b babc 5052 9bbc 114c 113d 125a 003c
00000190: 8675 733c fe6f 5a3d d3ae 95bc 9e2c 33bb
000001a0: 4f99 88bc 4757 803c 4d21 0cbd 3305 ecbc
000001b0: 78bc 1b3d 5ff6 473d 3c59 a7bc 7dab f5b9
000001c0: 4f61 fe3c b55a 973c 188e 1b3d 9af0 21bc
000001d0: 27ac 673d 4c30 5abd 4d0c 0dbd 459f dabb
000001e0: 87af 6b3c 72a4 8fbb ffb9 95bc a795 3e3d
000001f0: 5ab9 61bd 397f a2bc b69c a7bb 7e59 84bc
00000200: 946a b93a 003e b73c 4abd 273d b94a c53c
00000210: eff5 3d3d 8175 92bc e745 5e3d 5400 02bd
00000220: 94d0 71bb 4f44 673d ad07 e53c 0e64 51bd
00000230: b225 ddbc 3aba e3bc 9993 b33c c961 30bd
00000240: d091 ffbc 7656 3d3d 3ca1 3ebd e128 4dbd
00000250: c432 2f3d a6c1 afbc d42c 3239 0590 f43c
00000260: 6494 133c 16e0 2a3c 4c7f 64bd dad0 443d
00000270: cb49 333d e96c 5fbd e97e 643d e944 3bbb
00000280: c71a 2ebd b1c1 47bc 6153 f2bc 329f c13c
00000290: 001e 58bd 3881 423d 8f3a 99bc 747b 55bd
000002a0: 8839 3abc 517f 5c3d c9b5 233d 1d09 50bd
000002b0: 4b4e 91bc de0f 31bd 0545 89bc 4075 88bc
000002c0: 6a93 d8bc cec4 aa3b 66c5 273d b0a3 56bd
000002d0: 747f 1cbd 0123 41b9 ccf2 99ba 6540 5d3d
000002e0: dc74 38bd ddcd d7bc f45a 3abd ca92 4f3c
000002f0: 195d 15bc 6a6c 58bd 5f47 a23a 73e5 52bd
00000300: cc27 cd3c a822 63bc 5119 2ebc 6945 66ba
00000310: b7da 39bc 92bb 463d 36cc 23bd c5b8 80bc
00000320: c1dd 653d 15a8 ecbc c7ec 4d3b 9753 87bc
00000330: 4b0c e9bc 86f0 98bc d5d7 08bd cfa1 123d
00000340: cf68 fabb ad7c 603d b578 d2bc e332 84bc
00000350: 5163 26bd 4f8c 163d ed8a 3fbc 1c94 0d3c
00000360: b2d4 8dbc 3bb4 283c 9d0c 033c 6cf6 54bd
00000370: b331 2f3d b884 3c3d d21a f83b c682 183d
00000380: d485 063d 2815 40bd ee59 0cbc 61e5 33bd
00000390: 80f3 cf3c ad5b a53c bfe2 cdbc b906 8c3b
000003a0: afa8 1f3d 9fea b0bb 5df0 57bd 4d6a 423c
000003b0: 6368 d53c ffd0 69bc 0c1d c7bc 13a6 a23c
000003c0: df95 5cbd cd93 293b 3719 4bbd ca37 3fbd
000003d0: 27fb 51bd e0f5 dfbc 5078 65bd 6227 d9bc
000003e0: 66af 06bd fd3e acbc f222 0dbd ba26 a03c
000003f0: 5992 5fbd b623 d93c f604 cdbc 4032 f6bc
0.026929803 -0.00444893 0.03206154 0.012324789 0.017292736 0.00538995 0.0017393057 -0.015345811
-0.051096514 0.011731992 0.022549985 0.049861033 0.046046212 -0.05207563 0.013958623 0.012455589
-0.04166981 -0.009025745 -0.021953395 -0.032588676 0.04730851 -0.056519464 -0.047127623 0.003933469
0.058085766 0.015804766 0.030360777 0.031057509 0.020872276 -0.022451054 0.038963705 -0.03108405
0.048727304 -0.026399208 0.021187184 0.020515325 -0.0038564573 -0.0025264896 0.014921202 -0.0138631
-0.017499652 -0.051704478 0.02599254 0.04070923 0.003866726 -0.05345848 -0.05448138 0.034343656
0.023596872 -0.045932293 -0.05100512 0.044126447 -0.016738838 0.01114607 0.016639456 0.0039473646
0.05382103 0.005416052 0.04211801 0.04349868 0.04146302 -0.054361068 0.00036933032 0.05852898
0.023147073 -0.0056209182 0.0116255265 -0.011757612 0.044512663 -0.033941854 -0.047137976 0.03913615
0.050456353 -0.029047443 0.03763254 0.038702883 -0.010642004 0.04639104 -0.020562265 -0.032612722
0.028160095 -0.040468626 0.036294296 -0.045696583 0.0014903296 0.0030817157 -0.048131328 0.026544599
-0.037682835 0.0463511 -0.011067507 0.04837696 -0.03720689 0.0002681467 -0.0440461 0.0014725715
-0.022779314 -0.018960148 0.035472933 0.007833974 0.014859563 0.05332946 -0.01827184 -0.0027339826
-0.016674666 0.015666617 -0.034211446 -0.028811073 0.038021535 0.048818942 -0.020428292 -0.0004685781
0.03105226 0.01847587 0.037977308 -0.009884024 0.05656066 -0.053268716 -0.03443556 -0.0066718184
0.014385111 -0.004383617 -0.018277166 0.04652944 -0.055108406 -0.019836055 -0.005115117 -0.016155954
0.0014146143 0.022368431 0.040952004 0.024083482 0.04637712 -0.017878296 0.054265883 -0.031738594
-0.0036898004 0.05646163 0.027957762 -0.05112081 -0.026995514 -0.02779876 0.021920966 -0.043062005
-0.031197459 0.046225034 -0.046540484 -0.050087813 0.042773023 -0.021454643 0.00016992103 0.02985383
0.009007547 0.010429403 -0.055785462 0.04805074 0.043771546 -0.054547224 0.055785093 -0.002857501
-0.042506006 -0.012192176 -0.029580774 0.02363548 -0.052762985 0.047486514 -0.01870468 -0.052119687
-0.011366256 0.053832356 0.039968286 -0.05078994 -0.017737528 -0.043228023 -0.016756544 -0.016657472
-0.02643748 0.005211449 0.04095974 -0.0524022 -0.038207486 -0.00018418954 -0.0011745333 0.05401649
-0.04503332 -0.02634328 -0.045496896 0.012669275 -0.0091164345 -0.052837767 0.0012380889 -0.05148835
0.02504339 -0.013863243 -0.010626153 -0.00087841466 -0.01134365 0.048518725 -0.039989673 -0.015713105
0.056119684 -0.028888742 0.0031421648 -0.01651935 -0.028448245 -0.018669378 -0.03340896 0.035798844
-0.0076418887 0.0548064 -0.025692323 -0.016137546 -0.04062206 0.036754902 -0.011690837 0.008641269
-0.017313335 0.010296877 0.007998613 -0.05199282 0.042772006 0.046025008 0.0075715566 0.03723409
0.032842472 -0.046895176 -0.008566363 -0.043919925 0.025384665 0.020185316 -0.025132535 0.0042732623
0.03897923 -0.0053990628 -0.052719463 0.011866164 0.026050752 -0.01427102 -0.024305843 0.019854581
-0.053853866 0.002587545 -0.049584594 -0.046684064 -0.05126491 -0.027338922 -0.056022942 -0.026508037
-0.032882117 -0.021026129 -0.034457155 0.019549716 -0.054582927 0.026506286 -0.02502678 -0.030053258

conv_blocks_K.1.4.bias f4 [2]
00000000: 8060 083d e272 253d
0.033295155 0.040392764

conv_blocks_I.0.0.weight f4 [32, 2, 3, 3]
00000000: a089 613c 3e93 123e a513 c53d 4b4e c03d
00000010: c707 42be d8c6 55be ce35 d03b 96bc c2bd
00000020: b3f7 263d 75d3 113e 491d 2dbc ca77 63be
00000030: 1f8e aabd 2166 5e3e e857 23be a1bd ab3d
00000040: 6c11 823d da88 b33d d3f7 1abe 7cc5 333e
00000050: 8b8d e8bb ecbf 033d 9822 443d 7f6a 14b8
00000060: 64ec 77bd 2ce8 51be e1c4 2d3e f3ae 823d
00000070: 7071 cabd 2ee1 41be 8258 a0bd 27e4 8dbd
00000080: 92d9 363e bc0a b83d b1ff 47be 3393 bdb9
00000090: 4b96 c1bd ec44 f83d ed69 bab6 980d bc3d
000000a0: 04ad da3c 53a5 32be 1217 c5bd 3ca0 22be
000000b0: 60e7 c53c cd23 7abd f49e a5bd 19cd 633e
000000c0: b86f 093e e5d8 2d3c ecb3 1d3e 2e69 52be
000000d0: 261d 823d f1c5 1bbe d95a a3bd e7fd 53be
000000e0: aa14 833d 9eea 5cbe 98eb 0f3e d11f bd3d
000000f0: 11ba e13c 6d00 0c3e fb95 32b9 3ea7 f5bd
00000100: eade 1f3b 43d4 96bd 45f7 bf3c b01e 1f3e
00000110: 08bd 56be 585d 3bbe 4043 fe3d ccc1 e9bd
00000120: 1568 463e 647f 403e 6a17 46bb ecac 143e
00000130: ddcd 113e 5b13 0abe 05f6 3f3e 6818 753c
00000140: c9bc a93b a0fd 1e3e 1030 3fbe f992 5abe
00000150: abcb c0bd 7b80 f1bd 7094 e0bd 0620 4a3d
00000160: 4874 663d 66c3 b73d db35 093e 7e24 663d
00000170: 9cf3 aa3d 8af8 873b 4aad 373e d9ae 66bd
00000180: 3d02 083d b313 a03d 8f84 6d3b 809f f3bd
00000190: f191 4cbd c305 b9bc 5328 20be ac1e f7bd
000001a0: bbe4 5b3e 7919 593d 98a6 9f3c d763 cc3c
000001b0: 9b88 5ebe 366d 013e 21fb da3d d35d 413e
000001c0: 3c46 da3d a963 233d 37dd 363e 9077 4f3d
000001d0: 0387 433e 3881 37be 879e 5cbe a152 c43d
000001e0: ffcd ae3c 637b e03d c1e8 d3bd 3e08 36bd
000001f0: 3f14 913d f43f 8c3d f0c8 3cbe e78d 2f3d
00000200: 1b1a 8c3c f1f8 b9bd 5d64 06be 0cab 193d
00000210: 897b 673e 071f 5b3e 34e3 15bc 3435 813d
00000220: 94fd 513e 4aac 883d c8cb 9bbd 4bfc 013c
00000230: 939f 243e 4947 a53d f075 0bbe 00cd 27bd
00000240: e1bb 58be c0c3 34b8 af98 fcbc a485 86bd
00000250: 5f8f e63d 311f 463e aa94 c53d 85f1 0e3e
00000260: d91f 5e3d be99 693d d749 1dbe 4c7d b53d
00000270: 15f0 c23c aea5 4fbe 0c09 5cb8 2103 d13c
00000280: c791 653e 6512 623e 300e af3d 5809 c43c
00000290: 7474 dabd f539 d5bb 8bb1 5a3c 623b 4fbe
000002a0: f59a 2cbe f02d a8bd d0dc 56bd 0a66 fbbc
000002b0: 4b8b 7ebd 67c5 5bbe 56d8 963d 48b0 133e
000002c0: 8776 343e a125 2bbe 3df9 afbc 2d9f 453d
000002d0: ea26 47bd a519 5dbe 8e46 c8bd a228 63be
000002e0: e4a4 48be 9dff 59be cd5f e2bd 8a9d 6838
000002f0: a5cb fd3d 5cce ed3d 2a8c 4d3e 4c48 a1b9
00000300: 425e 203e b2ec 60bd df62 593e 9869 263e
00000310: 0f12 dabd 3b20 05bc 85b3 05be 3b83 6b3e
00000320: 85db 1a3e a0ba 41be f943 0a3e 485a c23d
00000330: 38e4 c83d b84b bdbd 0591 37be 1926 0f3e
00000340: aa6b 0a3d 26db 2bbe 5c7b 693e 373d 403e
00000350: b4bb 81bd 6f93 0bbe 6d39 763c 469a 5b3e
00000360: 9b6d 4d3e a81b 063e 6c30 5cbe 37c5 133e
00000370: 5006 3b3e 57a3 3ebe d940 05be fbd0 5d3e
00000380: 4296 11be 5afd f5bd 1aa5 f63d 5087 43be
00000390: 7d30 40be bfe7 dc3c 4053 ed3b e60f acbd
000003a0: 45ef f83c 39c7 053e 4a31 0c3d af7c 3a3e
000003b0: fac0 22be 967c 853d e613 21be 81d9 2f3e
000003c0: 77b3 3f3e 83bb 4cbc 33dc bdbd 839d a4bd
000003d0: beb5 0abe 2da4 69be 32e4 bcbb 87e6 f8bd
000003e0: 4459 843c 3d4d 393d 5c11 6bbd e9ad a3bd
000003f0: effe 1e3e cec3 81bd d96c 51be a2c7 953c
0.0137657225 0.14313981 0.096228875 0.09389933 -0.1894828 -0.20876634 0.0063540703 -0.09508626
0.040763568 0.1424082 -0.010566064 -0.22213665 -0.08327889 0.21718647 -0.15951502 0.08385778
0.06350979 0.08766337 -0.151336 0.17555803 -0.0070969514 0.032165453 0.047884554 -3.5385132e-05
-0.060528174 -0.20498723 0.16969635 0.06381025 -0.09884918 -0.18933555 -0.078293815 -0.06928282
0.17856434 0.089864224 -0.19531132 -0.0003615856 -0.09452494 0.12122521 -5.5555633e-06 0.0918228
0.026693828 -0.17445879 -0.09623541 -0.15881437 0.02415818 -0.0610693 -0.080869585 0.22246207
0.13421524 0.010610794 0.15400666 -0.20547935 0.06353216 -0.15212227 -0.07976312 -0.20702325
0.06400426 -0.21573874 0.14054716 0.09234584 0.027554544 0.13672037 -0.00017031275 -0.119947895
0.0024394342 -0.073647045 0.023433337 0.1553905 -0.20970547 -0.18297327 0.12415171 -0.11413917
0.19375642 0.18798596 -0.0030226358 0.1451909 0.14238687 -0.13483946 0.18746193 0.014959432
0.0051799756 0.15526438 -0.18670678 -0.21345128 -0.094138466 -0.11792084 -0.10965812 0.049346946
0.05626324 0.08972816 0.1339945 0.056187145 0.08347246 0.004149501 0.17937198 -0.05631909
0.03320526 0.07816257 0.003624234 -0.118956566 -0.049943868 -0.022585755 -0.15640382 -0.12066397
0.21473972 0.05300281 0.019488618 0.024949951 -0.21731798 0.12639317 0.1069243 0.18883447
0.106579274 0.039889965 0.17857824 0.050651133 0.19094472 -0.17920387 -0.21544848 0.09586073
0.021338461 0.10961034 -0.10347129 -0.044441454 0.0708394 0.068481356 -0.18436027 0.042859938
0.017102292 -0.09080685 -0.13124223 0.03751664 0.22605719 0.21398555 -0.009148408 0.06308976
0.20506889 0.066734865 -0.076072276 0.0079336865 0.16076498 0.08070237 -0.13619208 -0.040966988
-0.2116542 -4.309765e-05 -0.030834524 -0.06568459 0.112578146 0.19347836 0.09647496 0.1395932
0.05422959 0.057031386 -0.15360199 0.08861789 0.02379612 -0.20278046 -5.2460513e-05 0.025514187
0.22418891 0.2207733 0.08547628 0.023930237 -0.10666743 -0.006507153 0.013347994 -0.20237496
-0.16855986 -0.08211887 -0.052456677 -0.030688304 -0.06214456 -0.21462022 0.073654816 0.14422715
0.1762334 -0.16713573 -0.02148115 0.048247505 -0.048621096 -0.21591814 -0.09779082 -0.22183469
-0.19594151 -0.21288915 -0.11053429 5.545983e-05 0.12392358 0.116116256 0.20073 -0.00030762178
0.15660957 -0.05491323 0.21229123 0.16251218 -0.10647976 -0.00812536 -0.13056763 0.22999279
0.15122803 -0.18918848 0.13502492 0.09489876 0.09809154 -0.09242958 -0.17926414 0.13979377
0.033794083 -0.16782817 0.22800964 0.18773352 -0.0633463 -0.1363046 0.01502834 0.2144557
0.20061342 0.13096488 -0.21502846 0.144307 0.18264127 -0.18616997 -0.13013019 0.21661751
-0.14217475 -0.120112136 0.120432094 -0.19094586 -0.18768497 0.026965974 0.00724259 -0.0840147
0.03038753 0.13064279 0.034226693 0.18211626 -0.15893927 0.065179035 -0.15730247 0.17172815
0.18720804 -0.012495878 -0.09270515 -0.080378555 -0.13545892 -0.22816534 -0.0057645077 -0.121533446
0.016155846 0.045239676 -0.057389602 -0.07992155 0.15526937 -0.06336175 -0.20451678 0.018283669

conv_blocks_I.0.0.bias f4 [32]
00000000: 81a5 643e efda 0fbd 9c49 f8bd 0715 023e
00000010: f8f3 ba3d a1bf 0b3e 6325 4ebe 695b 5f3e
00000020: f932 183c ef70 40bb 2769 443e a64e 503e
00000030: 888e 413e e291 123e f626 e4bd bc40 9f3d
00000040: e705 81bb 3eff 59be 6072 f0ba b5a3 04bc
00000050: 0519 a7bd 1307 59be 2f61 063e b5f9 b4bd
00000060: 7cfb 3d3d 9cfc cb3d d330 323d ad80 6bbe
00000070: 5a4b 25be 33f7 ae3d 512d 20bd 6781 6abe
0.2232876 -0.0351209 -0.12123415 0.12703334 0.091285646 0.1364732 -0.2013145 0.21812214
0.009289497 -0.0029364189 0.19180737 0.20342502 0.18902028 0.14313462 -0.11140244 0.07776019
-0.003937471 -0.21288773 -0.0018344633 -0.008095671 -0.08159069 -0.21194105 0.1312301 -0.0883669
0.046382412 0.09960291 0.043503594 -0.22998305 -0.16142026 0.08543243 -0.039105717 -0.22900926
