kiki_checkpoints/kiki_epoch_100.pth (torch, 531341 bytes, 72 tensors)

conv_blocks_K.0.0.weight f4 [32, 2, 3, 3]
00000000: 2a0d 4c3e c416 a13c 8ef9 1c3e e3a3 543e
00000010: c1e9 343c e7ff 0fbe e17b 633e 70aa 65bd
00000020: 37fd 74bb 1f62 2a3e baf8 573e 11ee 24b6
00000030: 7564 13be 7d89 56bd 5437 a4bd a5e3 cebd
00000040: 2f7f c4bd dd6d c8bd e00c 313e 53ae 143d
00000050: 20ce a3bd 63bc 42be e255 3c3e d81f 02be
00000060: b1c7 8abd 9298 8abd a346 aa3c 594d e53c
00000070: 2f29 553d fb23 783d 6f4b 5abe 6c74 3cbd
00000080: 62af a4bd b894 12be 50fe bfbd 3365 a2bd
00000090: bc83 3d3e 1898 1f3d b9d2 113d bc6a 093e
000000a0: f2b2 bdbc d170 fb3a b199 903d 357e 1cbe
000000b0: 88ac 513b 107c be3d fdff 2ebe 4ff2 5cbd
000000c0: f989 9b3d cea8 4b3e 698c 35be ef00 21be
000000d0: 1414 35be 1fa3 24be 633f 07bd c94d 4fbe
000000e0: 418a 2d3d d904 6cbd 5b56 cf3d 7550 28bd
000000f0: a92d 6cbd c9eb 5d3e 0faf 943d 2a31 3cbd
00000100: 7fc2 59be c7c0 05bd 787b 033e 1cec e63d
00000110: 5ea3 3a3e d67b a0bd 161c 51be 9104 56be
00000120: de25 9435 137d 11be 5c49 d23d a674 d4bd
00000130: cf7b 863d 11f4 81ba bd40 013d 5c87 13be
00000140: 166c 1b3c bd6c 4f3d a2ba 433e cfbd ce3c
00000150: 481b 453e e5bc 03be 017c f7bd a1ea 5cbb
00000160: 8a42 31be f7b6 34be f88e 563e 27a3 593e
00000170: 30de 38bd cc36 043e e306 4cbc f444 0bbc
00000180: 60c2 303e 9a2f 3a3e a089 da3d a2f2 65bc
00000190: dfcc b2bd 159f 65be 3065 573e d88e d33d
000001a0: 8d6d 6fb7 da31 193e 99e4 613e 4a04 a0bd
000001b0: 0c53 27be acd5 f63d 6137 6abe db4b 443d
000001c0: b671 9d3d 9d47 d93c 140d ba3d b7e3 f7bc
000001d0: 7f95 093e 7c18 c5bd 2307 21be f569 19be
000001e0: 66c2 af3d 3fdc 5f3e 53f0 54be e26e d53d
000001f0: 6050 db3d 10ca 033e b695 a63c 3d95 663e
00000200: ba39 0ebd 1d97 6bbe 7d2c 333b 9d7f d73d
00000210: a102 2ebc f942 4d3e f7dc e2bd 06f6 e23d
00000220: 6a16 683e 8d57 9a3d 5af5 34be eb07 39be
00000230: 016a 33be 9837 a7bd 6e4b 2038 b689 10bd
00000240: 1171 383d 2ef9 02be c635 503e ce5c 343d
00000250: 2504 a6bc 788d 93bd 8495 3bbe d753 2abe
00000260: 4e09 89bd 9ca9 3e3e 0b08 303e e1ab df3d
00000270: 3465 003e 85b6 383e 4de2 033e 1b6d 04be
00000280: a09e 8ebd b927 2d3e 30c8 df3d cc64 44bd
00000290: b806 0d3e 4d18 5bbe 6ce4 a43d c454 ce3d
000002a0: 01af 333e 7522 26be f893 2c3e 7ad3 a43d
000002b0: 633f 1a3d 266c 6abe fccb a03c 4d29 7639
000002c0: 1f46 09be 3e0d 383e 0f4e 6b3e b939 98bd
000002d0: 9100 673e 2f0c 00be 61c5 52be a535 25be
000002e0: 5e8e 263e 759a abbd 8903 65be 5231 393e
000002f0: 19b4 1c3d ef7c 013e 4141 0b3e d2a6 5b3e
00000300: d985 5abb 6a97 59be 67f9 d9bd cc3a 273e
00000310: 76e9 23be ec73 393d a0af 623d a5e6 20bd
00000320: e793 d53d 6865 b8bd 95f7 2836 c91a 2cbe
00000330: debf 91bd 8a41 5e3e 037b af3d 18e7 6f3d
00000340: 93cc 2bbe a26a 47bd 00c4 203e 20a0 223e
00000350: 459f 21be 927d 843c a2a3 443e 331c f4bd
00000360: a8a2 98bb ed48 20be eaf1 3e3e 7e70 a13d
00000370: 8daa 493e d285 223e 79f8 50be eabc 24be
00000380: 0619 85bd 0c86 a3bd ede6 c23d 962c d2bd
00000390: ccc8 01be 0cac 2cbd 08e7 d33c 3e60 15be
000003a0: 733e 69be 6d9a 45be b5ba 673d aa41 d53d
000003b0: 9488 62be 0f7f 08bd dc41 ff3c d159 41be
000003c0: 90e0 a236 485c 103d 35f7 13be d32d 5ebe
000003d0: 9f9f 1dbe 4db2 7dbd b214 34ba 76b4 743d
000003e0: 17c1 883d 2d19 5e3e d63e 26bd ab7a ca3d
000003f0: eaa8 dc3d 95ba 263e 7c0d 343e 23fe a33c
0.19926897 0.019664176 0.15329573 0.20765643 0.011042059 -0.14062463 0.22215225 -0.056070745
-0.0037382373 0.16638993 0.21090975 -2.4576477e-06 -0.1439379 -0.052377213 -0.080183655 -0.101020135
-0.09594571 -0.0978658 0.17290068 0.03629906 -0.079982996 -0.19017176 0.18392137 -0.1270746
-0.06776369 -0.06767382 0.020785635 0.027990984 0.05204123 0.06058119 -0.21317838 -0.046009466
-0.08041264 -0.14314544 -0.09374678 -0.079294585 0.18507284 0.038963407 0.03560135 0.13419622
-0.023156617 0.0019183402 0.07060564 -0.15282519 0.0031993706 0.09301007 -0.1708984 -0.05394202
0.075946756 0.19888613 -0.17729343 -0.15723012 -0.1768344 -0.16077851 -0.033019435 -0.20244516
0.042368177 -0.05762181 0.10123893 -0.041092355 -0.057660732 0.21671976 0.07259952 -0.045945324
-0.212656 -0.03265455 0.12840068 0.11275503 0.18226382 -0.0783612 -0.2042087 -0.2090018
1.103788e-06 -0.14207868 0.102678984 -0.103738114 0.06566583 -0.0009914656 0.03155588 -0.14407104
0.009486219 0.05064081 0.19114164 0.025236992 0.19248688 -0.12865026 -0.12084199 -0.0033709186
-0.17310539 -0.1764792 0.20952976 0.21253644 -0.04513377 0.12911528 -0.012452814 -0.008500326
0.17261648 0.18182221 0.10670781 -0.014034899 -0.08730482 -0.22423966 0.21034694 0.1032998
-1.4271017e-05 0.14960423 0.2205986 -0.07813318 -0.16340274 0.120524734 -0.22872688 0.047923904
0.07687704 0.026523406 0.09084526 -0.03025995 0.13435934 -0.09623811 -0.15725379 -0.14981826
0.085820004 0.21861361 -0.20794801 0.1042154 0.1070869 0.1287005 0.02033506 0.22517867
-0.03472302 -0.23006864 0.002733975 0.10522387 -0.010620744 0.2004508 -0.11077302 0.110820815
0.226648 0.0753623 -0.17671719 -0.18069427 -0.17520906 -0.081649005 3.8217222e-05 -0.03528758
0.045029704 -0.12790367 0.20333013 0.044033818 -0.020265648 -0.072047174 -0.18318754 -0.16633545
-0.06691228 0.18619388 0.17190568 0.10921455 0.12538606 0.18038376 0.12879296 -0.12932245
-0.06963849 0.16909684 0.109268546 -0.04794769 0.13772094 -0.21395989 0.080513805 0.100747615
0.17547227 -0.16224082 0.1685332 0.080481485 0.037658107 -0.22892818 0.019628517 0.00023475774
-0.13405655 0.17973801 0.22978996 -0.07432885 0.2255881 -0.12504648 -0.20583107 -0.16133745
0.16265246 -0.0837907 -0.2236463 0.1808522 0.038257692 0.12645315 0.13599111 0.21450356
-0.003334394 -0.21249166 -0.10643273 0.16331023 -0.16007027 0.045276567 0.05534327 -0.03928246
0.10428601 -0.09003717 2.5178063e-06 -0.16807093 -0.07116674 0.21704689 0.085683845 0.058569998
-0.16777258 -0.048685677 0.15699768 0.15881395 -0.15783413 0.016173158 0.19203046 -0.11919441
-0.004658062 -0.15652819 0.1864697 0.07882784 0.19693966 0.15871361 -0.20407285 -0.1608769
-0.064989135 -0.07984552 0.09516702 -0.1026241 -0.12674254 -0.042156264 0.025867 -0.14587495
-0.22777729 -0.1929719 0.056574542 0.10412915 -0.22122413 -0.033324298 0.031159334 -0.18881918
4.8541187e-06 0.035244256 -0.14449771 -0.21697168 -0.15392922 -0.06193762 -0.0006869539 0.059742413
0.06677454 0.21689291 -0.04058727 0.09886678 0.10774405 0.16282113 0.17583269 0.020018643

conv_blocks_K.0.0.bias f4 [32]
00000000: 6698 da3c 3b99 d43d ce14 8f3d 38ae 5dbe
00000010: e663 38bd 9e35 9bbd 4673 6b3d 9a8c 243e
00000020: 3cd1 26be 22ea e8bd 9d94 323e dfa8 ff3c
00000030: e8c7 803d 1033 bb3c b25c 55be 2c7d 2ebe
00000040: d520 223e 660b a63d 8e13 463e f93f 1fbe
00000050: d165 403e b6d4 2c3e ea9e 84bc 7276 8e3d
00000060: ab5e 03bc a20b 653e f8bc 5e3e 9ed1 a73d
00000070: 495c 0b3e b43c 323e 0722 553e d332 9dbd
0.026683997 0.10380789 0.0698639 -0.2164849 -0.045017146 -0.07578586 0.05748298 0.1606926
-0.16290754 -0.11372782 0.17439504 0.031208454 0.06288129 0.022851497 -0.20836142 -0.17039937
0.15832837 0.08107643 0.19343397 -0.15551747 0.1878884 0.16878018 -0.016189057 0.069561854
-0.008018176 0.22367719 0.21751773 0.08194278 0.13609423 0.17405969 0.20813762 -0.076757096

conv_blocks_K.0.2.weight f4 [32, 32, 3, 3]
00000000: 53ac a13c dc75 043d ffb4 443d cc00 223d
00000010: 0ba6 5a3d 9ba7 bf3c db67 b7bc 6660 2bbc
00000020: 0c8e 233d 8c0f 5d3a 6135 023d 46d3 483d
00000030: 1547 953c dbd9 413d 8d4b 25b7 0aee 643c
00000040: 816b 2fbd 6bc8 f4ba b413 fcbc 5aa4 fbba
00000050: a491 8d3a a007 9ebc 9941 d1bc 0ea6 2abd
00000060: 3b1c e5bc 8d9a bbbc 2f86 fd3c 37de 503d
00000070: 0051 b7bb b4a6 073c 6f50 4e3d 5ac9 57bd
00000080: e867 093d 4455 493c 3a02 fdbc 9d39 533d
00000090: 3e5f 12bc 7836 8d3c 06c6 893c 8191 8e3c
000000a0: 9289 463d 0d2d 8f3b 01e1 373d 4c6b 863b
000000b0: 527a d73c a958 9abc 2603 a7b8 1806 3dbd
000000c0: b4c5 4abd ad9d f93c 8877 453d 91e1 37bd
000000d0: 1ad1 38bc dc12 493b d049 0f3d 86d5 3fbc
000000e0: 82b1 6b3b 6eb7 f6bc 7f32 02bd ae7b 0ebd
000000f0: d49e c7bc 5145 21bc 12bc 5abc 447b 93bb
00000100: 1fb6 f5bc 7fab 58bd 95ef 02bc fb33 513d
00000110: 5880 693c dddf 233c e6e6 943b 26d4 10bd
00000120: 7f22 46bb f0cc 2c3d 56cf fcbc 2821 0f3d
00000130: 132f 80bc d986 a2bc d743 153b f714 363d
00000140: d3a6 bebc ad24 143d e880 22bd 7641 9dbc
00000150: f5b9 9ebc 8e80 093c b77d 833c 3da6 29bb
00000160: cb65 563d b457 09b9 36aa 3d3d aaae 373b
00000170: d41e a13c c208 a53c 9260 4c3c e414 30bd
00000180: 4d91 9abb 997d 19bd bcf3 09bd bf97 e6bc
00000190: de95 01bd 9ca2 84bc 129a 333d d7e1 103c
000001a0: e43e 253d cc69 b0bb fd60 02bd 7309 2cbb
000001b0: 5bd0 a5bc fba5 963b 7847 9b3c 5abd babc
000001c0: e672 fa39 f1c3 a73c 688b 9539 b24e 693b
000001d0: 956f 053a 04b8 4d39 b671 0b3d 75ed 6439
000001e0: 8135 9fbc 6724 54bc 597d 3fbd d367 ed3c
000001f0: 3f46 2abd e715 1ebc e8b4 0f3b 4901 08bd
00000200: 93e5 54bd 779e 06bd 4d44 82bc 7caf 153d
00000210: c606 29bd 9276 f9bc 06bb 43bd 690b 393d
00000220: 0ff5 403c 4e4c 023d 31a5 c33a c1b1 533d
00000230: 8e3d 5fbc c9b7 f4bc 4cb4 9a3c ce2f 2238
00000240: 5dbd c03b 96b6 10bd c889 1bbd 2931 d0bc
00000250: f835 1abc 3b75 af3b b254 e1bc 99e0 4bbc
00000260: 2e14 29bd 1127 823c c176 423d b0fe 1fbd
00000270: d784 263d 2414 ddbc 8209 32bc 95cb 383a
00000280: 5942 593c 3dd1 30bd f34e 283d 88f8 543c
00000290: be83 3ebd 2eca 41bd 7ef4 ab3c 5d8c 33bd
000002a0: 4db5 b43a 0bc6 2e3d 8d20 1b3d 8fcc 583d
000002b0: c7d8 cd3c eec2 1ebd 0463 4d3d 9525 38bd
000002c0: 8536 29bd eb9c 153d 530c 0abd 0186 4abd
000002d0: 5fbf 0bbc e5e0 e8bc a938 713c c95a f9bc
000002e0: b75c 153d 228c 273d 9a2d af3c 6b01 0f3d
000002f0: c472 333d 9038 863c d478 1d3c c3cf 54bd
00000300: 2e43 3ebd ef05 5e3c 40a6 b5bc f535 b73c
00000310: 54b6 e73c 67b2 cb3a ab1c b03c 099a b73c
00000320: aa5d fcbc 7067 9f3c 2289 31bb 2497 f2bc
00000330: 7eb5 57bd ff7c 393c 9df3 b4bc 8b88 343c
00000340: 1c22 083d 0040 b6bb c413 d4bc 39d3 94bb
00000350: e43f dabc 4725 33bb 2cd1 13bc 0b96 4fbd
00000360: 5c41 d63c 53ae e43c 0877 29bd d29f 353d
00000370: 5167 3fbd 3675 e7bc 4a93 463c 2077 a23b
00000380: ad8c f93c cba7 25bc 2e3f 203d d934 31bd
00000390: 11eb df3c bd1c 8b3c e156 7e3c e1e7 ecbc
000003a0: 0de4 453c 48b8 c4bc f8fa c1bc b4a3 d13c
000003b0: 3daf 0f3c 13c6 313d 96a3 543d f35b 563d
000003c0: 006d 4abd ca34 9f3c 22e9 dc3a f5be dbbc
000003d0: ea90 223d 8cda 24bd 7ff6 01ba ced2 3b3a
000003e0: 69ea 3e3a 4eed 54bd 47e8 c33b 7e64 3cbc
000003f0: 510d fbbc 721f 79bc ccac 0d3d 700b 513d
0.01973549 0.032338962 0.048024174 0.03955154 0.053381007 0.02339535 -0.02238839 -0.010459995
0.03993039 0.00084327976 0.031789187 0.04902961 0.018222371 0.047326904 -9.852357e-06 0.013972769
-0.042827133 -0.0018675452 -0.030771114 -0.0019198761 0.001080085 -0.019290745 -0.025543975 -0.04166227
-0.027967563 -0.022900844 0.030947773 0.05099317 -0.0055943727 0.008279491 0.050369676 -0.05268226
0.03354636 0.012288395 -0.03088485 0.051568616 -0.00893384 0.017237887 0.016818058 0.017403366
0.04847104 0.004369384 0.044892315 0.0041021463 0.026303444 -0.018841105 -7.963767e-05 -0.04614839
-0.04950495 0.030470693 0.048209697 -0.04489285 -0.011280322 0.0030681407 0.034982502 -0.011708623
0.0035963957 -0.030116763 -0.031786438 -0.03478592 -0.024367727 -0.0098431865 -0.0133505035 -0.0045007784
-0.029994069 -0.052897926 -0.007991691 0.051074963 0.014251791 0.010002104 0.004544127 -0.03535857
-0.0030232964 0.04218763 -0.030860584 0.03494373 -0.015647447 -0.019839691 0.0022776031 0.044453587
-0.023272907 0.03616779 -0.039673716 -0.019196253 -0.01937578 0.008392466 0.016051156 -0.002588644
0.05234317 -0.0001309801 0.046304904 0.0028027692 0.01966802 0.020145778 0.012474196 -0.042988673
-0.0047170282 -0.037473295 -0.03367971 -0.02814853 -0.031637065 -0.01619082 0.043848105 0.008842907
0.04034318 -0.0053837057 -0.031830776 -0.002625075 -0.020240953 0.004597423 0.018954977 -0.022795368
0.00047769322 0.020479174 0.0002852336 0.0035599885 0.00050901744 0.00019618875 0.03404399 0.00021832234
-0.019434692 -0.012948132 -0.0467504 0.028980171 -0.0415709 -0.009648777 0.0021927897 -0.03320435
-0.05197675 -0.032865968 -0.015901709 0.036544308 -0.041266225 -0.030452047 -0.04778578 0.045176897
0.0117771765 0.03181105 0.001492655 0.05168319 -0.013625516 -0.029872792 0.0188848 3.866833e-05
0.005881949 -0.035330378 -0.037973195 -0.025414066 -0.009412281 0.005354551 -0.027506206 -0.012443685
-0.04127901 0.015887769 0.047476534 -0.03906125 0.04065403 -0.026987143 -0.010866525 0.0007049379
0.013260447 -0.043168295 0.041090917 0.012998708 -0.046512358 -0.047311954 0.020990606 -0.043835033
0.0013786942 0.042669337 0.03787284 0.052929457 0.025127782 -0.03876012 0.050143257 -0.044957716
-0.04131176 0.0365266 -0.03370316 -0.049444202 -0.008529513 -0.02842755 0.0147229815 -0.030438798
0.036465373 0.040905125 0.02138405 0.03491346 0.04381062 0.016384393 0.009611327 -0.05195595
-0.046450786 0.013551219 -0.022174 0.022364596 0.028285183 0.0015540839 0.021498045 0.022412317
-0.030806381 0.019458503 -0.0027089794 -0.029613085 -0.05266332 0.011321305 -0.02208882 0.0110188825
0.033235654 -0.0055618286 -0.025888331 -0.0045417813 -0.026641794 -0.0027335451 -0.009022038 -0.0506802
0.026154213 0.027915156 -0.041373283 0.04434187 -0.04672939 -0.028254133 0.012120077 0.0049580485
0.030462587 -0.010110806 0.039122753 -0.04326329 0.027333768 0.016981477 0.015523643 -0.028919162
0.012078297 -0.024013653 -0.023679242 0.025590755 0.008769807 0.04340179 0.05191382 0.052333783
-0.049420357 0.019434351 0.0016854147 -0.026824454 0.039688982 -0.040247485 -0.000495769 0.0007164896
0.00072828546 -0.051984124 0.0059786174 -0.011498569 -0.030645998 -0.015205251 0.03458862 0.0510363

conv_blocks_K.0.2.bias f4 [32]
00000000: 4266 46bd 28c4 babc 6efe 4bbb b201 2b3d
00000010: 926e c4ba 8f58 8dbc ff44 f03c 4cc1 69bc
00000020: 695d 2f3d 4a41 473d c3f8 aa3c 9450 273a
00000030: f042 1f3d e671 4ebd 1832 58bd d4ad 4c3c
00000040: 3d99 0abd bb5f 37bd d4d7 44bc 2614 03bd
00000050: 15b9 a33b 38ff 0abd aa0d 923b 14b7 d53c
00000060: b151 d7bc ee01 323d 3ab0 a0bc e6d5 2d3d
00000070: 7592 17bd 0738 0bbd 7ea0 e23c 24d2 703d
-0.048437364 -0.022798613 -0.0031126994 0.041749664 -0.0014986566 -0.017254142 0.029329775 -0.014267277
0.042813692 0.04864625 0.020870572 0.00063825515 0.038882196 -0.05040159 -0.052782148 0.012492616
-0.033837546 -0.04476903 -0.012014348 -0.032001637 0.0049964287 -0.0339348 0.0044571953 0.026088275
-0.02628407 0.04345887 -0.019615281 0.042440318 -0.037004907 -0.03398898 0.02766442 0.058794156

conv_blocks_K.0.4.weight f4 [2, 32, 3, 3]
00000000: 636a d0bc e347 42bd 3608 c8bc 9b27 f03c
00000010: cec3 28bd 747b 3cbc c4f7 38bd 56ae 603a
00000020: 814b 163d ce30 503b d06f fc3a e244 50bb
00000030: 1be1 4b3d 55a9 043c 9859 843b 8fdf 023c
00000040: e2c0 993b e8fe 203d 13ce 253d 53b6 3e3c
00000050: ea5f d83c 01ad 2bbd 673f 2ebd 052e 9b3b
00000060: 8db1 683c d869 023c 236e ce3c c2bc 463d
00000070: cb9a 4bbd 2e5d 58bd b207 c63a 52ab 03bd
00000080: c15b 853c 2834 1f3c 0b72 edba d5c1 313b
00000090: 0a49 353b ab72 47bd 3066 c23c 748a 833c
000000a0: 51c6 513d ff2e f73b b12a 5b3b 9d1e 463b
000000b0: 96ab 74bb 74a4 783c 223e 8c3b 6aef 513d
000000c0: 115a e2bc 3489 01bd 14fd 373d 32e4 d23c
000000d0: f08b 3d3b 70c6 363d 17e6 80bb a061 5d3c
000000e0: a65c e73b ee7d 19bb b9de f93c aa26 e5bc
000000f0: 650d 7abc fb37 1d3d 233a e83c 5a48 883c
00000100: 319c ae3c 1689 033d 5eef d5ba 6cb1 573d
00000110: 69f1 1f3c c92f 04bc 3f6a b43c 6a62 793c
00000120: d3c1 2dbd edde 0bbb 5562 0b3c 3970 163d
00000130: c381 3ebd a909 2cbd a962 31bd e263 e03c
00000140: 4ce8 efbb 3341 55bd ce3f 17bd 849c 363d
00000150: 5c99 c43c 678d 1d3d 0d79 63bd a605 c6bc
00000160: 2d35 2f3c 1ac4 b13c b4bc 373d 7fcc 49bd
00000170: 1334 de3c 31ab cd3b b6ce 5b3d 0d54 37bd
00000180: 3ba6 303b 50ca 4fbd 3b4e 2fbc 7f45 d03c
00000190: d227 093d 912c 49bd 7d37 9c3a acdf 303d
000001a0: 95b9 e2bb b2ff a6bb 0434 363b 2430 a239
000001b0: 0c76 c4bb 1210 413d 96d7 a1bc 6d13 4bbd
000001c0: 05e9 2e3d d628 acbc 5920 c3bc 4906 a2bc
000001d0: 3666 f93c df29 233b ae76 e73c ce69 05bd
000001e0: b20d 8fbc 18af 0ebd f70a 1e3d e41b 44bd
000001f0: a219 4abd c0b3 f43c 3869 e5bc f26f 383d
00000200: b9f5 28bd f79e 283b 10e6 b33c 47a7 013d
00000210: 9b25 8dbc 8ed6 15bc 8ee4 8e3c 8356 c6bc
00000220: 4edc e6bc 4fd1 de3c 7c68 323c a144 3ebd
00000230: 6977 ea3a 811d 933c 8d97 50bd 6c29 b1bc
00000240: dfc5 3fbd ae8e 56bd 9599 a4bc 027e 423d
00000250: e105 623b 3f88 873a 8173 ff3b e118 093c
00000260: 175e 303b e00b a23c 620b 48bc cf91 5b3d
00000270: 8f25 0b3b 4ec8 80bc b670 9eb9 4639 f93c
00000280: a3a4 0abd 55e3 483d 7add 21bc 8a4d 04bc
00000290: d98f cdbc 7c2a ed3c b109 6f3c 4583 823c
000002a0: 6bf8 b4bc 4f6f 0ebd ecbe c5bc f391 4b3c
000002b0: 928f 19bd bc0b 363c 970c 19bd 09f7 fabb
000002c0: 526e 843b 30e1 bcbc a945 45bd 674f de3c
000002d0: d263 edbb b38c a53b 86eb 433d ed30 79bb
000002e0: 6d48 11bd 220a 91bc 29d0 3c3d 8b20 053d
000002f0: 6227 2bbd 38eb d4bc 37ba b5bc 7af6 c53c
00000300: f533 313d ab92 d53c 204d 313c 2532 9739
00000310: b715 d2bc 814c ed3c 9075 54bd d469 2abd
00000320: 512b 2e3d 545e 6cbc 4c2d d6bc adee a33c
00000330: 1a7c 7e3c 531b dbbb 01ac 01bc 40fa 2b3d
00000340: 6e99 f93c 3409 463d 8a7c 533c fe6b 8d3c
00000350: 4c8f ea3c 78b6 24bd b529 113c a0db 023b
00000360: b5cf da3c 2100 803c 2833 063b d213 403d
00000370: cfc6 5aba 3af9 513d ed02 4fbd d7f8 523d
00000380: 0077 0cbd 6bf5 133c 2657 313d 844e f13c
00000390: 6fd5 5dbd 9fab 913c 5756 1dbd 9c48 3f3d
000003a0: 614b 4e3d 7cc0 0e3d c50d 223d d4bb 0bbd
000003b0: a9e0 8dbb 4829 5ebc c777 f23c 7840 81bc
000003c0: 68fc 1c3d a684 13bd 7837 433c 9dc7 b7bc
000003d0: dabe e53c eb56 9a3c f28a a5bc 40b9 a6bc
000003e0: 1e90 2a3d a096 443c e203 8ebc 801a 27bd
000003f0: 9009 dc3c 9fad 0f3d 4047 b13c 57ce 34bd
-0.025441354 -0.047431838 -0.024417978 0.02931576 -0.04120236 -0.011504043 -0.045158163 0.00085709
0.0366931 0.003176737 0.0019259397 -0.0031779339 0.049775224 0.0080970125 0.0040390007 0.007987871
0.004692183 0.039305598 0.04047973 0.011640149 0.026412923 -0.041913036 -0.042540934 0.0047357106
0.014202488 0.007959805 0.025199002 0.048519857 -0.04970817 -0.052823238 0.0015108495 -0.032145806
0.016279103 0.009717025 -0.0018115652 0.002712359 0.0027661943 -0.04869334 0.023730367 0.01605723
0.05121452 0.007543444 0.0033442194 0.003023065 -0.0037333719 0.015175927 0.0042798677 0.051253714
-0.027630838 -0.031624988 0.04491909 0.025743578 0.002892252 0.04462284 -0.003933679 0.013512045
0.007060605 -0.0023421007 0.03050171 -0.027972538 -0.015261983 0.038383465 0.028348034 0.016636062
0.021314712 0.032113157 -0.0016321947 0.052659437 0.0097621465 -0.0080680335 0.022023318 0.015221218
-0.042421173 -0.002134259 0.008507331 0.036728118 -0.04651047 -0.0420014 -0.04330698 0.027391378
-0.007321393 -0.052064132 -0.036926083 0.04458286 0.023998909 0.03846493 -0.055535365 -0.024172615
0.01069383 0.021699954 0.044857696 -0.04926729 0.02712444 0.006276511 0.05366393 -0.04475789
0.002695455 -0.05073005 -0.010699804 0.025423763 0.03348524 -0.049114767 0.0011918392 0.04318206
-0.0069190958 -0.005096399 0.0027802 0.00030934915 -0.0059955176 0.047134466 -0.01975612 -0.049579073
0.042702693 -0.021015566 -0.023819136 -0.019778388 0.030444246 0.0024896783 0.028254833 -0.032571606
-0.017462585 -0.03483495 0.038584676 -0.04787816 -0.04934085 0.029870868 -0.028004274 0.045028634
-0.041249964 0.0025729516 0.021960288 0.03165367 -0.017229846 -0.009145392 0.017442968 -0.024211174
-0.028181221 0.027199415 0.010889169 -0.04645217 0.001788837 0.017958404 -0.05092578 -0.021626197
-0.046819564 -0.052382164 -0.020092765 0.04748345 0.0034488367 0.0010340287 0.0077957516 0.008367748
0.002691155 0.019781053 -0.012209745 0.05360585 0.0021232103 -0.015720513 -0.00030220085 0.030422818
-0.033848416 0.049044926 -0.009879464 -0.008075127 -0.025093006 0.028950922 0.014589713 0.015931735
-0.022091111 -0.03477412 -0.02413889 0.012424934 -0.037490435 0.011111196 -0.037365522 -0.0076588434
0.0040414715 -0.023056597 -0.048162136 0.027137471 -0.0072445655 0.005052173 0.047832035 -0.0038023547
-0.03546946 -0.017705027 0.046096954 0.03250174 -0.041785605 -0.025991067 -0.02218352 0.02416538
0.04326244 0.026070913 0.010821611 0.00028838325 -0.02564512 0.028967144 -0.05186993 -0.04160483
0.04252178 -0.014426786 -0.026144646 0.02001127 0.015532518 -0.006686607 -0.007914544 0.041986704
0.030468669 0.04834862 0.01290811 0.017263409 0.028632782 -0.04021308 0.008860041 0.0019967332
0.02671037 0.015625061 0.002047727 0.046893902 -0.0008345665 0.05126307 -0.0505399 0.051506843
-0.034293175 0.00903068 0.043296 0.029456384 -0.054158624 0.01778203 -0.03841242 0.046700105
0.050364856 0.034851536 0.039563913 -0.034114674 -0.00432976 -0.013559647 0.02959813 -0.015777811
0.03832665 -0.036015175 0.01191508 -0.02243405 0.028045107 0.018840274 -0.020207856 -0.020352006
0.041641347 0.011998802 -0.017335836 -0.040796757 0.026860029 0.035077687 0.02164042 -0.044142094

conv_blocks_K.0.4.bias f4 [2]
00000000: 7ef2 6f3c 4150 e13c
0.014645217 0.027504088

conv_blocks_K.1.0.weight f4 [32, 2, 3, 3]
00000000: e163 2e3d 7db7 303e 453e 393d 0f44 3abe
00000010: c090 d53d 0078 473e 3f5c 1dbe 70ee 5abe
00000020: 8f69 a63b d079 243e 68cc d83d 4986 17be
00000030: 130d d33d 38f7 7ebd e30c 08bd 8501 3ebc
00000040: cb1c 39be 54b3 bebd f3a0 903b c57a 0e3e
00000050: c66c 09be 6116 be3d 83f8 273d 9ee7 75bc
00000060: 099e 5dbd e834 42be f216 953d a613 fdbd
00000070: 2c2c 5f3e 2dcd a93d c19d a63d d9ea 613e
00000080: e78e 84bc acdf b3bd 37de 073b 7bb4 8bbd
00000090: f92c 963d 803e 6abe ba64 0b3d 27a5 fabc
000000a0: 61ad 5cbd b43f 053e 06d1 34be 00ba 4dbd
000000b0: ce2c 333e fe05 063d a115 18be 5984 093e
000000c0: 590f 44be d3f6 163e 1d4e b9bd c989 9c3d
000000d0: d659 2f3e 9580 503e bf5f 8b3d 8063 c93d
000000e0: 7e6f 59bd 7112 5bbd 422b 57be 2596 d63d
000000f0: 4921 303d b8d6 853d f9d3 14be e810 69be
00000100: bd97 f33d ae72 dabd 9500 92bd 40a6 853d
00000110: 4aa4 b13d 8e8c 61be f8c1 5bbd 23dd 4a3e
00000120: 758c 1c3d f1a9 06be 5f95 3a3e e2a4 5abe
00000130: 2044 a23c 2202 483d 9833 9f3c 6262 573e
00000140: 76d5 213d 78ef 15be 4c49 f6bc 6a4d bdbd
00000150: 9499 423e 43f7 cd3c 3562 55be 2da8 13ba
00000160: 010f aaba f747 0a3c c8f2 573d 0b96 fa3d
00000170: 274e 3abe 67e1 8c3d fab0 e7bd 9124 193e
00000180: 8c1c fdbd b88f 26be 282e 05be 891e 053e
00000190: 7673 22bd 1d94 4c3e 6eea 43be a82b 903d
000001a0: ce8c a1bd b0bb eb3c 3969 133e 28db ea3d
000001b0: 2118 5cbe 356a f0bc 837d bd3d 8ff0 69be
000001c0: c22a 2cbe bbfc 69be 00d7 d93c 6a17 393d
000001d0: ffc0 bebd 0f6f b83d 0a59 f93c de0e c33d
000001e0: 0447 4e3e 897d 1bbe 446e 35be 5303 603e
000001f0: d42e efbd 8cd2 243e ef87 9bbd fd5c 43bd
00000200: 9fdc cebd 86da 8a3d 5d84 68bc be0a 3b3e
00000210: ef81 67be 8e2d 9bbb c108 043d e5ed 913d
00000220: 1835 363e 9186 9c3d cbed 4abe 776b e13c
00000230: a9c7 c0bd ad0c 0f3e 8f6d c6bd 218c bbbc
00000240: c027 613d 5d7f 183e 0123 ddbd bded 2d3e
00000250: a2ba 24be 4c43 51bd 7906 12be ed81 363d
00000260: a646 3ebe c516 24bb 5ef7 20be 1a23 163e
00000270: 17c7 54be 55d1 c7bd 23e2 46be 7629 12be
00000280: ba77 473c 02fe da3d d913 e73d df89 38be
00000290: c5c9 13bd 3445 32bd 943d c13d 98d0 96bc
000002a0: 425e cfbc f4db 10be 96e5 21be 00e8 d5bb
000002b0: 686e d73d 1b30 e5bd 3f12 363d 7d63 e03d
000002c0: 5ced a4bd 0d63 543e df67 553e 128e 0a3e
000002d0: 3ed6 c33d 316e 39be cb3c f73d 95dd b2bc
000002e0: ddb4 343e c935 40be 1ab8 70bb 4dfe 553e
000002f0: d181 2a3d 07e5 913d 26b8 b53a 234b dabd
00000300: a482 e23d efb4 383e 65a3 fc3d be0f 1dbe
00000310: 3d43 1dbe 3b70 633e fdbc e1bc 8e3f bf3d
00000320: ca76 803d 09cf 13be b7ad 493e 1ed2 1d3d
00000330: 37bf debd 760d 5e3e 762c 963d fa39 563d
00000340: dda0 1fbe 5a5a 4e3e 21a7 e8bd f26d 9dbd
00000350: 4142 64be 0949 773d b9dd 02be ca24 50be
00000360: 3c88 243e 5624 56be 943f 30bd dcf1 a9bd
00000370: d840 4e3c 9aea f33c 0114 503e 4274 883d
00000380: b930 90bd 3b2d 0abe 64b4 6bbd bcc7 fe3d
00000390: 9488 63be 00d0 ab3d 236a 2ebc b4cc d7bd
000003a0: 4af3 183e 5389 e83d 0635 813b 311e e4bd
000003b0: b2c6 0dbe 10a9 6fbd c862 10be d354 14bd
000003c0: f85a 963d e5a7 acbc cd6c cc3c 1042 a4bd
000003d0: 854b 71bd 928a 073e 3c0d bdbc 10ac 5c3d
000003e0: 5391 20be e332 06be f80c 333e 3d7b 16bb
000003f0: 14af 643e 5fd5 98bd d1ba f43d 37f9 c43d
0.04257572 0.17257495 0.0452254 -0.18190025 0.104279995 0.1947937 -0.1536722 -0.21380019
0.0050785015 0.16062093 0.105858624 -0.1479732 0.10305228 -0.062247485 -0.033215415 -0.011597042
-0.1807739 -0.09311548 0.004413718 0.1391402 -0.134204 0.09281612 0.041008484 -0.015008835
-0.054105792 -0.18965495 0.07279767 -0.12357263 0.21794194 0.08291087 0.08135558 0.22062244
-0.016181422 -0.087828964 0.0020731816 -0.06821533 0.073327966 -0.22875404 0.034031607 -0.030596329
-0.053876285 0.13012582 -0.17657861 -0.05022621 0.1749756 0.03272056 -0.14852001 0.13429393
-0.1914648 0.14742593 -0.09048102 0.07643468 0.17124113 0.2036155 0.068053715 0.09833431
-0.053084843 -0.053484384 -0.21012595 0.104778565 0.043000493 0.06535095 -0.14533986 -0.22760355
0.11894176 -0.10666405 -0.07129017 0.0652585 0.08673914 -0.22026274 -0.05365178 0.1981092
0.038219888 -0.13150765 0.18221043 -0.2135196 0.019807875 0.04883016 0.019433782 0.21033624
0.039510213 -0.14642131 -0.030064248 -0.09243281 0.19003898 0.025142318 -0.20838244 -0.0005632665
-0.0012974442 0.008440009 0.05272177 0.1223565 -0.18193875 0.068789296 -0.113130525 0.14955355
-0.123589605 -0.16265762 -0.13005888 0.1299993 -0.039660893 0.19978376 -0.19132397 0.07039577
-0.078881845 0.02877602 0.14395608 0.11467582 -0.2149358 -0.029347518 0.09252455 -0.22845672
-0.16813186 -0.22850315 0.026591778 0.045188345 -0.09314155 0.09005558 0.030437965 0.0952432
0.20144278 -0.15184607 -0.17717844 0.21876268 -0.11678854 0.16095942 -0.07594287 -0.047696102
-0.10100674 0.06779961 -0.014191714 0.18265817 -0.2260816 -0.004735655 0.03223491 0.07125453
0.17793691 0.07642854 -0.19817273 0.027517064 -0.09413082 0.13969679 -0.096888654 -0.022893967
0.05496955 0.14892335 -0.10797692 0.16985221 -0.1608682 -0.05108957 -0.14260282 0.0445575
-0.18581638 -0.0025037986 -0.15719363 0.14661828 -0.20779072 -0.09756724 -0.19422202 -0.14273629
0.012174541 0.106929794 0.112830825 -0.18021344 -0.036081094 -0.04352303 0.09435573 -0.018410012
-0.0253135 -0.14146405 -0.15810236 -0.0065279007 0.10519105 -0.11190816 0.044450995 0.10956476
-0.08053085 0.2074091 0.20840405 0.13530758 0.09562348 -0.18108441 0.12072142 -0.021834174
0.17647119 -0.18770517 -0.0036730827 0.2089779 0.04162771 0.071237616 0.0013864085 -0.106588624
0.11060074 0.1803777 0.123358525 -0.15338036 -0.1535768 0.22210781 -0.027555937 0.09338294
0.06272657 -0.14434446 0.19695173 0.03853046 -0.10876315 0.21684822 0.07332699 0.052301385
-0.15588708 0.20151654 -0.11360002 -0.07686986 -0.22290899 0.060372386 -0.12779893 -0.20326534
0.16067594 -0.20912299 -0.043029383 -0.08298084 0.012588702 0.029774953 0.20320131 0.066627994
-0.07040543 -0.13493817 -0.05754508 0.1244044 -0.22220069 0.08389282 -0.010645422 -0.10537091
0.14936557 0.113543175 0.0039430885 -0.11138571 -0.13845327 -0.05851084 -0.14100182 -0.036213707
0.0734157 -0.021076152 0.024954224 -0.08020413 -0.05890991 0.13236454 -0.0230776 0.05387503
-0.15680437 -0.13105349 0.17485416 -0.002296164 0.22332412 -0.07462572 0.11949695 0.096178465

conv_blocks_K.1.0.bias f4 [32]
00000000: 72c7 1ebe 9e14 3cbe 805b 883d f62d 56be
00000010: c75a 693e 1ba8 163e eeff 02be dfff ed3d
00000020: b037 663e c813 1cbe e3a6 173e 4459 7e3d
00000030: 786e 4bbe 3b43 4fbd dcad d0bc 0c37 20be
00000040: 09bf 4ebd 3c1a 0b3e 6005 353e f450 003d
00000050: 143e 9dbd 3422 61be 278b 1ebe d96c 30bc
00000060: c2be 3639 8a1a a63d 85d6 abbc ab11 56be
00000070: 4074 0fbe e8ea 50bd 80b2 223e a800 683d
-0.1550577 -0.1836724 0.06658077 -0.2091597 0.22788535 0.14712565 -0.12792942 0.11621069
0.2248218 -0.15241921 0.14809756 0.06209685 -0.19866359 -0.050601225 -0.025473528 -0.15645999
-0.050475154 0.13584226 0.17677832 0.031327203 -0.07677856 -0.21985704 -0.1548277 -0.010768139
0.00017427935 0.08110531 -0.020976314 -0.20905177 -0.1400919 -0.051005274 0.15888405 0.05664125

conv_blocks_K.1.2.weight f4 [32, 32, 3, 3]
00000000: 5b6d 15bb e135 46bd f8ed 30bd ef87 67b9
00000010: 51e3 12bd d28d 3d3d 684b 5cbd 5cf0 d2bc
00000020: 4d98 50bd 7b0f 2a3d fae3 383d 76e6 c43c
00000030: e758 f7bc 573a 39bd e7fd 4ebd c970 c43c
00000040: 3046 7f3b 4295 d73c 6b05 903c 8d62 383d
00000050: 140a 5b3d 188e f73c 06f9 323c d850 0abd
00000060: bc36 53bd 12eb 433d 5b5c 463c 32f3 493d
00000070: 2158 c4bc 1020 72bb 25e2 2abd 5a8f 893c
00000080: 7157 263d 1c96 4b3d 32a3 3e3a c5c4 75bc
00000090: 3747 213d d6a4 eb3c 6543 f93c dce7 babc
000000a0: 8ae0 163c b5f6 81bc e4b8 f7bb e317 85bc
000000b0: bb7e 323c e794 ab3c db6a 493c 3ebd e0bb
000000c0: 3b23 2cbd aea0 78bc 3541 343d 1b50 0ebd
000000d0: 1f4a 4dbd 4dc2 57bc a506 683c 41db 1ebd
000000e0: 30b9 563c e38a debc 6e01 a1bc 0aea f8bc
000000f0: 0631 0cbb 9bdb 2cbd 26f6 fdbb 660b b5bc
00000100: 2a87 383d 1c8b d2bc 953c 5a3c d85f f3bc
00000110: 0d29 c83c 7a6e 3ebd ab7f a8bc 8766 c43c
00000120: 1a05 3a3d 7649 c33c 0098 0bbd b1bc 183c
00000130: 5dda f83a 2db0 213d b2e4 3fbc cf16 0ebd
00000140: b5fe 043d 697c 813c f279 b9bc d41b 2d3d
00000150: f4c8 df3c 06de 49bd d7ca 093d f1e9 b9bc
00000160: 3c53 20bc 3a34 ff3c d66c fd3b cc32 573d
00000170: 8682 40bd dd72 ce3c c009 253c d28b 80bc
00000180: 3dfa 65bc e2fa c13c 5b7f 1c3d 8419 53bd
00000190: 011e a93c cb42 15bd 2f6c 3a3b 203b e5bc
000001a0: a21d 2d3b abe4 44bd 6e7d be3c e0c0 13bd
000001b0: cd0e 023d 775b 23bd 0306 1d3d 6ad5 f83c
000001c0: 952d 5cbd 4128 3abd fae7 b4bc 5b0e 12bd
000001d0: 4248 5bbd 22f0 15ba d7da 06bd b91c 813c
000001e0: 7de6 41bd aeb2 f1bc 9b93 9c3c c8aa 7f3c
000001f0: 05ef 203d d882 35bd 41e4 25bd 515c a0bc
00000200: bc88 413b 6e59 80bc aa59 2f3c 133d 1e3d
00000210: d7b0 233c 44ce 1c3d 1b30 123c 9272 9a3c
00000220: 5ee6 2fbd b42d bebb 5860 2d3d de56 94bc
00000230: c6bf 83bc fdbf aabc c35c 7d3c 3be5 3f3d
00000240: 05f0 963c e5cb 3f3d 097a 123d 985e 73bb
00000250: deb5 7abc bd38 71bc 185c 9d3c d422 093d
00000260: 3cc0 52bd a8b3 bbbc fabe 51bd a1a4 01bd
00000270: 8271 2f3d f638 493d 8507 0dbd 935f c5bc
00000280: 709f aa3c bb0d 943c dd6f 133c fe8c dcbb
00000290: 6328 e4bc cbe8 44bd 5327 4abc a3c0 35bd
000002a0: a801 493d d330 463d 7e53 1dbd 1c67 a93c
000002b0: f5bd 1c3d d854 343d e9fc 2f3d 2836 13bd
000002c0: b3b6 283d 59ae 503d e5e7 333b cd46 c13c
000002d0: 8a27 99bc c19d 583d a093 45bd c715 00bd
000002e0: e0f9 a13b 63db aabc 52a1 89bc 3d48 803c
000002f0: d667 e53c be79 073d 6e1d 373d d239 c53c
00000300: a48e abbc ce94 7a3c 7a15 fabc 334a ec3c
00000310: 0793 9e3c e2a9 363d 3112 e63c d808 443d
00000320: 4ecb ffbb 2e84 3bbd c154 283d 1c85 45bd
00000330: cf50 383b 5231 7f3b c225 9a3b 068d 103d
00000340: b053 dd3b 4b3d 83bc 35d2 e3b9 a3d9 59bd
00000350: 81e2 0ebd 0695 16ba 16d9 443d 4d92 1cbc
00000360: 0333 d93c febf 04bd 091d 27bd 1156 b93c
00000370: 1a31 ee3c 93bd e3b7 0e9e 213d 08a3 923c
00000380: 224b ca3c 30e0 453c 39ab 5d3d 520d 26bd
00000390: 83de efbb 0285 07bd a62c 00bd 3c50 513c
000003a0: a540 07bb c8a7 acbb b88a 8e3c 20c6 433d
000003b0: 966f 47bd 7eb2 5cbc 7bcf d5ba f3ef e33c
000003c0: 3c1a a3bc 4f43 4cbd 6b56 96bc 25d3 debc
000003d0: 9580 50bd 3992 16bd 8655 97bc 7892 773c
000003e0: f0e8 e1bc 0e0b 61bc 02e6 32bd 43c7 f2bc
000003f0: b19f c1bb 49c1 b2bc 0118 44ba 6463 3e3c
-0.0022800777 -0.048391227 -0.043195695 -0.00022080516 -0.035861317 0.04627783 -0.05378285 -0.025749378
-0.050926495 0.04151867 0.04513929 0.024035674 -0.03019376 -0.045221653 -0.05053511 0.023979561
0.0038951747 0.026316289 0.017580708 0.04501586 0.053476408 0.030219123 0.01092363 -0.033768505
-0.05156587 0.047831602 0.01210698 0.049304195 -0.023967804 -0.003694538 -0.041719574 0.016791988
0.040610734 0.049703702 0.0007272243 -0.015000527 0.039374556 0.028765123 0.030427644 -0.022815637
0.009208808 -0.01586471 -0.0075598825 -0.016246742 0.010894473 0.020945026 0.012293543 -0.006858497
-0.042025786 -0.015175028 0.0440075 -0.034744363 -0.050119516 -0.0131688835 0.01416174 -0.038783316
0.013105676 -0.027165836 -0.019654002 -0.030385036 -0.0021391525 -0.04220162 -0.0077502904 -0.022100162
0.045050777 -0.025701098 0.013320108 -0.029708788 0.024433637 -0.046492077 -0.02056869 0.02397467
0.04541502 0.02383874 -0.034080505 0.009322331 0.0018985976 0.039474655 -0.01171224 -0.03468972
0.03246947 0.015806394 -0.022641156 0.042262867 0.027317502 -0.049284004 0.03364071 -0.02269456
-0.00978547 0.031152833 0.0077339215 0.052538678 -0.046999477 0.025201255 0.010073125 -0.015691672
-0.014036712 0.0236792 0.038207393 -0.051538005 0.02064419 -0.036440652 0.002844583 -0.027982295
0.0026415368 -0.048069637 0.023253169 -0.03607261 0.031752396 -0.03988215 0.03833581 0.030375201
-0.053754408 -0.045448545 -0.022083271 -0.03565822 -0.053535707 -0.00057196815 -0.032923546 0.015760766
-0.04733895 -0.029504146 0.019113353 0.015604682 0.039290447 -0.044314235 -0.040500883 -0.01957527
0.0029530963 -0.015667643 0.01070253 0.038632464 0.009990892 0.038282648 0.008922602 0.01885346
-0.042944305 -0.005803788 0.04232821 -0.018107828 -0.016082656 -0.0208435 0.015464011 0.04684947
0.018424997 0.04682531 0.035760913 -0.003713524 -0.01530215 -0.014723 0.019208953 0.03348048
-0.05145286 -0.022912815 -0.05120752 -0.031651143 0.04283286 0.049126588 -0.034431 -0.024093425
0.020827979 0.018072953 0.008998838 -0.0067306748 -0.02785129 -0.04807357 -0.012338477 -0.044373166
0.049073845 0.048386406 -0.038409702 0.02067905 0.038267095 0.044026226 0.042965803 -0.03594032
0.04118986 0.05094752 0.0027451452 0.02359333 -0.018695612 0.05288482 -0.04823649 -0.03127077
0.0049431175 -0.020856565 -0.016800556 0.015659446 0.028003614 0.033075087 0.0447058 0.024075422
-0.02094204 0.015294267 -0.030527819 0.028843975 0.019357217 0.044595607 0.028084846 0.047859997
-0.007806218 -0.045780353 0.041096453 -0.048222646 0.0028124338 0.003893931 0.004704208 0.03529074
0.006754361 -0.016020438 -0.0004345343 -0.05318607 -0.03488398 -0.0005744252 0.04805859 -0.009556365
0.026513582 -0.03240966 -0.040799174 0.022624047 0.029076148 -2.7148786e-05 0.039457373 0.017900005
0.02469403 0.012077376 0.05411837 -0.040540047 -0.0073202266 -0.03308583 -0.03129258 0.012775477
-0.0020637896 -0.0052690245 0.01740013 0.04779637 -0.0486904 -0.01347029 -0.0016312444 0.027824378
-0.01990997 -0.049868878 -0.018351754 -0.027200291 -0.050903875 -0.036760543 -0.018473398 0.015110604
-0.027576894 -0.013735546 -0.043676384 -0.029636031 -0.0059089293 -0.021820681 -0.00074803835 0.011620376

conv_blocks_K.1.2.bias f4 [32]
00000000: 5f6c 10bd 221a 0ebd 096c 1a3d 6577 153c
00000010: 446e 273d 5553 a33b 1b78 fabc 2b62 aebc
00000020: 51a2 5fbc c543 063d 1227 48bd 0057 de3c
00000030: 334d 8dbc 76de 683d 0727 523b 9e16 e63b
00000040: d193 6cbc 2b29 8a3c f2bf c73b 4c06 bbbb
00000050: 689f 783d 2ca4 6fbd 1509 503d b678 4b3d
00000060: 9a57 da3c fee9 98bc 7541 d9bc 7740 30bd
00000070: ed6d 0d3d ec2f f43b 859b 9a3c 746d be3c
-0.0352596 -0.03469289 0.037700687 0.009122704 0.040876642 0.004984299 -0.030574849 -0.021287045
-0.013649539 0.032779474 -0.048865385 0.027141094 -0.017248726 0.05685278 0.003206672 0.007021739
-0.014439539 0.016865334 0.0060958797 -0.0057075378 0.060698897 -0.058506176 0.05078991 0.049675666
0.0266531 -0.018666264 -0.02652047 -0.04303023 0.03452866 0.007452002 0.018872986 0.02324555

conv_blocks_K.1.4.weight f4 [2, 32, 3, 3]
00000000: 6157 dc3c 38df 90bb db27 033d 8eb1 493c
00000010: 1f80 8d3c a245 af3b 208a e43a b109 7bbc
00000020: 0c25 51bd 580b 403c 5b9d b83c 8b25 4c3d
00000030: da86 3c3d e332 55bd f2b0 643c b5f5 4b3c
00000040: 1c99 2abd 45b8 13bc f2ce b3bc e977 05bd
00000050: 85c1 413d a97f 67bd 1e0b 41bd 6bb6 803b
00000060: 49e9 6d3d 5b70 813c cfaa f83c c970 fe3c
00000070: 4d01 ab3c 6aea b7bc c892 1f3d 1aa5 febc
00000080: 608c 473d 133d d8bc ef8b ad3c ec07 a83c
00000090: c569 7cbb a477 25bb e36c 743c 0d2d 63bc
000000a0: 9568 8fbc 8ccd 53bd afec d43c b4b8 263d
000000b0: 3f14 7d3b 12d7 5abd d705 5fbd 118e 0c3d
000000c0: 0a20 c13c 0502 3cbd 02c9 50bd b29d 343d
000000d0: f7f1 88bc ad7a 363c 662e 883c de55 813b
000000e0: b158 5c3d df52 b13b c070 2c3d b516 323d
000000f0: 84be 293d 668c 5ebd e858 c539 1fc0 6f3d
00000100: bd9a bd3c 2c25 b8bb 117d 3e3c e7b4 40bc
00000110: 334c 363d 2403 0bbd fd15 41bd 8644 203d
00000120: d789 4e3d 6343 eebc 6003 1a3d 416b 1e3d
00000130: 05df 2ebc c1df 3d3d c711 a8bc 32b4 05bd
00000140: e969 e63c 89b9 25bd 46aa 143d 7d2a 3bbd
00000150: 9858 c33a cbd9 493b 3328 45bd 9571 d93c
00000160: 6b59 1abd 2dd3 3d3d ee2c 35bc 360d 463d
00000170: 084d 18bd 781c 9039 314b 34bd 97ce c13a
00000180: 797b babc f527 9bbc e532 113d 0c38 003c
00000190: 232c 733c df44 5a3d 41a1 95bc f09f 34bb
000001a0: d7d8 88bc d930 803c 00f9 0bbd 1ff4 ebbc
000001b0: 69ad 1b3d 78df 473d 423f a7bc 009a f7b9
000001c0: a63b fe3c d944 973c 2980 1b3d c8ef 21bc
000001d0: 4f9d 673d 3d27 5abd 260b 0dbd ec9e dabb
000001e0: e5b7 6b3c 5eb7 8fbb 5bbe 95bc 8893 3e3d
000001f0: 57ba 61bd 3c87 a2bc 4fb2 a7bb 9448 84bc
00000200: cf1a b93a 531c b73c 41a3 273d c427 c53c
00000210: 01dd 3d3d 7c5b 92bc b22b 5e3d 12fa 01bd
00000220: 96f0 71bb 6f40 673d b202 e53c d868 51bd
00000230: e229 ddbc 9db5 e3bc c084 b33c 3363 30bd
00000240: 687c ffbc d743 3d3d 788d 3ebd d212 4dbd
00000250: fa23 2f3d 44a6 afbc e079 3239 7c7b f43c
00000260: e590 133c d4f4 2a3c b270 64bd 1dc4 443d
00000270: 1946 333d a25e 5fbd 2e70 643d 663d 3bbb
00000280: 2f13 2ebd 02d9 47bc c541 f2bc 0a95 c13c
00000290: 0218 58bd 6f82 423d 393d 99bc 4a76 55bd
000002a0: 553a 3abc a874 5c3d 60ad 233d 27e4 4fbd
000002b0: 3c25 91bc c4fb 30bd 26e5 88bc 45c1 88bc
000002c0: 2777 d8bc d2de aa3b 3b9e 273d 4c7e 56bd
000002d0: c86b 1cbd a1e4 54b9 a96c 9cba b623 5d3d
000002e0: 4591 38bd 46fb d7bc a342 3abd 0b20 4f3c
000002f0: b078 15bc 385c 58bd 99ec a13a a6cf 52bd
00000300: c118 cd3c 22f3 62bc dce3 2dbc 5449 66ba
00000310: c1bb 39bc f0ad 463d b0c5 23bd 10ba 80bc
00000320: 0bda 653d 5ca8 ecbc 827c 4d3b 675f 87bc
00000330: a50b e9bc a6f8 98bc 19dd 08bd 6fa5 123d
00000340: 8761 fabb 0479 603d be7c d2bc cd3f 84bc
00000350: 4d69 26bd 298b 163d e799 3fbc 6b80 0d3c
00000360: 37b9 8dbc 3a75 283c 22e4 023c 8ee3 54bd
00000370: 1f0d 2f3d 0d64 3c3d b421 f83b 1c6d 183d
00000380: a67c 063d 53f2 3fbd 8517 0cbc a7c1 33bd
00000390: 05b1 cf3c 0d26 a53c a3a5 cdbc 85a8 8b3b
000003a0: 2284 1f3d 5584 b0bb ece2 57bd a761 423c
000003b0: f75a d53c 33cd 69bc 7614 c7bc f898 a23c
000003c0: be86 5cbd b0b8 293b 7109 4bbd b022 3fbd
000003d0: 89e1 51bd fad4 dfbc da5b 65bd 88f9 d8bc
000003e0: 0d98 06bd ac26 acbc 5e0d 0dbd f714 a03c
000003f0: fa8c 5fbd fe22 d93c 3a0c cdbc 0834 f6bc
0.026897134 -0.004421141 0.03202043 0.012310399 0.017273007 0.005348877 0.0017436184 -0.015322135
-0.05106072 0.011721455 0.02253597 0.04984049 0.046027042 -0.052050482 0.013958203 0.012448718
-0.041649923 -0.009016101 -0.021949265 -0.03258506 0.047303695 -0.05651823 -0.047129743 0.003927996
0.058083806 0.015800646 0.030354885 0.03105964 0.020874644 -0.022450645 0.03895834 -0.031084586
0.048717856 -0.02639631 0.02118489 0.02051159 -0.0038515192 -0.0025248313 0.014918539 -0.013865721
-0.017505923 -0.051709697 0.025991766 0.04070349 0.0038616804 -0.053427763 -0.05444893 0.034315173
0.023574848 -0.045900363 -0.050972946 0.044095702 -0.01671694 0.011137647 0.016623687 0.0039470037
0.05379552 0.0054114903 0.042099714 0.043478686 0.041441455 -0.054333113 0.00037641008 0.05853283
0.023145074 -0.0056196656 0.011626498 -0.0117618805 0.044506263 -0.033938542 -0.04714011 0.03912785
0.050424423 -0.029084867 0.037600875 0.038676504 -0.010673289 0.046355966 -0.02051629 -0.03264255
0.028126674 -0.040460143 0.036295198 -0.045694817 0.0014903722 0.003079998 -0.04813404 0.026543418
-0.037682932 0.04634397 -0.011058075 0.048352443 -0.037182838 0.0002748703 -0.04401702 0.00147863
-0.022763954 -0.018939951 0.035448927 0.007825863 0.014842066 0.053288337 -0.018265368 -0.002756115
-0.01670496 0.015648292 -0.03417301 -0.02880293 0.038007174 0.0487971 -0.020415906 -0.0004722625
0.031034302 0.018465446 0.03796402 -0.009883828 0.056546506 -0.053260077 -0.03443446 -0.006671777
0.014387106 -0.0043858727 -0.018279245 0.046527416 -0.05510935 -0.019839875 -0.0051176916 -0.01614789
0.001412237 0.022352373 0.040927175 0.024066813 0.046353344 -0.017865889 0.05424089 -0.031732626
-0.0036917082 0.056457933 0.027955387 -0.051125377 -0.02699751 -0.02779656 0.021913886 -0.043063354
-0.031187251 0.046207275 -0.046521634 -0.050066777 0.04275892 -0.021441586 0.00017020805 0.029844038
0.0090067135 0.010434348 -0.055771537 0.04803859 0.043768022 -0.05453361 0.055771045 -0.0028570532
-0.042498764 -0.012197735 -0.029572377 0.023630638 -0.05275727 0.047487672 -0.018705951 -0.052114762
-0.0113664465 0.05382219 0.039960265 -0.050754692 -0.01771795 -0.043208852 -0.016710829 -0.01669372
-0.026424004 0.0052145505 0.040922385 -0.05236654 -0.038188726 -0.00020303066 -0.0011934239 0.053989135
-0.045060415 -0.026364934 -0.045473706 0.012641917 -0.009123012 -0.05282232 0.0012353837 -0.05146756
0.025036218 -0.013851913 -0.010613408 -0.00087847305 -0.011336268 0.048505723 -0.03998345 -0.015713722
0.056116145 -0.028888874 0.003135473 -0.016524984 -0.028447935 -0.018673252 -0.03341398 0.0358023
-0.0076410207 0.05480291 -0.025694247 -0.016143704 -0.040627766 0.036753807 -0.011694408 0.008636574
-0.017300231 0.010281855 0.007988961 -0.051974826 0.042737123 0.045993853 0.007572377 0.03721343
0.032833718 -0.046861958 -0.008550529 -0.043885853 0.025352964 0.020159746 -0.025103396 0.0042620325
0.03894437 -0.005386869 -0.052706644 0.011864102 0.026044352 -0.014270115 -0.024301749 0.019848332
-0.053839438 0.0025897436 -0.04956955 -0.04666394 -0.051240478 -0.027323235 -0.0559958 -0.026486173
-0.03285985 -0.021014534 -0.034436576 0.019541247 -0.054577805 0.026505943 -0.025030244 -0.030054107

conv_blocks_K.1.4.bias f4 [2]
00000000: 8d57 083d 205f 253d
0.03328662 0.04037392

conv_blocks_I.0.0.weight f4 [32, 2, 3, 3]
00000000: 8dfd 603c 8789 123e 4f00 c53d fb3a c03d
00000010: 0afe 41be 18bd 55be ff39 cf3b 40a9 c2bd
00000020: 03d2 263d bec9 113e 7b94 2cbc 0a6e 63be
00000030: e17a aabd 615c 5e3e 2e4e 23be 57aa ab3d
00000040: 4cfe 813d 9375 b33d 1cee 1abe bfbb 333e
00000050: e78d e7bb 909a 033d affc 433d d4c1 0eb8
00000060: 27c6 77bd 6cde 51be 24bb 2d3e cd9b 823d
00000070: 1c5e cabd 71d7 41be 4445 a0bd f5d0 8dbd
00000080: d5cf 363e 6ff7 b73d f1f5 47be 0b3e b9b9
00000090: fb82 c1bd 8a31 f83d 2a36 c1b6 4bfa bb3d
000000a0: f762 da3c 969b 32be bf03 c5bd 8296 22be
000000b0: c79d c53c 8dfd 79bd b38b a5bd 59c3 633e
000000c0: 0466 093e b950 2d3c 32aa 1d3e 6e5f 52be
000000d0: 000a 823d 37bc 1bbe 9247 a3bd 27f4 53be
000000e0: 8601 833d dbe0 5cbe e1e1 0f3e 8a0c bd3d
000000f0: d66f e13c bcf6 0b3e 80ac 2cb9 df93 f5bd
00000100: d54f 1e3b 0bc1 96bd 57ad bf3c f314 1f3e
00000110: 48b3 56be 9b53 3bbe db2f fe3d 6cae e9bd
00000120: 585e 463e a775 403e d27b 44bb 35a3 143e
00000130: 26c4 113e a709 0abe 48ec 3f3e 078c 743c
00000140: 5fcf a83b e6f3 1e3e 5326 3fbe 3989 5abe
00000150: 5eb8 c0bd 196d f1bd 1781 e0bd faf9 493d
00000160: 204e 663d 1cb0 b73d 272c 093e 4efe 653d
00000170: 5be0 aa3d aa12 873b 8da3 373e 9f88 66bd
00000180: f3dc 073d 7b00 a03d 6dd5 6b3b 1e8c f3bd
00000190: f06b 4cbd 7dbc b8bc 9c1e 20be 4d0b f7bd
000001a0: fbda 5b3e 50f3 583d f95d 9f3c 1d1a cc3c
000001b0: db7e 5ebe 8263 013e c8e7 da3d 1354 413e
000001c0: dd32 da3d f53d 233d 7ad3 363e 8a51 4f3d
000001d0: 467d 433e 7b77 37be c794 5cbe 513f c43d
000001e0: 0f85 ae3c 0768 e03d 6bd5 d3bd 5ee2 35bd
000001f0: 0d01 913d c52c 8c3d 33bf 3cbe 1d68 2f3d
00000200: 36d2 8b3c a4e5 b9bd a95a 06be 6285 193d
00000210: c671 673e 4715 5b3e 865e 15bc 1122 813d
00000220: d7f3 513e 1e99 883d 87b8 9bbd 597b 013c
00000230: d995 243e 0b34 a53d 3b6c 0bbe 50a7 27bd
00000240: 21b2 58be f854 28b8 004e fcbc 7b72 86bd
00000250: 037c e63d 7415 463e 5a81 c53d d1e7 0e3e
00000260: cbf9 5d3d 9073 693d 2040 1dbe 026a b53d
00000270: f1a6 c23c ee9b 4fbe 1e80 46b8 8ab9 d03c
00000280: 0488 653e a508 623e e3fa ae3d fdbf c33c
00000290: 1b61 dabd a63f d4bb 5325 5a3c a231 4fbe
000002a0: 3b91 2cbe af1a a8bd c1b6 56bd a11b fbbc
000002b0: 0b65 7ebd a7bb 5bbe 1ec5 963d 91a6 133e
000002c0: ca6c 343e e71b 2bbe 56b0 afbc 2e79 453d
000002d0: dc00 47bd e20f 5dbe 3b33 c8bd df1e 63be
000002e0: 249b 48be ddf5 59be 6e4c e2bd 5b4a 7b38
000002f0: 3db8 fd3d faba ed3d 6d82 4d3e d01b 9cb9
00000300: 8854 203e 6fc6 60bd 1f59 593e de5f 263e
00000310: b6fe d9bd 819d 04bc d1a9 05be 7b79 6b3e
00000320: ced1 1a3e e0b0 41be 453a 0a3e f646 c23d
00000330: e2d0 c83d 6838 bdbd 4887 37be 621c 0f3e
00000340: 5146 0a3d 69d1 2bbe 9c71 693e 7a33 403e
00000350: 8ba8 81bd b889 0bbe 22ac 753c 8690 5b3e
00000360: db63 4d3e f411 063e ac26 5cbe 82bb 133e
00000370: 93fc 3a3e 9a99 3ebe 2537 05be 3bc7 5d3e
00000380: 8e8c 11be f8e9 f5bd b891 f63d 937d 43be
00000390: c026 40be 979d dc3c 5955 ec3b a4fc abbd
000003a0: 0ea5 f83c 88bd 053e d20b 0c3d f272 3a3e
000003b0: 40b7 22be 6369 853d 2c0a 21be c4cf 2f3e
000003c0: b7a9 3f3e 1231 4cbc e6c8 bdbd 3f8a a4bd
000003d0: 0aac 0abe 6d9a 69be 0cee bbbb 25d3 f8bd
000003e0: 5e11 843c 6127 393d 28eb 6abd a59a a3bd
000003f0: 35f5 1e3e a8b0 81bd 1963 51be 577f 953c
0.013732326 0.14310275 0.096191995 0.0938625 -0.18944564 -0.20872915 0.0063240523 -0.09504938
0.040727627 0.14237115 -0.010533447 -0.22209945 -0.083242185 0.21714927 -0.15947792 0.08382099
0.063473314 0.0876266 -0.15129894 0.17552088 -0.0070664766 0.032129824 0.0478484 -3.4035955e-05
-0.060491707 -0.20495003 0.1696592 0.06377373 -0.09881231 -0.1892984 -0.07825711 -0.06924621
0.17852719 0.08982741 -0.19527413 -0.00035332175 -0.09448811 0.12118824 -5.7581537e-06 0.09178599
0.026658518 -0.17442164 -0.09619855 -0.15877727 0.024123086 -0.06103282 -0.08083286 0.22242488
0.13417822 0.010578328 0.15396956 -0.20544216 0.063495636 -0.15208517 -0.07972635 -0.20698605
0.06396775 -0.2157015 0.1405101 0.09230907 0.027519148 0.1366834 -0.0001646746 -0.11991095
0.002415647 -0.07361039 0.023398085 0.15535335 -0.20966828 -0.18293612 0.124114715 -0.114102215
0.19371927 0.18794881 -0.002998103 0.14515384 0.14234981 -0.13480245 0.18742478 0.014925963
0.0051516737 0.15522727 -0.18666963 -0.21341409 -0.09410165 -0.11788387 -0.10962122 0.04931066
0.05622685 0.08969137 0.13395749 0.056150727 0.08343574 0.004122098 0.17933483 -0.056282636
0.033169698 0.07812592 0.0035985366 -0.118919596 -0.049907625 -0.022550816 -0.15636677 -0.12062702
0.21470253 0.052966416 0.01945399 0.024914796 -0.21728079 0.12635615 0.1068874 0.18879728
0.10654233 0.03985401 0.1785411 0.05061487 0.19090757 -0.17916672 -0.21541129 0.09582389
0.021303682 0.10957342 -0.103434406 -0.044405334 0.070802785 0.068444766 -0.18432312 0.0428239
0.01706801 -0.090770036 -0.13120522 0.03748072 0.22601995 0.21394835 -0.009116774 0.06305326
0.20503174 0.0666983 -0.07603555 0.0079029435 0.16072787 0.08066567 -0.13615505 -0.040931046
-0.21161701 -4.0133455e-05 -0.030798912 -0.06564804 0.11254122 0.19344121 0.096438125 0.13955618
0.0541933 0.056994975 -0.15356493 0.0885811 0.023761244 -0.20274326 -4.7326197e-05 0.025479097
0.22415167 0.2207361 0.085439466 0.023895258 -0.10663053 -0.006477314 0.013314563 -0.20233777
-0.16852276 -0.082082145 -0.05242038 -0.030652823 -0.06210808 -0.21458302 0.07361816 0.14419009
0.17619625 -0.16709863 -0.021446388 0.04821127 -0.048584804 -0.2158809 -0.097753964 -0.22179745
-0.19590431 -0.21285196 -0.11049734 5.9912312e-05 0.12388656 0.116079286 0.20069285 -0.0002977536
0.15657246 -0.05487674 0.21225403 0.16247508 -0.106442854 -0.0080941925 -0.13053061 0.2299556
0.15119097 -0.18915129 0.1349879 0.09486191 0.09805466 -0.09239274 -0.179227 0.13975671
0.033758465 -0.16779102 0.22797245 0.18769637 -0.06330975 -0.13626754 0.014994653 0.2144185
0.20057623 0.13092786 -0.21499127 0.14426997 0.18260412 -0.18613282 -0.13009317 0.21658032
-0.14213774 -0.120075166 0.120395124 -0.19090872 -0.18764782 0.026930613 0.0072123227 -0.08397797
0.030352142 0.13060582 0.03419096 0.1820791 -0.15890217 0.065142415 -0.15726537 0.171691
0.18717085 -0.012462871 -0.09266834 -0.08034181 -0.1354219 -0.22812815 -0.0057351645 -0.121496476
0.016121563 0.04520357 -0.05735317 -0.079884805 0.15523227 -0.06332523 -0.20447959 0.018249197

conv_blocks_I.0.0.bias f4 [32]
00000000: 1d9b 643e 8eb7 0fbd 4636 f8bd a709 023e
00000010: 58df ba3d f1b4 0b3e b51b 4ebe 8f51 5f3e
00000020: 3e47 183c f77d 3ebb 0e5f 443e 0745 503e
00000030: 8f84 413e 6c88 123e b313 e4bd 0c2a 9f3d
00000040: 415d 80bb 66f5 59be 62c4 ecba be0e 04bc
00000050: 6005 a7bd 62fd 58be 5358 063e 83e6 b4bd
00000060: 94d6 3d3d 7ee9 cb3d 360a 323d de76 6bbe
00000070: 9541 25be 25e5 ae3d 7207 20bd c177 6abe
0.22324796 -0.03508716 -0.12119727 0.12698995 0.09124631 0.13643242 -0.20127757 0.21808456
0.009294329 -0.002906678 0.19176885 0.20338832 0.18898223 0.14309853 -0.1113657 0.07771692
-0.0039173667 -0.21285018 -0.0018063898 -0.008060155 -0.08155322 -0.21190408 0.1311963 -0.08833029
0.046347216 0.099566445 0.04346677 -0.22994563 -0.16138299 0.085397996 -0.0390696 -0.22897245
